mi/Algorithm/impl/eegnet_model/model_1_4.pkl (torch, 44628 bytes, 18 tensors)

weight f4 [8, 1, 1, 64]
0.09101451 0.06087702 0.06722775 -0.00900279 -0.026661184 -0.027648127 0.12200436 -0.034207463
0.051932395 -0.08605331 0.06340095 0.037472486 0.08697093 -0.103255235 0.027888946 -0.11960397
-0.092675656 0.0917849 -0.022114085 0.007721075 -0.080463216 -0.059998605 0.057487506 0.005813822
-0.03107282 0.11080021 0.07288118 -0.07742883 -0.076943755 -0.05602308 0.008452195 0.05906995
0.1109059 -0.024977427 0.043134782 -0.024118396 0.06261129 0.07102078 -0.005346221 -0.0056891968
-0.0005803484 0.030215954 0.06909288 0.030822074 0.0116687 0.11018457 0.10334326 -0.019322004
0.10803301 -0.12353773 0.099458195 0.04376127 0.049907938 -0.027323652 0.01949289 -0.009228361
-0.11655648 -0.0054378235 0.051724203 -0.053167142 -0.056826193 -0.07604773 0.09093731 -0.07042221
-0.08567056 0.044315245 0.021284241 -0.08069818 0.03920268 0.05865222 0.068559214 0.0839659
-0.10764572 0.10137275 0.051135216 -0.105043694 0.03742215 0.015692897 0.018766394 -0.0625185
0.11303705 -0.018173821 0.11219912 0.12096703 0.1240173 -0.034132354 0.049758248 -0.043439995
0.05391994 0.06272683 -0.014141171 0.022098517 0.008248938 -0.0119972695 -0.09087811 0.026529668
-0.05679685 -0.06502535 0.08288525 0.038708653 0.06749963 0.049157 -0.070295654 0.07430693
0.09911725 0.0033034338 0.08968479 0.07215576 -0.060264714 0.05921499 0.08960254 -0.08741372
0.040888313 0.0136538455 -0.09056356 -0.07849693 -0.087449364 -0.046694543 -0.06709185 -0.04692894
0.09717377 -0.0796405 -0.077426404 0.0876397 0.124478266 -0.06697219 -0.06891667 0.0069629294
-0.07442165 -0.06809936 -0.04341313 -0.017263493 0.06573572 0.07578255 0.11723714 -0.0030099475
0.11857575 0.10289419 0.024918268 -0.07265271 0.0038064776 0.08481943 0.0201896 -0.06257381
0.05094258 -0.008412904 0.009176195 0.07301152 0.0761953 -0.12287433 -0.09645173 0.09802458
0.010623691 0.084299274 0.058255795 0.093783885 0.1264901 0.112343855 0.053918555 -0.09006391
-0.090915635 -0.063414335 -0.015650623 0.091026135 -0.021060433 0.06630001 0.11032612 -0.054149635
0.05884233 -0.015874889 0.031163743 0.047347125 0.111567326 -0.030593354 0.11774054 0.03571704
-0.08394307 -0.067799486 0.09801928 0.11298219 -0.118292846 -0.048679776 -0.0033724247 0.07168276
-0.08529715 -0.069917046 -0.11890322 -0.0055744774 -0.05564402 0.08835374 0.12024995 0.064687505
-0.042660892 0.07311373 -0.09835412 -0.086874515 -0.045738377 0.103897184 -0.052539367 0.09567181
-0.045518387 -0.11146161 0.025931299 -0.0022560568 0.065545715 0.008189939 0.06497287 0.0162407
-0.006305386 -0.0022849285 0.052735902 0.015584294 -0.007958024 0.013793296 -0.075003706 -0.04121891
0.029249199 0.10876162 0.021137364 0.012426255 0.047111537 0.109001465 0.04007604 0.048091654
0.09049164 -0.098276876 -0.07634271 -0.019990074 -0.024162069 -0.07646594 -0.07538902 -0.05531717
0.056097105 -0.048500374 -0.03701666 0.00019706326 -0.06478763 -0.089054026 -0.0984119 0.027241636
0.015091816 0.003872004 0.04221435 0.08933776 -0.05524542 0.037988577 -0.06716505 0.06866727
0.08988791 -0.12211945 -0.035314944 -0.06325492 0.010204618 -0.026729455 -0.018604662 -0.0011991585
00000000: d165 ba3d 2f5a 793d b4ae 893d 7080 13bc
00000010: 8e68 dabc 537e e2bc 6cdd f93d 201d 0cbd
00000020: 10b7 543d b83c b0bd 5bd8 813d c07c 193d
00000030: d11d b23d 7b77 d3bd 5c77 e43c edf2 f4bd
00000040: bccc bdbd b9f9 bb3d 9928 b5bc 1201 fd3b
00000050: e6c9 a4bd 19c1 75bd 0578 6b3d e081 be3b
00000060: 6d8c febc 38eb e23d ba42 953d 0293 9ebd
00000070: b094 9dbd 7578 65bd 137b 0a3c 55f3 713d
00000080: a222 e33d 769d ccbc 19ae 303d f193 c5bc
00000090: 593a 803d 5873 913d 5a2f afbb 716c babb
000000a0: 8622 18ba 7387 f73c 9180 8d3d 937e fc3c
000000b0: 132e 3f3c 73a8 e13d a2a5 d33d 2e49 9ebc
000000c0: 6940 dd3d 5901 fdbd bdb0 cb3d 043f 333d
000000d0: 446c 4c3d dad5 dfbc 8eaf 9f3c 8d32 17bc
000000e0: 2ab5 eebd c52f b2bb c2dc 533d cac5 59bd
000000f0: 95c2 68bd eabe 9bbd 573d ba3d 8539 90bd
00000100: 0c74 afbd e783 353d 4a5c ae3c 1645 a5bd
00000110: fd92 203d 4f3d 703d c668 8c3d 50f6 ab3d
00000120: 5c75 dcbd 849c cf3d 2973 513d 2621 d7bd
00000130: f847 193d 648e 803c fbbb 993c b309 80bd
00000140: f87f e73d 44e1 94bc a7c8 e53d 90bd f73d
00000150: c8fc fd3d 5ece 0bbd 4ecf 4b3d 23ee 31bd
00000160: 28db 5c3d ed76 803d 5fb0 67bc f307 b53c
00000170: 8e26 073c 3290 44bc 4d1e babd bf54 d93c
00000180: d0a3 68bd 032c 85bd bebf a93d f78c 1e3d
00000190: 3f3d 8a3d da58 493d 2bf7 8fbd 3b2e 983d
000001a0: fcfd ca3d 6c7e 583b a9ac b73d 66c6 933d
000001b0: 22d8 76bd 6b8b 723d 8981 b73d f705 b3bd
000001c0: 817a 273d 61b4 5f3c 6379 b9bd 00c3 a0bd
000001d0: a718 b3bd c742 3fbd 7467 89bd 8f38 40bd
000001e0: 0b03 c73d 8f1a a3bd bc91 9ebd 717c b33d
000001f0: 76ee fe3d b728 89bd 2f24 8dbd 4929 e43b
00000200: 616a 98bd ad77 8bbd f7d1 31bd 2b6c 8dbc
00000210: 73a0 863d e233 9b3d 071a f03d 8a42 45bb
00000220: d8d7 f23d 30ba d23d 6521 cc3c f2ca 94bd
00000230: 1976 793b cfb5 ad3d a964 a53c b326 80bd
00000240: 2ba9 503d 47d6 09bc c057 163c 1087 953d
00000250: 480c 9c3d 89a5 fbbd 7c88 c5bd 1cc1 c83d
00000260: fd0e 2e3c 19a5 ac3d a19d 6e3d c411 c03d
00000270: 9f86 013e 8914 e63d b4d9 5c3d 6d73 b8bd
00000280: fa31 babd 60df 81bd bc35 80bc e96b ba3d
00000290: ee86 acbc 4dc8 873d a9f2 e13d 02cc 5dbd
000002a0: a804 713d 0e0c 82bc 1b4b ff3c 0fef 413d
000002b0: 697d e43d ea9e fabc f421 f13d 084c 123d
000002c0: 58ea abbd 75da 8abd 55be c83d 3563 e73d
000002d0: 8543 f2bd 7264 47bd e603 5dbb 69ce 923d
000002e0: 46b0 aebd ab30 8fbd 8883 f3bd 1baa b6bb
000002f0: fcea 63bd cef2 b43d 9b45 f63d e27a 843d
00000300: 30bd 2ebd a7bc 953d e36d c9bd 44eb b1bd
00000310: 2a58 3bbd 0cc8 d43d 8533 57bd 95ef c33d
00000320: 7d71 3abd fc45 e4bd e06d d43c 5ada 13bb
00000330: d53c 863d 182f 063c 7f10 853d 370b 853c
00000340: 699d cebb bdbe 15bb 9a01 583d 4455 7f3c
00000350: 5f62 02bc 47fd 613c 8b9b 99bd 29d5 28bd
00000360: 049c ef3c 6abe de3d 4428 ad3c 7e97 4b3c
00000370: 07f8 403d 293c df3d c626 243d c1fb 443d
00000380: ae53 b93d 6345 c9bd 9159 9cbd 39c2 a3bc
00000390: 88ef c5bc 2d9a 9cbd 8f65 9abd 4294 62bd
000003a0: 14c6 653d 54a8 46bd c89e 17bd c4a2 4e39
000003b0: 61af 84bd f561 b6bd 2e8c c9bd da29 df3c
000003c0: aa43 773c 73c1 7d3b f4e8 2c3d b7f6 b63d
000003d0: 0649 62bd e999 1b3d d48d 89bd 6da1 8c3d
000003e0: 2717 b83d c319 fabd 67a6 10bd cc8b 81bd
000003f0: 4531 273c bbf7 dabc ce68 98bc 152d 9dba

weight f4 [8]
1.0000006 0.9999997 1.0000017 0.9999974 0.9999987 0.99999994 1.0 0.99999994
00000000: 0500 803f fbff 7f3f 0e00 803f d4ff 7f3f
00000010: eaff 7f3f ffff 7f3f 0000 803f ffff 7f3f

bias f4 [8]
-2.049521e-08 -4.4790727e-10 -2.3756582e-08 -2.143496e-09 -1.3464305e-08 1.1328665e-09 6.2207985e-09 -2.4925383e-08
00000000: 720d b0b2 583d f6af 4711 ccb2 c84c 13b1
00000010: a450 67b2 32b3 9b30 b9be d531 7f1b d6b2

running_mean f4 [8]
0.0010963249 0.0010937931 0.0018801773 -0.00051080977 0.000722641 -0.00026491884 -7.269327e-05 0.00070745946
00000000: 8fb2 8f3a 9b5d 8f3a 4870 f63a dde7 05ba
00000010: 9e6f 3d3a cee4 8ab9 e772 98b8 cd74 393a

running_var f4 [8]
0.00038132188 0.00051539973 0.0012059843 0.00023579459 0.0002498686 0.00010655438 0.000121943296 0.00020664233
00000000: 28ec c739 e41b 073a 1e12 9e3a a13f 7739
00000010: cc00 8339 f275 df38 cfbb ff38 21ae 5839

weight f4 [16, 1, 64, 1]
0.018258732 -0.059710745 0.064979054 -0.0698485 -0.01981432 0.011507259 0.1186588 -0.10154929
0.042231645 0.085294485 -0.0057248035 0.0018646988 0.050574023 -0.06898095 0.084698446 0.104446806
0.035330083 -0.006996356 -0.052460264 0.013499708 -0.02280082 0.0968405 0.1081337 -0.08685005
0.07066242 0.08261669 -0.08870485 0.012315709 -0.00055339286 -0.11836413 0.07027806 0.037138864
0.021331837 0.11508447 0.0016450696 -0.1087168 -0.067644335 -0.095107004 -0.033680167 0.06351158
0.026863286 0.1023952 -0.001069137 -0.11303867 -0.059754133 -0.0017076607 0.119175404 0.024338795
-0.024724048 -0.0009986166 0.043781646 0.079597525 0.017887775 0.10500773 -0.06819483 0.1079313
-0.097383805 -0.028818764 0.009999099 0.12484172 0.0724802 -0.01793448 -0.02183429 -0.06245734
-0.028497519 -0.11781999 -0.08540988 -0.0018105861 0.054093722 -0.05100055 0.1184449 -0.030991137
-0.0068611507 0.008402879 0.05912241 0.032803286 0.1094203 0.061141413 -0.093356386 0.02662428
0.10600519 0.003377947 0.018995559 0.08259463 -0.120690174 0.1227676 -0.024954543 0.09453192
0.11727594 -0.009158158 0.0455938 -0.05907279 0.033907056 0.09371248 0.03904978 -0.11759118
-0.04330223 -0.0637009 -0.03569988 -0.11725515 0.034063812 0.015998624 0.06917855 -0.004887069
-0.1022126 -0.10596473 0.12394911 -0.089153655 0.0015534923 -0.12093418 0.07786142 0.12183121
-0.01169032 -0.08805149 0.020870611 -0.017891577 -0.10438416 -0.09853912 0.017654728 0.09321844
0.05577857 -0.07266652 0.10186478 -0.054809462 0.06483977 0.07474217 -0.04815807 0.12396063
-0.036559045 -0.09270244 -0.008196829 -0.11329426 0.012477648 -0.00065505004 0.112857156 -0.11351538
-0.08497222 -0.05539586 0.08124976 -0.069752865 -0.10545088 0.08346363 0.08738464 -0.015515724
-0.10821073 0.011977888 0.08136249 -0.012895486 -0.102296785 0.10094325 -0.010408128 0.025019435
0.02457683 0.038605433 0.118964694 0.110687785 0.050697587 -0.056426495 0.08486678 -0.03821496
-0.07448301 0.090927474 0.0579035 -0.0133400075 0.085327886 0.03920441 0.10600601 0.10016065
-0.06368795 -0.10908115 -0.0273965 0.096776254 -0.049776997 -0.122658804 -0.021026734 -0.040396363
0.001462331 0.008186095 -0.09865242 -0.07867465 0.0070373267 -0.10251552 0.10661801 0.09926466
0.028104488 -0.081600234 0.013416947 -0.072767325 -0.009774793 0.07255797 -0.021562058 -0.030338874
0.12448268 0.05686071 -0.06429901 -0.121590495 0.095294476 0.120872214 0.09112236 -0.035152823
-0.025503237 0.0782526 0.0597104 0.034502257 0.0032 0.078300536 -0.03054153 0.106514335
0.04748924 0.057056624 -0.12325863 -0.11777419 0.10093706 0.099616684 0.04130925 -0.057843268
0.019223465 0.07903911 0.111515194 -0.11595597 -0.016442617 -0.029866703 0.06528447 0.11244651
0.084524356 0.09560249 0.11231799 -0.08272279 -0.06296707 0.099255115 -0.054365832 0.09694795
-0.05345892 0.05941444 0.04647812 -0.06921554 0.052845277 -0.075031385 -0.1176873 -0.093058534
0.05071742 0.093539916 -0.051728602 0.09329222 0.007090722 -0.002072186 0.011403651 0.07812308
0.11103809 0.09173321 0.036921002 -0.08765064 0.03391254 0.038912073 -0.086510934 0.08933954
00000000: 5693 953c 4193 74bd bd13 853d bb0c 8fbd
00000010: a451 a2bc f188 3c3c 6303 f33d 13f9 cfbd
00000020: 17fb 2c3d e0ae ae3d 2297 bbbb e968 f43a
00000030: b526 4f3d e245 8dbd 6176 ad3d 35e8 d53d
00000040: 47b6 103d b041 e5bb 93e0 56bd e12d 5d3c
00000050: c9c8 babc 5054 c63d 3475 dd3d 70de b1bd
00000060: 75b7 903d f032 a93d e3aa b5bd d4c7 493c
00000070: 9111 11ba e568 f2bd f2ed 8f3d ec1e 183d
00000080: 1bc0 ae3c 68b1 eb3d 609f d73a eaa6 debd
00000090: 1d89 8abd 76c7 c2bd 37f4 09bd 5c12 823d
000000a0: 6510 dc3c 93b4 d13d 4922 8cba d180 e7bd
000000b0: c0c0 74bd 96d3 dfba 3c12 f43d 2762 c73c
000000c0: 168a cabc 03e4 82ba 6254 333d 0704 a33d
000000d0: 6289 923c 4b0e d73d bba9 8bbd 160b dd3d
000000e0: 2971 c7bd 5415 ecbc 43d3 233c 04ad ff3d
000000f0: 8070 943d 55eb 92bc d3dd b2bc 45d3 7fbd
00000100: a173 e9bc 9b4b f1bd 60eb aebd 3051 edba
00000110: 6191 5d3d f4e5 50bd 3d93 f23d 20e1 fdbc
00000120: 81d3 e0bb 3bac 093c 572a 723d bd5c 063d
00000130: c017 e03d 6b6f 7a3d a231 bfbd 291b da3c
00000140: 4019 d93d 8c60 5d3b 939c 9b3c 6027 a93d
00000150: 692c f7bd 946d fb3d 786d ccbc f499 c13d
00000160: 5e2e f03d 190c 16bc 90c0 3a3d 4ff6 71bd
00000170: 20e2 0a3d 54ec bf3d aaf2 1f3d a5d3 f0bd
00000180: ae5d 31bd 9e75 82bd 0a3a 12bd 7823 f0bd
00000190: 7f86 0b3d 8c0f 833c 7cad 8d3d b523 a0bb
000001a0: d754 d1bd 0904 d9bd 08d9 fd3d 3196 b6bd
000001b0: 8d9e cb3a 57ac f7bd cf75 9f3d a482 f93d
000001c0: c288 3fbc 5754 b4bd d8f8 aa3c 5b91 92bc
000001d0: 5dc7 d5bd e1ce c9bd a6a0 903c 4fe9 be3d
000001e0: 1278 643d 2fd2 94bd 7b9e d03d e37f 60bd
000001f0: b7ca 843d 6c12 993d 6541 45bd 12df fd3d
00000200: f0be 15bd c7da bdbd fe4b 06bc d206 e8bd
00000210: 0d6f 4c3c aab7 2bba a721 e73d c07a e8bd
00000220: ea05 aebd c5e6 62bd 4666 a63d 97da 8ebd
00000230: a2f6 d7bd fbee aa3d b8f6 b23d aa35 7ebc
00000240: 969d ddbd e73e 443c 61a1 a63d 9747 53bc
00000250: fa80 d1bd 56bb ce3d da86 2abc 8ff5 cc3c
00000260: 5955 c93c bb20 1e3d c3a3 f33d 47b0 e23d
00000270: 46a8 4f3d 781f 67bd a2ce ad3d 4a87 1cbd
00000280: 8c8a 98bd 2f38 ba3d 382c 6d3d 0c90 5abc
00000290: 63c0 ae3d ce94 203d ae19 d93d 0721 cd3d
000002a0: d46e 82bd f065 dfbd a06e e0bc a132 c63d
000002b0: f7e2 4bbd 8a34 fbbd 4240 acbc a876 25bd
000002c0: b0ab bf3a f91e 063c 480a cabd 2d20 a1bd
000002d0: 6099 e63b a8f3 d1bd 8b5a da3d 454b cb3d
000002e0: 623b e63c 061e a7bd c1d2 5b3c 0907 95bd
000002f0: 7426 20bc 4699 943d eaa2 b0bc 3b89 f8bc
00000300: c6f0 fe3d c7e6 683d 33af 83bd 7004 f9bd
00000310: c029 c33d da8b f73d 5c9e ba3d 68fc 0fbd
00000320: 2aec d0bc e642 a03d e492 743d 3d52 0d3d
00000330: 17b7 513b 085c a03d 3b32 fabc 3024 da3d
00000340: 1484 423d 35b4 693d 056f fcbd 9833 f1bd
00000350: 17b8 ce3d d503 cc3d e333 293d 10ed 6cbd
00000360: 877a 9d3c 42df a13d 1462 e43d 537a edbd
00000370: abb2 86bc 04ab f4bc ddb3 853d 5b4a e63d
00000380: 1b1b ad3d 3dcb c33d f906 e63d 916a a9bd
00000390: e1f4 80bd 4446 cb3d b5ae 5ebd a68c c63d
000003a0: bef7 5abd 8e5c 733d d75f 3e3d e1c0 8dbd
000003b0: 4a74 583d 0eaa 99bd 0a06 f1bd 7995 bebd
000003c0: 12bd 4f3d db91 bf3d 5fe1 53bd fe0f bf3d
000003d0: 4a59 e83b 83cd 07bb 61d6 3a3c fefe 9f3d
000003e0: f067 e33d 9fde bb3d 7a3a 173d 2e82 b3bd
000003f0: e0e7 0a3d 4462 1f3d a52c b1bd a6f7 b63d

weight f4 [16]
1.0007635 1.0003804 0.9946899 1.0007639 1.0034914 1.0018672 0.999129 0.9961669
0.99886715 1.0003031 0.99986964 1.0026656 0.99840164 1.0004498 1.000421 1.001968
00000000: 0519 803f 770c 803f ffa3 7e3f 0819 803f
00000010: 6872 803f 2f3d 803f ebc6 7f3f cb04 7f3f
00000020: c2b5 7f3f ef09 803f 75f7 7f3f 5957 803f
00000030: 4097 7f3f bd0e 803f cc0d 803f 7d40 803f

bias f4 [16]
1.8480436e-05 0.0011975628 -0.005230028 -0.00031555386 0.00097551686 0.00059519225 -0.0006897479 -0.0033857706
-0.001506702 0.002517648 8.970768e-06 0.0009295126 -0.00011963735 -0.00031224836 -0.00020637334 0.0017297091
00000000: 6f06 9b37 8af7 9c3a a860 abbb ec70 a5b9
00000010: d4b9 7f3a ad06 1c3a 33d0 34ba cee3 5dbb
00000020: 887c c5ba 20ff 243b 2881 1637 89aa 733a
00000030: d0e5 fab8 44b5 a3b9 ec65 58b9 68b7 e23a

running_mean f4 [16]
-0.09623327 -0.43778887 -0.46792254 -0.10011217 -0.32366458 0.51332897 0.21944118 0.14117855
-0.72131014 -0.341679 -0.46598983 -0.08196287 -0.015499001 0.010477353 0.2359551 0.23470896
00000000: f315 c5bd dd25 e0be 8b93 efbe 9c07 cdbd
00000010: 5db7 a5be 8769 033f 30b5 603e 1c91 103e
00000020: c8a7 38bf 8df0 aebe 3896 eebe 26dc a7bd
00000030: 86ef 7dbc 34a9 2b3c 379e 713e 8c57 703e

running_var f4 [16]
0.104136884 0.004684804 0.14916721 0.12436002 0.048309285 0.020049576 0.19338417 0.09188656
0.011194209 0.32705793 0.03078538 0.11584019 0.46360946 0.17663305 0.033666614 0.17393413
00000000: b845 d53d fc82 993b 4abf 183e 77b0 fe3d
00000010: f5df 453d 023f a43c 8006 463e 052f bc3d
00000020: ea67 373c 2374 a73e 9f31 fc3c 9f3d ed3d
00000030: 385e ed3e 4bdf 343e 01e6 093d ca1b 323e

weight f4 [16, 1, 1, 16]
0.056661803 0.03286272 0.02623259 -0.1919908 0.24684234 -0.1801766 0.120078996 -0.19082823
0.19742446 -0.24679366 -0.14686759 0.22107974 -0.07047297 -0.1641209 -0.11452387 -0.07105588
0.036986448 -0.09335492 -0.0036359276 0.059331335 -0.012052059 0.22096096 0.18211772 -0.13055223
-0.040664002 -0.15942545 -0.11266238 -0.09177231 0.15554407 0.13168474 -0.09843609 0.016791573
0.17028366 0.0942069 0.071410865 -0.110632546 -0.10042826 -0.019330915 0.1938267 0.22380522
0.09467456 0.24007347 -0.06702421 0.1457522 0.13339323 0.14014335 -0.23277186 -0.10944288
0.06637965 -0.072186604 -0.07860105 -0.040231727 0.076565176 -0.046739154 -0.11175014 -0.08717923
-0.08902568 -0.13972197 0.0027169273 0.23243812 0.22520988 -0.15828812 -0.161685 0.1796661
-0.12728815 -0.005664037 0.20496279 0.12664284 -0.08021469 -0.22793391 -0.24996027 0.061697427
0.1593611 0.14382859 0.083214864 0.12583028 0.041438326 0.21114166 0.12585686 -0.23228368
0.18822984 -0.16663878 -0.011327174 0.115738675 -0.056062505 0.042050578 -0.21508697 -0.14921254
-0.0852892 -0.07436349 -0.1452801 -0.0782625 -0.03687985 0.037583616 0.023431774 0.05286584
0.039241593 0.020452347 0.14463367 0.0092675015 0.24206984 -0.20638748 0.19931264 -0.21588662
-0.06249713 0.1004798 -0.1874922 -0.024263479 0.022284867 0.11934469 -0.24084441 -0.20664695
-0.08289549 -0.17561068 0.0199063 0.06757533 0.06845125 0.15110664 -0.113677554 -0.064787485
-0.07898696 -0.020510245 -0.112381846 0.15378967 0.16800687 0.19011907 0.1467105 0.051567394
0.10724149 0.06451496 -0.11497108 -0.01129842 -0.09302737 0.09838583 0.12526484 -0.0036794979
-0.018240664 0.1137699 0.21577115 -0.121571876 -0.11815929 0.011879579 0.21112768 -0.25176188
-0.19145057 -0.14052932 0.008013288 0.05571531 -0.07417195 -0.21372797 0.20623468 -0.088940784
-0.18924548 -0.20106159 -0.0657773 -0.10193016 -0.012969417 -0.21669547 -0.08412422 0.08309208
-0.096670285 0.023091577 0.19207954 -0.14698818 0.21628048 0.067815915 -0.12779547 -0.026162473
-0.008397279 -0.010105707 0.037221435 -0.17948501 -0.051143862 0.24737091 -0.17720765 0.19296736
-0.2284214 0.09550446 0.23998615 0.03764465 -0.18305996 -0.11000869 0.038360506 -0.059300847
0.03580361 -0.06384599 0.1516058 0.21884046 -0.15712021 0.17589204 -0.16702801 0.042125463
0.10900882 -0.16612166 0.07629489 -0.10878616 -0.10859217 0.15509395 -0.24010915 -0.113811925
-0.13644308 -0.04109497 0.11969723 -0.20319137 -0.17980982 0.11616353 0.08365214 0.10238629
0.08890867 -0.035826463 0.21181643 0.08677152 0.12016207 -0.039587725 0.15762012 0.06893625
-0.23996441 -0.20468229 0.24423356 0.13861834 -0.1678619 0.053026535 0.24106424 -0.16155846
-0.12223572 -0.017065935 0.08918531 0.15216316 0.17896497 -0.24390183 -0.15546906 0.086624414
0.10338527 0.22036523 0.18480673 0.21066865 0.10867551 0.025803778 -0.08196477 -0.17014202
-0.24577266 0.24370115 0.14255342 0.13221683 -0.013158086 -0.044539824 0.15360917 0.20730624
-0.06416005 -0.10624911 -0.13200593 0.23004827 0.07672141 -0.15452664 0.22207001 -0.23746029
00000000: 3516 683d 0f9b 063d bbe5 d63c 3c99 44be
00000010: 3dc4 7c3e 3780 38be faeb f53d 7a68 43be
00000020: a329 4a3e 7ab7 7cbe 7564 16be ba62 623e
00000030: 2254 90bd 4f0f 28be 7e8b eabd bf85 91bd
00000040: 1a7f 173d dd30 bfbd be48 6ebb 6a05 733d
00000050: 0076 45bc 9743 623e 117d 3a3e 7caf 05be
00000060: 4c8f 26bd 6d40 23be 89bb e6bd 1ff3 bbbd
00000070: f246 1f3e 5dd8 063e dc98 c9bd 7b8e 893c
00000080: d75e 2e3e 8cef c03d dc3f 923d 5193 e2bd
00000090: 55ad cdbd de5b 9ebc 827a 463e 322d 653e
000000a0: bce4 c13d d2d5 753e fd43 89bd 1140 153e
000000b0: 3c98 083e bd81 0f3e bf5b 6ebe 9723 e0bd
000000c0: 0ef2 873d 92d6 93bd 96f9 a0bd 06ca 24bd
000000d0: 34ce 9c3d 8e71 3fbd 42dd e4bd 068b b2bd
000000e0: 1953 b6bd 4713 0fbe 7a0e 323b 4204 6e3e
000000f0: 6b9d 663e 4816 22be c190 25be 64fa 373e
00000100: d357 02be 6399 b9bb c4e1 513e a9ae 013e
00000110: 9947 a4bd 8267 69be 96f5 7fbe 71b6 7c3d
00000120: 8e2f 233e cd47 133e 8e6c aa3d a7d9 003e
00000130: 3cbb 293d 8535 583e 9fe0 003e c6db 6dbe
00000140: 53bf 403e 5ba3 2abe 9c95 39bc 6608 ed3d
00000150: cca1 65bd 3a3d 2c3d c23f 5cbe 2ccb 18be
00000160: 1bac aebd e34b 98bd 4ec4 14be 1748 a0bd
00000170: 530f 17bd 47f1 193d fef3 bf3c da89 583d
00000180: cbbb 203d ae8b a73c d91a 143e b8d6 173c
00000190: 28e1 773e 3d57 53be 9d18 4c3e 6211 5dbe
000001a0: fefc 7fbd 5ac8 cd3d f5fd 3fbe 34c4 c6bc
000001b0: c18e b63c fd6a f43d eb9f 76be 429b 53be
000001c0: 1cc5 a9bd 49d3 33be 8912 a33c ef64 8a3d
000001d0: 2b30 8c3d b3bb 1a3e c7cf e8bd 4daf 84bd
000001e0: eac3 a1bd 1a05 a8bc 7428 e6bd 0a7b 1d3e
000001f0: fe09 2c3e 93ae 423e 473b 163e 5538 533d
00000200: 6da1 db3d 6b20 843d f575 ebbd 021d 39bc
00000210: 2285 bebd 837e c93d 6d45 003e bb23 71bb
00000220: 726d 95bc 3100 e93d 1df3 5c3e adfa f8bd
00000230: 7ffd f1bd 91a2 423c db31 583e efe6 80be
00000240: 9e0b 44be ebe6 0fbe 2a4a 033c bd35 643d
00000250: 77e7 97bd 81db 5abe 2f2f 533e 9626 b6bd
00000260: 91c9 41be 17e3 4dbe 40b6 86bd c2c0 d0bd
00000270: ad7d 54bc 6be5 5dbe 5249 acbd 2e2c aa3d
00000280: 12fb c5bd 8c2a bd3c 80b0 443e 1284 16be
00000290: a178 5d3e 12e3 8a3d d1dc 02be af52 d6bc
000002a0: be94 09bc 6892 25bc 8175 183d ebca 37be
000002b0: 3a7c 51bd cd4e 7d3e ec75 35be 3c99 453e
000002c0: 4de7 69be d897 c33d eebe 753e 4731 1a3d
000002d0: 1274 3bbe 3c4c e1bd e81f 1d3d 72e5 72bd
000002e0: cea6 123d b0c1 82bd 8d3e 1b3e b717 603e
000002f0: 1fe4 20be 0b1d 343e 6409 2bbe c08b 2c3d
00000300: 0440 df3d cc1b 2abe 7f40 9c3d 47cb debd
00000310: 9265 debd f3d0 1e3e 2cdf 75be 3a16 e9bd
00000320: bcb7 0bbe 3353 28bd d223 f53d 6611 50be
00000330: 1120 38be 25e7 ed3d d051 ab3d e7af d13d
00000340: c015 b63d c5be 12bd 68e6 583e 44b5 b13d
00000350: 8817 f63d bd26 22bd 2b67 213e 732e 8d3d
00000360: 3bb9 75be 3c98 51be 5d18 7a3e f7f1 0d3e
00000370: fde3 2bbe 5a32 593d 8bd9 763e 956f 25be
00000380: b956 fabd dccd 8bbc caa6 b63d a9d0 1b3e
00000390: 9842 373e 67c1 79be 4833 1fbe 2468 b13d
000003a0: a8bb d33d 6ca7 613e fa3d 3d3e 86b9 573e
000003b0: 4491 de3d 7262 d33c 25dd a7bd b639 2ebe
000003c0: d4ab 7bbe cb8c 793e 86f9 113e d963 073e
000003d0: 0395 57bc 646f 36bd b94b 1d3e 1648 543e
000003e0: 5866 83bd 2299 d9bd 902c 07be c691 6b3e
000003f0: 1d20 9d3d 3b3c 1ebe 5266 633e ca28 73be

weight f4 [16, 16, 1, 1]
-0.07952535 -0.20478155 0.22568633 0.124841586 0.028833762 0.050614066 0.052105926 -0.05219257
-0.16509235 0.13514094 0.1393936 0.17452024 0.23247392 0.04061528 -0.08613227 0.06890883
-0.13356946 -0.1353193 0.20494567 0.04202269 0.025765335 -0.11154326 -0.037622094 0.11412666
-0.13712917 -0.06446035 0.13591568 -0.1245382 0.17883714 -0.1589129 0.16032925 0.23775916
-0.055988926 -0.20453095 -0.07211481 0.006899309 -0.19509463 -0.078437164 -0.05865926 -0.06350101
0.05664662 -0.093760185 -0.15572159 0.09800298 -0.115860894 -0.0014071041 0.11526497 0.122917466
0.050178993 -0.07800425 -0.15446495 -0.10742583 -0.11124888 -0.030771337 -0.029609712 0.22223496
0.07912639 -0.063079774 -0.11525212 0.10546795 -0.07615613 0.073159 0.18031773 -0.1635961
-0.00091567705 -0.011855093 0.03719472 0.023864593 -0.24525473 0.17189166 0.07833651 0.04345965
-0.030126214 -0.17313802 -0.112069376 0.047722127 0.07852108 0.04139192 0.027619202 -0.215629
-0.071212836 0.22615618 -0.1814486 0.05600593 -0.04166014 -0.24470215 -0.1588726 -0.2065298
0.14188848 0.15670854 0.034836616 0.12222196 -0.16035174 -0.15588664 -0.2139042 0.19213554
-0.06486752 0.14351954 -0.023943027 0.18860392 -0.07330119 0.047426436 0.24875051 -0.22938241
-0.1651962 0.24424848 0.13083258 0.18886589 0.1427346 -0.07494635 0.13744278 -0.12344472
0.059857763 -0.2435434 0.14687502 0.027113004 -0.22443835 -0.1075119 -0.056980617 0.026726985
-0.024259705 -0.09510958 -0.16073757 -0.228269 0.19900578 0.17175014 -0.10584842 -0.11264568
-0.029909473 0.22036588 0.18722452 -0.0865013 0.09615089 0.19505122 -0.16961189 -0.14773597
-0.21174093 0.12524094 0.17713901 -0.23525567 0.016886296 0.19708633 0.046964165 0.030919556
0.17520726 -0.14966962 0.23959467 0.060155243 0.21895114 -0.24782898 -0.02814257 -0.2207454
0.124787875 0.24991152 -0.23376465 0.14372768 0.15801778 -0.12168526 -0.17650683 -0.14839637
-0.06672774 0.06952173 -0.037436597 0.056093875 0.1300184 0.10648899 0.122131735 0.040743463
0.07892826 0.17744938 0.17889993 -0.13196614 -0.10235783 0.12392309 -0.058003843 0.039249603
-0.088725336 0.12461134 0.21680093 -0.1376764 -0.1992934 0.0017747171 -0.20384647 0.12128222
-0.14626049 -0.12783459 0.09427546 0.06386873 0.23023932 -0.024083288 0.18522309 0.20539452
0.084508285 0.05052376 0.2330075 0.0367735 -0.11911503 0.24596979 -0.0014110467 -0.07227467
0.0792127 0.13812517 0.2349667 0.043381043 -0.21767107 -0.1495355 0.076912574 -0.03270135
0.10257254 -0.07262569 0.17611243 -0.05360467 0.24351959 0.19011727 -0.03199735 -0.1571622
0.09748373 0.1867985 0.18177426 -0.08362799 0.04025621 -0.2517369 0.104686745 -0.23690996
0.051661476 -0.17575303 -0.072523676 0.0946244 0.24461345 -0.24178338 0.050372384 -0.070116326
-0.047839746 -0.13132742 -0.14266442 -0.07204983 -0.008471668 0.08492257 0.13606273 0.1264524
0.19312178 -0.0122060785 -0.08432805 0.15522477 0.040781394 0.22786462 0.034065977 -0.11439979
-0.22018039 0.0757398 0.22154242 -0.009689804 -0.04224488 0.014545842 -0.12856926 0.13520648
00000000: 30de a2bd 41b2 51be 511a 673e f2ac ff3d
00000010: c834 ec3c b250 4f3d 066d 553d e0c7 55bd
00000020: f80d 29be 6362 0a3e 32bd 0e3e 6fb5 323e
00000030: a50d 6e3e 355c 263d 1e66 b0bd 1320 8d3d
00000040: 6fc6 08be 2591 0abe 47dd 513e fc1f 2c3d
00000050: d311 d33c cb70 e4bd a019 1abd 3dbb e93d
00000060: 976b 0cbe ca03 84bd 7b2d 0b3e e20d ffbd
00000070: 1521 373e 10ba 22be 5a2d 243e 2377 733e
00000080: a554 65bd 9070 51be eeb0 93bd 9913 e23b
00000090: e3c6 47be aaa3 a0bd b144 70bd d10c 82bd
000000a0: 4906 683d 5705 c0bd 7b75 1fbe c9b5 c83d
000000b0: 7a48 edbd 946e b8ba 0a10 ec3d 27bc fb3d
000000c0: 7d88 4d3d b1c0 9fbd 0f2c 1ebe 1302 dcbd
000000d0: 74d6 e3bd 2c14 fcbc 1190 f2bc 9091 633e
000000e0: 040d a23d f82f 81bd 4e09 ecbd 95ff d73d
000000f0: bff7 9bbd 63d4 953d 36a5 383e bc85 27be
00000100: 0c0a 70ba dd3b 42bc 7e59 183d ae7f c33c
00000110: 0e24 7bbe 5e04 303e e46e a03d bf02 323d
00000120: 40cb f6bc 184b 31be a184 e5bd 4778 433d
00000130: a9cf a03d 938a 293d aa41 e23c d9cd 5cbe
00000140: 09d8 91bd 7c95 673e a9cd 39be 7966 653d
00000150: d3a3 2abd 3393 7abe 80af 22be 8c7c 53be
00000160: 374b 113e 3478 203e d7b0 0e3d 824f fa3d
00000170: 3f33 24be bfa0 1fbe b409 5bbe 2ebf 443e
00000180: 43d9 84bd c9f6 123e 2b24 c4bc 6321 413e
00000190: ef1e 96bd 3942 423d 74b8 7e3e 39e3 6abe
000001a0: 3129 29be 461c 7a3e faf8 053e 0f66 413e
000001b0: 0529 123e 797d 99bd cdbd 0c3e 96d0 fcbd
000001c0: 6a2d 753d 7163 79be 6866 163e 171c de3c
000001d0: 2bd3 65be 332f dcbd 8264 69bd 8df2 da3c
000001e0: 4abc c6bc d0c8 c2bd 6498 24be 59bf 69be
000001f0: 2cc8 4b3e 45df 2f3e 0ec7 d8bd c7b2 e6bd
00000200: b604 f5bc 98a7 613e c9b7 3f3e 9827 b1bd
00000210: c2ea c43d 82bb 473e bdae 2dbe 1948 17be
00000220: 9dd2 58be 293f 003e ee63 353e dde6 70be
00000230: 2155 8a3c 00d1 493e 7f5d 403d 024b fd3c
00000240: 8869 333e fe42 19be 4e58 753e 5865 763d
00000250: ba34 603e e1c6 7dbe 3f8b e6bc 150b 62be
00000260: c990 ff3d cee8 7f3e 0060 6fbe 592d 133e
00000270: 6acf 213e 1f36 f9bd 35be 34be 38f5 17be
00000280: 8ea8 88bd 6961 8e3d 1e57 19bd b1c2 653d
00000290: 8b23 053e e616 da3d 3420 fa3d 9ee2 263d
000002a0: 24a5 a13d 4ab5 353e 8b31 373e 2222 07be
000002b0: fba0 d1bd 64cb fd3d 7095 6dbd 31c4 203d
000002c0: a1b5 b5bd 3b34 ff3d 1001 5e3e 0bfb 0cbe
000002d0: 9213 4cbe a09d e83a 21bd 50be d062 f83d
000002e0: 4fc5 15be 12e7 02be 7e13 c13d 9ccd 823d
000002f0: dbc3 6b3e 514a c5bc 1fab 3d3e f152 523e
00000300: ae12 ad3d 01f2 4e3d 8599 6e3e cf9f 163d
00000310: 95f2 f3bd 81df 7b3e dff2 b8ba be04 94bd
00000320: 453a a23d af70 0d3e 1c9b 703e 52b0 313d
00000330: 2ae5 5ebe d61f 19be 5784 9d3d daf1 05bd
00000340: 8d11 d23d c7bc 94bd d156 343e 9290 5bbd
00000350: 335d 793e 1aae 423e a70f 03bd 21ef 20be
00000360: 8da5 c73d 1b48 3f3e 0823 3a3e 2745 abbd
00000370: b2e3 243d a9e3 80be 0166 d63d 8698 72be
00000380: fc9a 533d 9af8 33be 4b87 94bd 70ca c13d
00000390: f37b 7a3e 1096 77be 4653 4e3d 2699 8fbd
000003a0: 9cf3 43bd b27a 06be 9f16 12be dc8e 93bd
000003b0: c0cc 0abc e2eb ad3d 0754 0b3e bd7c 013e
000003c0: b7c1 453e 01fc 47bc 2fb4 acbd 3ef3 1e3e
000003d0: 640a 273d 5855 693e c488 0b3d 704a eabd
000003e0: f876 61be 781d 9b3d 04dc 623e fcc1 1ebc
000003f0: f808 2dbd af51 6e3c a9a7 03be 9173 0a3e

weight f4 [16]
0.996018 0.9952629 0.9958866 0.99505746 0.99357855 0.996978 0.99752903 0.99779725
0.99729925 0.992863 0.9963518 0.99731576 0.9941501 0.9933084 0.99588454 0.99793214
00000000: 09fb 7e3f 8dc9 7e3f 6df2 7e3f 16bc 7e3f
00000010: 2a5b 7e3f f339 7f3f 105e 7f3f a46f 7f3f
00000020: 014f 7f3f 452c 7e3f e910 7f3f 1650 7f3f
00000030: 9f80 7e3f 7649 7e3f 4af2 7e3f 7b78 7f3f

bias f4 [16]
-0.009746781 -0.008801006 -0.009583447 -0.011618188 -0.011858374 -0.0067061344 -0.0014870188 -0.0040887934
-0.006371911 -0.012737067 -0.008123269 -0.006167657 -0.01148943 -0.0062293834 -0.005882065 -0.0050941366
00000000: f6b0 1fbc 1832 10bc e403 1dbc 365a 3ebc
00000010: a049 42bc 22bf dbbb 12e8 c2ba 49fb 85bb
00000020: 77cb d0bb 22af 50bc 7617 05bc 0f1a cabb
00000030: 2a3e 3cbc db1f ccbb 56be c0bb b7ec a6bb

running_mean f4 [16]
-0.025149923 0.07580367 0.03793734 0.021802131 -0.010660986 -0.040930275 -0.10692889 0.0064859614
0.011995739 -0.066520415 -0.020863963 0.08721668 -0.018684544 -0.06049171 0.06879593 -0.076736726
00000000: 3607 cebc f43e 9b3d 2f64 1b3d 629a b23c
00000010: 6bab 2ebc 81a6 27bd 89fd dabd 3088 d43b
00000020: c789 443c db3b 88bd e7ea aabc a99e b23d
00000030: 5410 99bc 28c6 77bd e1e4 8c3d 2528 9dbd

running_var f4 [16]
0.15833615 0.15800494 0.04401575 0.06899055 0.15444262 0.09995967 0.16268072 0.21134683
0.1530489 0.20062768 0.051762562 0.25800127 0.09207458 0.11212832 0.2392371 0.073224515
00000000: df22 223e 0ccc 213e dc49 343d eb4a 8d3d
00000010: 3526 1e3e a8b7 cc3d c695 263e 4e6b 583e
00000020: dab8 1c3e 5871 4d3e fb04 543d be18 843e
00000030: 9991 bc3d 88a3 e53d 92fa 743e bcf6 953d

weight f4 [3, 2016]
-0.007680695 0.0047847233 0.0020695573 0.014976705 -0.0029696103 -0.018720593 0.0035109436 0.002907238
0.0063288184 -0.0040146858 0.019826446 0.01198714 0.012523476 0.001487929 0.008598366 -0.008617579
0.008482826 -0.011475618 -0.020092765 -0.0061663133 0.013969936 8.056726e-06 -0.009190361 -0.008750211
-0.0020095601 0.008761756 -0.010195364 -0.008448732 -0.003888585 -0.0027312378 -0.0254255 0.022884412
-0.009178519 -0.015201587 0.010793691 0.026167072 0.027600897 0.00084397744 -0.010209957 -0.0111834
0.0064032804 0.0153385755 0.0074820025 -0.0073150606 0.028370129 -0.008641467 0.0053527392 0.0001729699
-0.02593124 -0.0076600225 -0.00069429504 0.010510822 -0.006829123 -0.013211749 -0.006332427 0.01453551
0.016195653 0.007732152 0.0074191755 0.02079941 0.005717618 -0.020835936 0.012271993 0.013628015
0.025388155 0.0015285497 0.008417777 0.016017584 -0.00083699997 -0.0043143583 -0.026249826 0.0125977285
0.010259031 0.012285829 0.019205587 -0.018413965 0.012996591 -0.0046598394 0.004727504 -0.020294562
-0.026620036 0.028126732 -0.018314604 -0.012757984 -0.0061395667 0.0011110246 -0.02393968 -0.022045542
-0.0061213425 -0.013656115 0.011230507 -0.002643451 -0.004698745 0.012903526 -0.013416626 0.00090954744
-0.007607806 0.008095707 0.0028839458 -0.015591811 -0.008867656 -0.007034223 -0.02304582 -0.0030674867
-0.0074791354 -0.004049646 0.015483103 0.015904194 -0.006483191 -0.01408939 -0.006612459 0.0026536125
0.011774954 0.00056008453 -0.0013618376 0.015303713 0.0071900412 0.009642446 -0.0050036116 0.0016610962
0.018403284 0.018469391 0.012781128 0.0065379734 0.00035060552 -0.0027122663 0.019657988 -0.0023152756
0.027975203 -0.0015671763 -0.009773599 -0.010823616 0.010035827 0.010018679 0.018406551 -0.004614418
0.026017267 -0.004487095 -0.016613564 -0.0018803816 -0.01578736 0.027069995 -0.009027746 0.022460105
0.008125337 0.006696318 0.016937675 -0.023863822 0.011517514 0.01776542 0.017404918 -0.009281744
-0.009563821 -0.004799043 0.007956903 -0.00878157 -0.0010751239 -0.022179103 -0.0057436447 -0.017618293
0.0024691247 0.028643677 -0.015951714 0.011065451 -0.015675046 0.0014831163 -0.014059228 0.0061764875
-0.011605828 0.003463948 0.0052673738 -0.022264266 0.0015504936 -0.0010409115 -0.016143233 -0.00066205754
0.009881791 -0.017184716 0.01072379 -0.017663041 0.0025240467 -0.019618224 0.0140627045 -0.014393543
-0.017631413 -0.009746163 0.015606794 0.011365989 -0.0029776494 0.02287788 0.0004738517 0.008794013
-0.00093581976 -0.013114024 0.009745791 -0.009888098 0.025896095 0.01614484 -0.008961244 0.012633061
-0.0073870327 0.0023854787 -0.007807833 0.020423204 -0.021837719 -0.008626164 0.00636178 0.007053078
-0.014015501 -0.0128393 0.0054380028 0.01707343 -0.020924859 -0.0013467071 -0.010786114 -0.0073827337
-0.019821838 -0.00626731 -0.015231305 -0.015798053 0.020497948 -0.009053008 0.018079614 0.00776066
-0.006778834 0.010692999 0.00025486955 0.0040643634 -0.011440332 -0.0025473177 -0.012291334 -0.0140259825
0.022155782 -0.014688807 0.0057383236 0.0069637704 0.017465858 0.0068001905 -0.01402397 -0.010978536
-0.021587484 -0.011149884 0.016803637 0.003092289 -0.0047475616 -0.015164456 -0.013623823 0.008506019
-0.016683454 0.008052086 0.0031617316 0.0117702745 0.0049851346 0.0031258068 0.0046044746 0.008272724
00000000: 57ae fbbb 2bc9 9c3b 69a1 073b db60 753c
00000010: cb9d 42bb ee5b 99bc dc17 663b 5c87 3e3b
00000020: fa61 cf3b a08d 83bb 126b a23c b665 443c
00000030: 442f 4d3c 9d06 c33a 29e0 0c3c bf30 0dbc
00000040: 8dfb 0a3c 3b04 3cbc 9599 a4bc c90e cabb
00000050: 29e2 643c 602b 0737 2b93 16bc 0c5d 0fbc
00000060: d3b2 03bb 788d 0f3c 750a 27bc 8d6c 0abc
00000070: a1d7 7ebb 91fe 32bb 2349 d0bc 1778 bb3c
00000080: 8061 16bc 1410 79bc 05d8 303c 545c d63c
00000090: 471b e23c 5e3e 5d3a aa47 27bc 943a 37bc
000000a0: 9cd2 d13b a64e 7b3c 962b f53b 2db3 efbb
000000b0: 7968 e83c f194 0dbc 0866 af3b 415f 3539
000000c0: c06d d4bc ed00 fbbb 5a01 36ba 9535 2c3c
000000d0: d6c6 dfbb 1776 58bc 3f80 cfbb 5926 6e3c
000000e0: bfac 843c fe5d fd3b 8e1c f33b 8663 aa3c
000000f0: db5a bb3b 20b0 aabc 7810 493c 0a48 5f3c
00000100: d2fa cf3c 9e59 c83a b7ea 093c 4f37 833c
00000110: 1e6a 5bba 765f 8dbb e009 d7bc b466 4e3c
00000120: 7f15 283c 804a 493c 0955 9d3c e2d8 96bc
00000130: a7ef 543c 91b1 98bb 2ee9 9a3b c840 a6bc
00000140: 4312 dabc 086a e63c 8208 96bc dd06 51bc
00000150: 6b2e c9bb cd9f 913a 261d c4bc da98 b4bc
00000160: 8b95 c8bb e6bd 5fbc 2900 383c c03d 2dbb
00000170: eef7 99bb 5069 533c 68d1 5bbc b26e 6e3a
00000180: e74a f9bb dba3 043c 9500 3d3b cc74 7fbc
00000190: a549 11bc 577f e6bb 96ca bcbc e307 49bb
000001a0: 8913 f5bb e5b2 84bb d7ac 7d3c 8349 823c
000001b0: f370 d4bb 2fd7 66bc 54ad d8bb 3be8 2d3b
000001c0: bdeb 403c a3d2 123a b07f b2ba 6dbc 7a3c
000001d0: 709a eb3b 5afb 1d3c 56f5 a3bb 24b9 d93a
000001e0: 7cc2 963c 1f4d 973c f067 513c 7f3c d63b
000001f0: 7ad1 b739 47c0 31bb ca09 a13c e1bb 17bb
00000200: 412c e53c b669 cdba 7221 20bc 8955 31bc
00000210: 4f6d 243c 6325 243c 56c9 963c 8b34 97bb
00000220: 2a22 d53c 7b08 93bb 2b19 88bc 2377 f6ba
00000230: 7e54 81bc e5c1 dd3c 1ce9 13bc 41fe b73c
00000240: 2220 053c c96c db3b e1c0 8a3c 107e c3bc
00000250: f4b3 3c3c c988 913c c294 8e3c 7512 18bc
00000260: 93b1 1cbc 4a41 9dbb ac5d 023c 93e0 0fbc
00000270: 2ceb 8cba f3b0 b5bc 2f35 bcbb 3d54 90bc
00000280: 0ad1 213b 25a6 ea3c 2bad 82bc de4b 353c
00000290: f468 80bc 2065 c23a ad58 66bc 2264 ca3b
000002a0: 5f26 3ebc 6703 633b ef99 ac3b 8d63 b6bc
000002b0: ef39 cb3a 326f 88ba d03e 84bc ee8d 2dba
000002c0: 3ce7 213c f6c6 8cbc d6b2 2f3c 15b2 90bc
000002d0: 7a6a 253b 66b6 a0bc 4267 663c e5d2 6bbc
000002e0: c16f 90bc 5fae 1fbc a3b3 7f3c 6a38 3a3c
000002f0: ab24 43bb 646a bb3c 4c6f f839 c414 103c
00000300: cd51 75ba 34dc 56bc cfac 1f3c b001 22bc
00000310: 0c24 d43c 2f42 843c 2ed2 12bc e6fa 4e3c
00000320: ec0e f2bb b155 1c3b dad8 ffbb 904e a73c
00000330: 04e5 b2bc c154 0dbc 7b76 d03b 821d e73b
00000340: 46a1 65bc ed5b 52bc 4631 b23b 94dd 8b3c
00000350: 9c6a abbc fe83 b0ba 3eb8 30bc dcea f1bb
00000360: 6861 a2bc 025e cdbb b98c 79bc eb6a 81bc
00000370: 50eb a73c 1153 14bc b31b 943c 224d fe3b
00000380: fb20 debb b031 2f3c 03a0 8539 5a2e 853b
00000390: 3b70 3bbc e6f0 26bb 9761 49bc 3ccd 65bc
000003a0: 0b80 b53c 52a9 70bc 8c08 bc3b 5730 e43b
000003b0: 8f14 8f3c 22d4 de3b cbc4 65bc 51df 33bc
000003c0: 3cd8 b0bc 01ae 36bc c8a7 893c 00a8 4a3b
000003d0: 6f91 9bbb 5774 78bc 7536 5fbc d45c 0b3c
000003e0: bdab 88bc e6ec 033c 0e35 4f3b 1cd8 403c
000003f0: 575a a33b 56da 4c3b 22e1 963b 528a 073c

bias f4 [3]
0.010123404 -0.0031001526 0.022848722
00000000: a2dc 253c ee2b 4bbb 3e2d bb3c
