mi/Algorithm/impl/eegnet_model/model_1_2.pkl (torch, 32724 bytes, 18 tensors)

weight f4 [8, 1, 1, 64]
0	0xbd912a99	-0.07088203
1	0x3d7b1ce0	0.061306834
2	0xbd636dcf	-0.055524644
3	0xbdf69f92	-0.12042154
4	0x3dd7bff3	0.10534658
5	0x3b9d69c4	0.004803868
6	0xbc706b79	-0.014674061
7	0xbcd0c8ea	-0.025486428
8	0xbdee39cb	-0.11632117
9	0xbcbc8f4a	-0.023017544
10	0xbd42a48b	-0.0475202
11	0xbde7fe79	-0.11327834
12	0x3c7443a8	0.014908709
13	0x3d9eb2c7	0.07748943
14	0xbd276c33	-0.04087467
15	0xbdf4255c	-0.11921188
16	0x3d86cb74	0.06581774
17	0xbda6921a	-0.081333354
18	0x3d3fe7de	0.046851985
19	0x3da7d3f8	0.08194727
20	0xbd95e691	-0.07319368
21	0xbd944332	-0.07239379
22	0x3c891082	0.016731504
23	0x3d086521	0.03329957
24	0x3d1385d6	0.036016308
25	0x3ad8cf7d	0.0016541329
26	0x3c32cb91	0.010912792
27	0x3da931b2	0.08261432
28	0x3d1f7346	0.038928293
29	0x3cfd8785	0.03094841
30	0x3a987688	0.0011632005
31	0x3d866c15	0.06563584
32	0x3de1c423	0.11023738
33	0xbc9a7402	-0.018854145
34	0xbd4868d2	-0.04892809
35	0x3d19acc2	0.03751827
36	0xbd5754a7	-0.052570965
37	0xbda46258	-0.0802657
38	0xbd9ebcbd	-0.07750843
39	0x3d87949d	0.066201426
40	0x3d4cb5d0	0.049978077
41	0x3d838a6e	0.06422888
42	0x3ddf7c20	0.10912347
43	0xbdd16500	-0.10224342
44	0x3daff73e	0.085920796
45	0x3d88b1c1	0.06674529
46	0xbd28758e	-0.041127734
47	0x3dad8126	0.08471899
48	0xbbe94586	-0.0071188835
49	0x3d30b9df	0.04314601
50	0xbcb60b8c	-0.022222303
51	0xbd8afba4	-0.06786278
52	0xbd7773fe	-0.060413353
53	0xbdf74003	-0.12072756
54	0xbc9db995	-0.019253531
55	0xbd849067	-0.06472855
56	0x3da7c41f	0.08191704
57	0xbc24861d	-0.010041741
58	0x3d28bfec	0.041198656
59	0x3d85a2eb	0.06525215
60	0x3db30b8b	0.08742436
61	0xbd230504	-0.039799705
62	0xbb90c57b	-0.0044180728
63	0x3d9888a0	0.07447934
64	0xbc2ea710	-0.010659948
65	0x3d814e84	0.06313804
66	0x3dd32d84	0.10311416
67	0x3dc2b59f	0.09507298
68	0xbd991f9a	-0.07476731
69	0xbcd32451	-0.025774153
70	0x3dc1ad5f	0.09456896
71	0x3cbb4079	0.022857891
72	0xbd0a5602	-0.03377343
73	0xbc926988	-0.017872587
74	0x3db198a9	0.08671696
75	0xbd0fc359	-0.035098407
76	0x3dca81b2	0.09888019
77	0xbda61cc2	-0.08110954
78	0xbdb2121f	-0.086948626
79	0xbc20078c	-0.009767424
80	0xbd5cf58f	-0.05394512
81	0xbd5a1f5c	-0.053252563
82	0xbd0f7be1	-0.03503025
83	0xbdc0b9af	-0.09410416
84	0x3cc252e0	0.023721159
85	0x3c65437b	0.013993139
86	0x3d742894	0.05960901
87	0x3dae2b9b	0.08504411
88	0xbdc82c84	-0.09774116
89	0xbc6ba3e6	-0.014382338
90	0x3def1ef8	0.11675829
91	0xbda422bb	-0.08014437
92	0xbdeb5e50	-0.11492598
93	0xbc9d3a6a	-0.019192893
94	0xbdeb0782	-0.114760414
95	0xbdd51aa4	-0.10405472
96	0x3bbb0cdc	0.00570832
97	0x3b4c8f4c	0.0031213341
98	0x3dcf4f72	0.10122575
99	0x3c4d4e47	0.01253087
100	0x3dbc513b	0.09195181
101	0xba660d76	-0.00087758095
102	0xbc03ad4c	-0.008036923
103	0x3de3e950	0.11128485
104	0xbd11a929	-0.035561714
105	0xbd8dc29d	-0.06921885
106	0x3d62390a	0.055230178
107	0x3de407f0	0.111343265
108	0x3d47d2ae	0.048784904
109	0xbce165ab	-0.0275143
110	0xbd8c7018	-0.06857318
111	0x3d1e85a4	0.03870167
112	0xbd34c968	-0.04413739
113	0x3cc219a0	0.02369386
114	0x3d089675	0.033346612
115	0x3db30263	0.087406896
116	0xbdced159	-0.10098524
117	0x3d822606	0.06354909
118	0xbc864be6	-0.016393613
119	0x3d44e4d4	0.04806979
120	0xbd580120	-0.052735448
121	0xbdaeb6ac	-0.08530936
122	0xbdb9ac7c	-0.09066102
123	0xbcbe1cdf	-0.023207126
124	0xbd8fb214	-0.070163876
125	0x3de7587e	0.112961754
126	0xbd6bf005	-0.057601947
127	0x3d42ca8f	0.047556456
128	0xbe03ed84	-0.12883574
129	0xbdcedace	-0.101003274
130	0x3dd4ed4a	0.10396822
131	0xbdd48c0b	-0.103782736
132	0x3dccfa25	0.10008649
133	0x3dbe8044	0.093018085
134	0x3d7b802b	0.061401527
135	0xbdbb912f	-0.09158551
136	0x3d19caf2	0.03754706
137	0xbd901e6a	-0.07037051
138	0x3b8f7d7a	0.0043789716
139	0xbbf6a597	-0.007527064
140	0xbd985db7	-0.0743975
141	0x3b93bfdf	0.004508957
142	0x3db8a02a	0.09014924
143	0x3cdd2796	0.026996415
144	0x3d932bf7	0.0718612
145	0x3da87976	0.08226292
146	0x3d23802e	0.039917164
147	0xbd4d0888	-0.050056964
148	0x3dd9383e	0.106064305
149	0x3d69f525	0.057118554
150	0xbcae44f6	-0.021273118
151	0xba686c5c	-0.00088662445
152	0xbd7bea8d	-0.061502982
153	0xbcd16253	-0.02555958
154	0x3db4bfcb	0.08825644
155	0x3b9e8ebf	0.004838794
156	0x3dcf19ed	0.10112367
157	0x3dcaee7b	0.09908768
158	0x3d3948a9	0.04523531
159	0xbd1930a1	-0.03739989
160	0xbcf54d26	-0.029944014
161	0x3e0043cd	0.12525864
162	0x3ce385ca	0.027773757
163	0x3da15ef3	0.07879438
164	0xbd8765cc	-0.06611213
165	0x3dafd785	0.08586029
166	0xbda742ef	-0.081670634
167	0xbca56b00	-0.020192623
168	0xbdf35c3d	-0.118828274
169	0x3c1fc927	0.009752548
170	0xbcdba12b	-0.02681025
171	0xbcb2c0f5	-0.021820525
172	0xbcf547eb	-0.02994152
173	0xbdcc79b5	-0.09984151
174	0xbd9548b2	-0.07289256
175	0xbd8ed796	-0.069747135
176	0xbc4035f7	-0.011731616
177	0x3e00ee2d	0.12590857
178	0xbcd98d4f	-0.026556639
179	0x3ddbeb2b	0.10738214
180	0x3dcc8c52	0.099877015
181	0x3d55ce12	0.052198477
182	0xbdc9e5a3	-0.09858253
183	0x3c2db725	0.010602747
184	0xbdc97686	-0.0983706
185	0xbd8c0bc3	-0.06838181
186	0x3ca66413	0.020311391
187	0xbdb58ec9	-0.08865125
188	0x3e013d35	0.12621005
189	0x3db2fd94	0.087397724
190	0x3db176f2	0.08665265
191	0xbd7c8019	-0.0616456
192	0xbdd9e318	-0.10639018
193	0x3d78f05a	0.060776092
194	0x3d336de8	0.043805987
195	0xbd4ae281	-0.049532417
196	0x3d1079a1	0.035272244
197	0x3d692be9	0.05692664
198	0x3d597020	0.053085446
199	0x3dc87112	0.097871915
200	0xbde13a45	-0.10997442
201	0x3df3cd03	0.11904337
202	0xbd5b3db0	-0.053525627
203	0xbd489b54	-0.048976257
204	0xbc9d4153	-0.019196188
205	0x3d9c558a	0.07633503
206	0xbddd69c5	-0.108111896
207	0x3da26606	0.07929616
208	0xbdc81cbd	-0.097711064
209	0x3c8df038	0.01732646
210	0xbd2dfb4f	-0.042475995
211	0xbdfd4626	-0.123668954
212	0xbc49c7e0	-0.01231572
213	0xbcf6697b	-0.030079594
214	0x3d713c03	0.058895122
215	0x3c875119	0.016518163
216	0x3df6c920	0.1205008
217	0xbdec921f	-0.11551308
218	0xbd67f217	-0.05662736
219	0xbcd60911	-0.02612737
220	0x3d231d0b	0.03982262
221	0x3dc8a21d	0.09796546
222	0x3dbcea4f	0.09224378
223	0x3bb8f432	0.0056443447
224	0xbd53640d	-0.051609088
225	0xbddd33c5	-0.1080089
226	0x3da66ea9	0.081265755
227	0xbaa0f72c	-0.0012280694
228	0xbd984886	-0.07435708
229	0xbde39570	-0.11112487
230	0x3d0c2f22	0.034224637
231	0x3d34373e	0.043997996
232	0xbdecee8f	-0.11568939
233	0x3d4ce5a0	0.050023675
234	0x3da049e9	0.07826597
235	0xbda6491d	-0.08119414
236	0xbd018603	-0.031621944
237	0xbd0e60af	-0.034760173
238	0xbdcc085f	-0.09962534
239	0xbdf2e566	-0.118601605
240	0x3d99020e	0.07471095
241	0x3df62bb5	0.12020055
242	0xbd312710	-0.043250144
243	0xbdd84776	-0.10560505
244	0xbdfd6de8	-0.123744786
245	0x3dd2920f	0.10281765
246	0x3d61fab0	0.055170715
247	0xbd759f5b	-0.059966426
248	0x3ce425de	0.027850088
249	0x3dc29412	0.095008984
250	0xbb609667	-0.0034269334
251	0xbdbf7296	-0.093480274
252	0x3dc11953	0.09428658
253	0x3dd55af4	0.104177386
254	0xbd00135a	-0.031268455
255	0xbdd89552	-0.105753556

weight f4 [8]
0	0x3f800000	1.0
1	0x3f800002	1.0000002
2	0x3f800000	1.0
3	0x3f7ffff5	0.99999934
4	0x3f7fffc6	0.99999654
5	0x3f800013	1.0000023
6	0x3f800000	1.0
7	0x3f7fffff	0.99999994

bias f4 [8]
0	0xb21bfeb8	-9.080104e-09
1	0x31b4beb4	5.26037e-09
2	0xb07be148	-9.163341e-10
3	0x3020d715	5.851331e-10
4	0xb224bd75	-9.589134e-09
5	0x33eb89e8	1.0968125e-07
6	0xb0d57d71	-1.5533442e-09
7	0x3128fd70	2.459128e-09

running_mean f4 [8]
0	0x383eb614	4.5469103e-05
1	0xb8c6fd5d	-9.488568e-05
2	0x3a2d0e2b	0.00066015375
3	0xba1be7bc	-0.0005947312
4	0x3a9d2ddf	0.001199182
5	0x3a9ee9f6	0.0012124169
6	0x393dbeb1	0.00018095483
7	0x39a1338d	0.0003074672

running_var f4 [8]
0	0x38f0d0ba	0.0001148297
1	0x38ab5ca9	8.171175e-05
2	0x3953e44c	0.00020207575
3	0x390eb03e	0.0001360783
4	0x39f8dbf3	0.0004746612
5	0x39e6def1	0.00044035123
6	0x3867d9a4	5.5277385e-05
7	0x39b8195f	0.00035114118

weight f4 [16, 1, 64, 1]
0	0x3cb98621	0.022646965
1	0x3d145c1a	0.036220647
2	0x3d816d92	0.06319727
3	0x3dfdeff5	0.12399284
4	0x3dc5e778	0.0966329
5	0xbda9dda7	-0.0829423
6	0xbd139952	-0.03603489
7	0xbaee93c2	-0.0018201994
8	0xbd9c975f	-0.07646059
9	0xbd1a87f1	-0.0377273
10	0xbd6a4265	-0.057192225
11	0x3d2cccb8	0.042187423
12	0xbda8f506	-0.082498595
13	0xbd1e0500	-0.038578987
14	0x3da4f02a	0.0805362
15	0x3cb5403c	0.022125356
16	0x3cb549bf	0.022129891
17	0xbd623325	-0.055224556
18	0xbd487294	-0.048937395
19	0x3d80d78d	0.06291113
20	0x3dba99ff	0.09111404
21	0xbc8d4153	-0.017243063
22	0xbdb95fc1	-0.09051467
23	0xbdef7187	-0.116915755
24	0xbd6d3cba	-0.05791924
25	0x3c3222bd	0.01087254
26	0x3d43d31c	0.04780875
27	0x3b2c971a	0.002633518
28	0x39ef2e0b	0.00045619937
29	0x3db516ac	0.08842215
30	0x3de82b07	0.11336332
31	0x3daa6258	0.08319539
32	0x3c017b29	0.007902899
33	0x3de57195	0.11203305
34	0x3da2b08d	0.07943831
35	0x3d5f8c52	0.05457718
36	0xbdb62e68	-0.0889557
37	0xbcbefeb7	-0.023314817
38	0xbc21189f	-0.00983253
39	0x3dd0b728	0.10191184
40	0x3cfe2b5e	0.031026538
41	0x3b6db7ae	0.0036272812
42	0x3dcb4a6c	0.09926304
43	0x3dcb074f	0.099135034
44	0x3d99d43c	0.075111836
45	0x3ddb93c7	0.10721546
46	0xbd5b6e92	-0.053572245
47	0xbdb665f0	-0.08906162
48	0xbd6c3622	-0.057668813
49	0x3d74b010	0.05973822
50	0x3d3d14bd	0.046162356
51	0x3de25b52	0.11052574
52	0xbd53b756	-0.051688515
53	0xbd9c690a	-0.07637222
54	0xbc537429	-0.012906113
55	0x3c93e34e	0.018052723
56	0x3d95186a	0.07280047
57	0x3db1844d	0.086678125
58	0x3c619a7f	0.013769745
59	0x3d9da35f	0.07697176
60	0xbde09795	-0.10966412
61	0xbd56f723	-0.05248178
62	0x3ca2063d	0.019778365
63	0x3d24916a	0.04017774
64	0x3d8be9ef	0.06831729
65	0xbca1b2ac	-0.019738518
66	0xb938c47e	-0.00017620806
67	0x3dc59ccc	0.09649047
68	0x3dbc432b	0.09192499
69	0xbd8c42b0	-0.06848657
70	0x3c94a8bb	0.018146863
71	0xbda14ee3	-0.078763746
72	0x3d453f4f	0.04815608
73	0xbdd72963	-0.10505941
74	0xbd8a2034	-0.067444235
75	0xbdd74d5f	-0.10512804
76	0xbd90c425	-0.070686616
77	0xbcb8037b	-0.022462597
78	0xbd2b59ce	-0.04183369
79	0x3dc1fd18	0.09472102
80	0x3dc87a9f	0.09789013
81	0xbd971172	-0.07376374
82	0x3db7d02a	0.08975251
83	0xbd9929f8	-0.07478708
84	0x3d4e104e	0.050308518
85	0x3db93e5b	0.090450965
86	0x3d6c67a0	0.057716012
87	0x3dbf14cd	0.09330139
88	0xbdd857a5	-0.10563592
89	0xbdf40e1b	-0.11916753
90	0x3d5a1e5a	0.0532516
91	0xbdc8d653	-0.09806504
92	0xbd4831c8	-0.0488756
93	0xbdd993f0	-0.1062392
94	0xbd464144	-0.048402086
95	0x3d88a3e8	0.06671888
96	0xbdcd029a	-0.10010262
97	0xbdfed6b6	-0.124432966
98	0xbd532940	-0.05155301
99	0xbdfca3c2	-0.12335922
100	0x3d9c8700	0.07642937
101	0xbdad7c17	-0.08470934
102	0xbd3d11f4	-0.0461597
103	0xbd16ae71	-0.036787454
104	0xbc4d1ef6	-0.012519589
105	0x3934bd6d	0.00017236704
106	0x3d3712ca	0.044695653
107	0xbdf2f133	-0.11862411
108	0x3c8abb0b	0.016934892
109	0x3bcd5df3	0.006267303
110	0xbd08aca1	-0.033367757
111	0x3db21148	0.086947024
112	0xbd5df9b8	-0.05419323
113	0x3c4ea5e8	0.012612797
114	0xbbd0c3a7	-0.00637098
115	0xbd0bba27	-0.034113076
116	0x3d5e17d3	0.05422194
117	0xbd83a199	-0.06427307
118	0x3d96f8c6	0.073716685
119	0x3dae1f9c	0.08502123
120	0x3d080332	0.033206172
121	0x3da8954c	0.08231601
122	0xbdb8a74b	-0.090162836
123	0xbd99cb82	-0.07509519
124	0x3da7a10a	0.08185013
125	0x3dc424e5	0.095773496
126	0x3c674724	0.014116082
127	0xbd8385b3	-0.064219855
128	0xbdaa9724	-0.08329609
129	0xbd95cc29	-0.07314331
130	0x3bd51691	0.0065029343
131	0x3d9ec94d	0.07753239
132	0x3da4a6f9	0.0803966
133	0x3dca175e	0.09867738
134	0x3dea571e	0.114423975
135	0x3dd2461c	0.102672786
136	0xbd29387f	-0.041313644
137	0x3d43f1a6	0.047837876
138	0x3d009994	0.031396464
139	0x3da35165	0.07974509
140	0x3d4bc439	0.04974768
141	0xbdccca9c	-0.09999582
142	0xbd939aa5	-0.072072305
143	0x3d805d53	0.062678
144	0xbcdb69f0	-0.026783913
145	0xbdc3efd4	-0.09567228
146	0xbd901e37	-0.07037013
147	0xbcac4432	-0.021028612
148	0x3da40737	0.080091886
149	0x3b39c847	0.0028348134
150	0x3da3f0c3	0.08004906
151	0xbd9ffd93	-0.07812037
152	0xbde53052	-0.11190857
153	0xbdd940a7	-0.106080346
154	0x3ddd13ce	0.10794793
155	0x3d16bee6	0.03680315
156	0x3d349b98	0.0440937
157	0x3d1bde3b	0.038053732
158	0xbdeee987	-0.116656356
159	0x3d0dd20f	0.034624156
160	0xbd2b04c9	-0.04175261
161	0x3c008859	0.007845008
162	0x3d0cd999	0.034387205
163	0xbd8e44fd	-0.06946752
164	0xbd98ac46	-0.074547336
165	0xbdbea1e4	-0.09308222
166	0x3df445ab	0.119273506
167	0xbdfe631a	-0.12421246
168	0x3da186e2	0.07887055
169	0x3cb6f05c	0.02233141
170	0xbdb472e8	-0.08810979
171	0x3b8012c6	0.003908488
172	0xbd806081	-0.06268407
173	0x3de9087c	0.113785714
174	0x3d51675a	0.051123954
175	0x3de6cebc	0.112699
176	0x3dde6222	0.10858561
177	0x3d52cdfc	0.051465973
178	0x3c2da53b	0.010598476
179	0xbbaa9b94	-0.0052065346
180	0xbd34575b	-0.04402862
181	0x3d3c09b6	0.0459077
182	0xbd9aaa56	-0.0755202
183	0x3df2619f	0.11835026
184	0x3d5577ce	0.052116208
185	0xbd90bd83	-0.070673965
186	0xbdbb82f8	-0.0915584
187	0x3d8410fe	0.064485535
188	0xbde2ba64	-0.110707074
189	0xbde62c1e	-0.112388834
190	0x3d3c9b41	0.0460465
191	0xbcef6cdf	-0.029226718
192	0xbdcf221d	-0.101139285
193	0xbdc9ed58	-0.09859723
194	0x3c4b612f	0.012413307
195	0xbddd3229	-0.10800583
196	0x3de510c7	0.11184841
197	0xbdd8bfc3	-0.10583451
198	0x3d92f0bc	0.07174823
199	0xbdd48b54	-0.10378137
200	0x3b627e59	0.0034560172
201	0x3cc1cae9	0.023656325
202	0x3d6a8d80	0.05726385
203	0x3dfde9f4	0.12398139
204	0x3d835cd1	0.06414188
205	0xbce319f3	-0.027722334
206	0x3df0e2ca	0.117620066
207	0xbd6596a1	-0.056051854
208	0x3de3136f	0.11087691
209	0xbd73a8a8	-0.059487015
210	0x3dbdb691	0.092633374
211	0xbd5a39b7	-0.053277697
212	0x3d03f2c5	0.032213945
213	0x3d42b828	0.047538906
214	0x3decc1c8	0.11560398
215	0xbd3b3712	-0.045706816
216	0x3d07358d	0.033010054
217	0x3c9516b1	0.018199297
218	0x3dbf633f	0.093451016
219	0xbd1ba1b9	-0.037996028
220	0x3cc4e129	0.024033146
221	0x3d746703	0.059668552
222	0x3d34e128	0.04416004
223	0x3cd961da	0.026535917
224	0xbd17da56	-0.037073456
225	0x3d23da08	0.040002853
226	0x3dae42e9	0.08508856
227	0x3d2937dd	0.04131304
228	0x3ad1c8eb	0.0016005313
229	0xbd9a8d7c	-0.07546517
230	0xbd3b3653	-0.045706104
231	0x3d3c538b	0.04597811
232	0xbc9e17fd	-0.019298548
233	0x3dcf1820	0.10112023
234	0xbd343abf	-0.044001337
235	0x3bc2ed64	0.0059487093
236	0x3d3bbe8c	0.045836017
237	0xbcb760a5	-0.02238495
238	0x3dcf3460	0.101174116
239	0xbd2e9ba3	-0.042628895
240	0x3dfc1cc7	0.12310176
241	0xbd9096f1	-0.0706004
242	0xbda9685b	-0.08271857
243	0xbd96cea7	-0.073636346
244	0x3dceabf3	0.100913905
245	0xbccf5652	-0.025309715
246	0x3d58fca6	0.05297532
247	0x3daebdc6	0.0853229
248	0xbdc92003	-0.09820559
249	0xbb4322d3	-0.0029775396
250	0x3d56897a	0.0523772
251	0x3c166a55	0.009180625
252	0x3d785d5b	0.060635906
253	0xbd66d50e	-0.05635553
254	0x3e072255	0.1319669
255	0x3d32b8e9	0.043633375

weight f4 [16]
0	0x3f7fd3a8	0.99932337
1	0x3f7ff52e	0.9998349
2	0x3f7fe616	0.9996046
3	0x3f808169	1.0039493
4	0x3f800800	1.0002441
5	0x3f800586	1.0001686
6	0x3f7f6728	0.9976678
7	0x3f7fc5dd	0.9991129
8	0x3f800e91	1.0004445
9	0x3f7fac7d	0.9987257
10	0x3f7fea64	0.99967027
11	0x3f804c78	1.0023336
12	0x3f8024e6	1.001126
13	0x3f7f5f9a	0.9975525
14	0x3f800c75	1.0003802
15	0x3f80126d	1.0005623

bias f4 [16]
0	0x3a8e77f8	0.0010869494
1	0x3a299ec6	0.00064704975
2	0x3ab5608a	0.0013837975
3	0x3b263d93	0.002536629
4	0x3926787c	0.00015875878
5	0x39f99f0c	0.0004761148
6	0x3a758842	0.00093663123
7	0x3a4871c5	0.00076463475
8	0x3ac9ff21	0.0015411117
9	0x3a768eb1	0.0009405418
10	0x3a98af3b	0.0011648902
11	0x3aeef7c2	0.0018231797
12	0x3a6404e3	0.0008698238
13	0xbae789f6	-0.0017665017
14	0x3a83e045	0.0010061344
15	0x38f308ce	0.00011588783

running_mean f4 [16]
0	0x3d04ec5f	0.032451984
1	0xbd8057e9	-0.062667675
2	0xbe1b8e62	-0.15191033
3	0xbe42b37c	-0.1901378
4	0xbf530dc5	-0.82442886
5	0xbf532b32	-0.82487786
6	0x3ea2f093	0.3182417
7	0x3f9a2a5b	1.2044176
8	0x3ee83ed5	0.45360437
9	0xbe992b44	-0.29915822
10	0x3ea21a2f	0.31660601
11	0x3ebb9084	0.36633694
12	0xbd648cc5	-0.05579831
13	0xbedeb1ad	-0.4349493
14	0xbd3fda9a	-0.046839334
15	0xbe1befff	-0.1522827

running_var f4 [16]
0	0x3e88dd36	0.2673127
1	0x3e96bd37	0.29441234
2	0x3dfe8804	0.12428287
3	0x3e125eaf	0.14293931
4	0x3d40c0bf	0.047058817
5	0x3d2f0653	0.04273064
6	0x3d4a2e51	0.049360577
7	0x3ca53171	0.020165177
8	0x3bb6b468	0.0055757053
9	0x3c56082e	0.013063474
10	0x3b8bac67	0.0042624953
11	0x3c1e93e1	0.009678812
12	0x3e0e4716	0.13894305
13	0x3e225cf5	0.15855773
14	0x3d87ae22	0.0662501
15	0x3f62e7ae	0.88634765

weight f4 [16, 1, 1, 16]
0	0x3e0402aa	0.12891641
1	0xbd77da30	-0.060510814
2	0x3da3b9d2	0.07994427
3	0x3d9ad3c5	0.07559923
4	0x3cdf3af4	0.02724979
5	0xbd2d86aa	-0.042364754
6	0x3e71d7b4	0.2361744
7	0x3d29b61b	0.041433435
8	0x3dfae1d7	0.12250107
9	0xbbf917f5	-0.007601733
10	0x3d2f8027	0.042846825
11	0xbda43bdc	-0.0801923
12	0x3d663052	0.056198426
13	0xbd6ffd2e	-0.05859106
14	0xbe04c47e	-0.12965581
15	0xbe76231f	-0.24036835
16	0xbe665ee1	-0.22497131
17	0x3d9bc312	0.07605566
18	0x3e4a7700	0.19771957
19	0xbdf72ca7	-0.12069064
20	0x3c0af31a	0.0084808115
21	0xbe7f1beb	-0.24912994
22	0x3e519fe6	0.20471153
23	0xbd87f3b6	-0.06638281
24	0xbe3dbba9	-0.18528618
25	0x3c99c612	0.018771205
26	0xbe279ea7	-0.16369115
27	0x3d3fd62a	0.046835102
28	0xbcf7cf42	-0.030250195
29	0x3e24fbba	0.16111651
30	0xbe7c284e	-0.2462475
31	0xbca82d57	-0.020529432
32	0x3e3c9102	0.18414691
33	0x3e4dd815	0.2010196
34	0x3e5b78c9	0.21432795
35	0xbe0255da	-0.12728062
36	0xbe799e9e	-0.24376914
37	0x3df6294f	0.12019598
38	0x3c365173	0.011127817
39	0xbda1a2ee	-0.078924045
40	0xbe5161b8	-0.20447433
41	0x3da75168	0.08169824
42	0xbe726cbb	-0.2367429
43	0xbdd9de99	-0.1063816
44	0xbc93aa7d	-0.018025631
45	0x3cb774ca	0.022394557
46	0x3b8831a6	0.004156309
47	0x3e5252c8	0.20539391
48	0x3e51f7fb	0.20504753
49	0x3e06fa7f	0.13181494
50	0xbe15e97e	-0.14639851
51	0xbde967de	-0.11396764
52	0xbd7e282f	-0.06205004
53	0x3e79320f	0.24335502
54	0xbe17fc3a	-0.1484231
55	0xbe5a5185	-0.2132016
56	0xbe0fd107	-0.14044581
57	0x3e34a8e9	0.17642559
58	0xbb9b33a4	-0.0047363807
59	0x3cb8e140	0.022568345
60	0xbe759f54	-0.2398656
61	0xbdda67eb	-0.10664352
62	0x3b59745b	0.0033180926
63	0x3e732a18	0.23746526
64	0xbb55963f	-0.0032590774
65	0xbe16e1b3	-0.14734535
66	0xbd3d4d19	-0.046216104
67	0xbe31f367	-0.17378007
68	0x3e59f055	0.21283086
69	0x3d9e4923	0.077287935
70	0x3d90a883	0.07063391
71	0x3e1c4850	0.1526196
72	0xbd526b46	-0.051371835
73	0x3dba752b	0.09104379
74	0xbe13a32f	-0.14417718
75	0x3d9fb72d	0.0779861
76	0x3d284baf	0.041087802
77	0x3e0bc30c	0.13648623
78	0x3e443ed1	0.19164588
79	0xbe7ef34d	-0.248975
80	0x3b77f1e8	0.0037833396
81	0x3e5b4c63	0.21415858
82	0xbe4a7dd5	-0.19774564
83	0xbdf80e0b	-0.121120535
84	0x3e34f457	0.17671333
85	0xbdc17b98	-0.09447402
86	0xbe6585fd	-0.22414394
87	0xbe79d994	-0.24399406
88	0x3e343185	0.17597015
89	0x3d87052c	0.06592783
90	0xbe2fc16f	-0.17163633
91	0xbdc70c36	-0.09719126
92	0x3e24999f	0.16074227
93	0x3e0b93a9	0.13630547
94	0xbe657a13	-0.22409849
95	0x3df0ff6d	0.117674686
96	0x3d26f15b	0.04075752
97	0xbe5c41f1	-0.2150953
98	0xbe0aa286	-0.1353856
99	0x3d108ab4	0.035288528
100	0x3e0ec32f	0.13941644
101	0xbaf3a25a	-0.0018587813
102	0xbdd2bfe6	-0.10290508
103	0xbe3533a4	-0.1769548
104	0xbc427f93	-0.011871236
105	0x3e383614	0.17989379
106	0x3e1e478d	0.15456982
107	0x3d56983f	0.052391287
108	0xbe190f8e	-0.1494734
109	0xbe08a873	-0.13345508
110	0x3e33dd72	0.17564943
111	0x3e5a4698	0.21315992
112	0xbe074447	-0.1320964
113	0x3dd12c2a	0.10213502
114	0xbe0501c4	-0.12988955
115	0x3e50b80b	0.20382707
116	0x3cf5bdfc	0.029997818
117	0xbd771af4	-0.06032844
118	0xbdfa1268	-0.12210542
119	0x3e52b0a7	0.205752
120	0xbe28c703	-0.16482167
121	0xbdf2a0d4	-0.11847082
122	0xbe60e44e	-0.21962091
123	0xbe0b1480	-0.13582039
124	0x3e08f179	0.13373365
125	0xbd913184	-0.070895225
126	0x3dd0eab7	0.10201018
127	0x3e632c93	0.22184972
128	0xbd1c4728	-0.038153797
129	0x3e40e76c	0.1883828
130	0xbc33a910	-0.010965601
131	0x3e49e81b	0.19717447
132	0x3bf8da15	0.007594357
133	0x3d76159a	0.060079195
134	0xbe604c44	-0.21904093
135	0x3cdf8d05	0.027288923
136	0x3e09f4a1	0.13472225
137	0x3dfab396	0.122412845
138	0x3df4013a	0.119142964
139	0xbe4775f7	-0.19478594
140	0xbd8ca96c	-0.06868252
141	0xbde66cca	-0.112512186
142	0x3e3a3e2d	0.1818778
143	0x3cf5d915	0.03001074
144	0xbda789e8	-0.081806004
145	0xbe6ddce0	-0.23228788
146	0xbd97a087	-0.07403665
147	0xbcf7e547	-0.030260695
148	0xbe3b87cf	-0.18313526
149	0xbcddf79e	-0.027095612
150	0x3d3d3c2e	0.04619997
151	0x3db788c3	0.08961632
152	0x3d966cae	0.07344948
153	0xbd35fb3a	-0.04442904
154	0x3e7ef691	0.24898745
155	0xbd868bca	-0.065696314
156	0x3cf1d709	0.029521482
157	0xbe2a1445	-0.16609295
158	0x3cd524c3	0.026018506
159	0xbe49b71f	-0.19698761
160	0x3e3ad818	0.18246496
161	0x3e635733	0.22201233
162	0x3e2df67f	0.16988562
163	0xbdd903e5	-0.10596446
164	0xbe5fd3e1	-0.21858169
165	0x3d2ebbdf	0.042659637
166	0x3e5ac2fd	0.21363445
167	0xbceca28f	-0.028886108
168	0x3e16f468	0.14741671
169	0x3e4450d1	0.19171454
170	0x3e409460	0.188066
171	0xbdca62a2	-0.09882094
172	0x3d436f25	0.047713418
173	0xbdf81e6e	-0.12115179
174	0xbe645d0d	-0.22301121
175	0x3df4ffc8	0.11962849
176	0xbdcd27d1	-0.1001736
177	0xbd0c3a3b	-0.03423522
178	0x3d76fe7f	0.0603013
179	0x3e6d584e	0.23178217
180	0x3deabea9	0.11462147
181	0x3e113023	0.14178519
182	0xbde70ffe	-0.11282347
183	0x3e7c6ce4	0.24650913
184	0x3d529fd3	0.05142195
185	0x3e7921ad	0.24329253
186	0xbd2cb7ba	-0.042167403
187	0xbe635cc8	-0.22203362
188	0x3e788072	0.24267748
189	0xbda45de5	-0.080257215
190	0x3e1b2c61	0.15153648
191	0x3da11c1c	0.078666896
192	0xbde57353	-0.11203637
193	0xbdaa6291	-0.08319581
194	0x3da24ccb	0.07924803
195	0xbe3faa04	-0.187172
196	0xbd5a0515	-0.053227503
197	0x3e30aac0	0.17252636
198	0xbda27596	-0.07932584
199	0x3d8dfe21	0.06933237
200	0xbc39e8d7	-0.011347017
201	0x3db74ea8	0.08950549
202	0xbd7b5a9b	-0.061365705
203	0xbd965fdd	-0.07342503
204	0xbe5c5442	-0.21516517
205	0x3e0f62c0	0.14002514
206	0xbcc8e979	-0.024525391
207	0x3dffb6d4	0.124860436
208	0x3e01598e	0.12631819
209	0x3dd38689	0.10328395
210	0xbe138fbd	-0.144103
211	0x3c80def9	0.015731322
212	0x3d034b63	0.032054316
213	0x3d7b0701	0.061285976
214	0x3e0a8778	0.1352824
215	0x3e51591b	0.20444147
216	0xbdd7f4d3	-0.105447434
217	0xbd37cb19	-0.044871423
218	0xbe5d0386	-0.21583375
219	0x3df62e3a	0.12020536
220	0xbe0fb05d	-0.14032121
221	0xbd21298f	-0.039346274
222	0xbe686f81	-0.22698785
223	0x3e3d0b2e	0.18461296
224	0xbe01ac58	-0.126634
225	0x3e2c45e2	0.16823533
226	0x3e12c2dc	0.14332145
227	0xbe27d0e2	-0.16388276
228	0xbd894656	-0.06702869
229	0x3cec72d1	0.028863342
230	0xbe6d9664	-0.232019
231	0x3dc1f055	0.09469668
232	0x3e26ae0d	0.16277333
233	0x3e321fde	0.17394969
234	0xbc9315b4	-0.017954685
235	0xbe4b067f	-0.19826697
236	0xbe697c6e	-0.22801372
237	0x3d81b297	0.063328914
238	0x3be771ab	0.007063111
239	0xbe03a485	-0.12855728
240	0xbcfbff5f	-0.030761419
241	0x3d8f697f	0.07002544
242	0x3e291493	0.16511755
243	0x3dd9af63	0.106291555
244	0xbdadf5bd	-0.084941365
245	0x3d082bee	0.03324502
246	0x3e5a95e5	0.21346243
247	0xbdd490c3	-0.103791736
248	0x3d1f6604	0.03891565
249	0xbdd00b01	-0.10158349
250	0x3e514ad7	0.20438705
251	0x3d81e9cf	0.063434236
252	0x3c5573ca	0.013028095
253	0x3b50023e	0.0031739618
254	0xbdb021fa	-0.086002305
255	0x3e42ff63	0.19042735

weight f4 [16, 16, 1, 1]
0	0x3e41dbe5	0.1893154
1	0x3dcf3825	0.101181306
2	0x3e404504	0.18776327
3	0x3dea3c9f	0.11437344
4	0xbe19ce7a	-0.15020171
5	0xbe10e771	-0.14150788
6	0x3c233fb1	0.009963916
7	0x3e58844a	0.21144214
8	0xbe704053	-0.23462038
9	0x3e77e041	0.2420664
10	0x3e789172	0.24274233
11	0xbe654d92	-0.22392872
12	0xbe1e67b0	-0.15469241
13	0x3d25704c	0.040390298
14	0xbe799056	-0.24371466
15	0x3e79d71d	0.24398465
16	0x3e071937	0.13193212
17	0x3db37e1f	0.0876429
18	0x3e01de8f	0.12682556
19	0x3e7604c3	0.24025254
20	0x3b25698c	0.0025239913
21	0xbd9b8e1b	-0.07595464
22	0xbe387557	-0.18013512
23	0xbe32bf77	-0.1745585
24	0x3e77c7a4	0.2419725
25	0xbe4744a2	-0.19459775
26	0xbe284d82	-0.16435817
27	0xbcb71d6b	-0.022352895
28	0xbe5143b9	-0.2043599
29	0xbdea9aff	-0.114553444
30	0xbd3b39e1	-0.045709495
31	0xbdfcf31d	-0.12351058
32	0x3cf4da18	0.029889151
33	0x3d1f5f2e	0.03890913
34	0x3e036930	0.12833095
35	0xbc39cea7	-0.011340774
36	0x3d895dc8	0.067073405
37	0x3e6fcd5d	0.23418184
38	0x3cc60a3b	0.0241748
39	0x3b581d6e	0.0032976526
40	0xbe1876fe	-0.14889142
41	0xbe1ab0b9	-0.15106477
42	0xbcb89fc0	-0.022537112
43	0x3e01bb2c	0.12669057
44	0xbe6642be	-0.22486398
45	0xbe23f90a	-0.1601297
46	0x3d230623	0.039800774
47	0x3d2dc9d9	0.042428825
48	0x3daae4b3	0.08344402
49	0x3e4caf2d	0.199887
50	0x3d3d3080	0.04618883
51	0x3d0a72d3	0.03380091
52	0x3d53db08	0.051722556
53	0xbe722084	-0.23645216
54	0x3e71e449	0.2362224
55	0xbe5bb0cb	-0.2145416
56	0x3dcff9dc	0.10155079
57	0x3ccfae8e	0.025351789
58	0xbdedcf19	-0.11611766
59	0x3d9b0f2a	0.07571252
60	0xbdfbf353	-0.1230227
61	0x3c4012e7	0.011723257
62	0x3e183d89	0.14867224
63	0xbdeed40e	-0.1166154
64	0xbe591ee0	-0.21203184
65	0x3e6de2a2	0.23230985
66	0x3e151ff1	0.14562966
67	0x3e7d9d6b	0.24767081
68	0xbcc42c6f	-0.023946969
69	0xbd966ebb	-0.07345339
70	0xbdebb4d9	-0.11509103
71	0x3e43c68e	0.19118711
72	0xbdf65202	-0.120273605
73	0xbe0bd869	-0.13656773
74	0xbd9706a1	-0.07374311
75	0x3d517ec1	0.051146273
76	0x3e387a99	0.18015517
77	0x3e1126ad	0.1417491
78	0x3e351a11	0.17685725
79	0x3e17b7fa	0.14816275
80	0xbe54b01f	-0.2077031
81	0x3e0f6919	0.14004935
82	0xbda03d83	-0.078242324
83	0x3e6e6b6c	0.23283166
84	0xbe083c3b	-0.13304226
85	0x3da7bf83	0.08190825
86	0xbe6c3fb5	-0.23071177
87	0xbe6b6106	-0.2298623
88	0x3e0bc0a6	0.13647708
89	0x3db7da7d	0.0897722
90	0x3d83dff5	0.06439201
91	0x3da1b8d8	0.07896584
92	0xbe0a2a49	-0.13492693
93	0x3c9c3d1c	0.019072108
94	0xbe009972	-0.12558535
95	0x3dfc260e	0.12311946
96	0x3d007468	0.031361014
97	0xbe2e8f23	-0.1704679
98	0x3e7c1a26	0.2461935
99	0xbe2a076f	-0.16604398
100	0xbde29a9f	-0.11064648
101	0xbc543061	-0.012950988
102	0xbe61fba4	-0.2206865
103	0x3e5499f7	0.20761858
104	0x3cadc3c8	0.02121152
105	0xbe205c51	-0.15660216
106	0xbd7e5c2a	-0.062099613
107	0xbe0dc126	-0.13843212
108	0x3da53e25	0.08068494
109	0x3cf0c33a	0.029389966
110	0xbe2a07bb	-0.16604511
111	0x3e5b5964	0.21420819
112	0x3d06fe37	0.032957282
113	0x3e0fa479	0.14027585
114	0x3b6f8477	0.003654746
115	0x3e207b9d	0.15672155
116	0x3df2a5ab	0.11848005
117	0xbe376cd7	-0.17912613
118	0xbe029ac1	-0.12754346
119	0xbd27446a	-0.04083673
120	0xbe03ed9f	-0.12883614
121	0xbdabc7a0	-0.08387685
122	0xbe3ccb4f	-0.18436931
123	0x3ca961f6	0.020676594
124	0x3deb77a7	0.11497431
125	0x3e4d46d1	0.20046546
126	0x3e09894a	0.13431278
127	0x3dd1b4c0	0.102395535
128	0x3d692d64	0.056928053
129	0xbe69e2f6	-0.22840485
130	0x3db079e7	0.08617001
131	0xbd643eb3	-0.055723857
132	0xbde93e79	-0.11388869
133	0xbd46b821	-0.048515443
134	0xbd97c9e8	-0.074115574
135	0x3e46cd87	0.1941434
136	0x3d1726c6	0.03690221
137	0xbd74c321	-0.059756402
138	0xbd9c8ea3	-0.07644393
139	0xbe27ce39	-0.16387261
140	0xbe397d62	-0.18114236
141	0x3ce34126	0.027741026
142	0x3e31e077	0.17370783
143	0x3d606e73	0.054792833
144	0xbcf1b90a	-0.029507179
145	0xbe7e2ad3	-0.24821024
146	0xbc9fc244	-0.019501813
147	0xbcea5df6	-0.028609257
148	0x3e47cb1a	0.19511071
149	0x3e49aa6e	0.1969392
150	0x3d6840a6	0.05670228
151	0xbe4878da	-0.19577351
152	0xbd3607c0	-0.044440985
153	0xbe4e338f	-0.20136856
154	0x3de003c8	0.10938221
155	0x3d7130e4	0.058884516
156	0x3e5d4f1b	0.21612208
157	0x3c4fb57f	0.012677549
158	0xbd716030	-0.058929622
159	0xbd473839	-0.048637602
160	0x3e46e687	0.19423877
161	0x3e46bc18	0.1940769
162	0xbd542a9e	-0.051798455
163	0x3e546bb4	0.2074421
164	0xbdc04f3e	-0.09390114
165	0x3dc29668	0.09501344
166	0xbda5138c	-0.08060369
167	0xbd394326	-0.045230053
168	0xbe2a6f96	-0.16644129
169	0xbdd42efb	-0.10360523
170	0xbe2d42cd	-0.16920014
171	0xbccebc9d	-0.025236422
172	0x3daaf8b4	0.083482176
173	0x3db99e37	0.0906338
174	0xbd6386d6	-0.05554851
175	0xbd394041	-0.045227293
176	0xbd888f1a	-0.066679195
177	0x3d72f31f	0.05931389
178	0x3e3be300	0.18348312
179	0x3e3cede6	0.18450126
180	0x3c9914ba	0.018686641
181	0x3d2fa258	0.042879432
182	0xbe456c25	-0.19279535
183	0xbd8a8dcc	-0.06765327
184	0xbe621eac	-0.22082013
185	0x3e5711dc	0.21002907
186	0xbd664de5	-0.05622663
187	0xbd1710c9	-0.036881242
188	0xbd3d5205	-0.046220798
189	0xbe398320	-0.18116426
190	0x3e71436c	0.23560876
191	0xbe2d86f1	-0.16946007
192	0xbd92ef18	-0.0717451
193	0x3d86ddf6	0.065853044
194	0x3de09f2b	0.10967859
195	0x3e2f21af	0.17102693
196	0xbe1c7eec	-0.15282792
197	0x3d7dbf00	0.06194973
198	0xbdd92c95	-0.106042065
199	0x3e21f759	0.15817012
200	0x3e7df22e	0.24799415
201	0xbe628d66	-0.22124252
202	0xbc936be7	-0.017995788
203	0x3e3e32ec	0.18574113
204	0x3e571ce0	0.21007109
205	0x3e33943d	0.17537017
206	0x3e5beffe	0.21478269
207	0xbd9b6ae8	-0.0758875
208	0xbcc83077	-0.024437172
209	0x3e376d08	0.17912686
210	0xb9532b87	-0.00020138743
211	0xbe304d71	-0.17217042
212	0xbe412b98	-0.18864286
213	0x3e33696d	0.17520685
214	0x3dacde4d	0.08440838
215	0x3d2746bd	0.040838946
216	0xbe0aaf21	-0.13543369
217	0xbe26830e	-0.16260931
218	0x3d494385	0.049136657
219	0xbd908896	-0.07057302
220	0xbdc390af	-0.095490806
221	0x3de437ee	0.1114348
222	0x3de09e93	0.10967746
223	0x3e124625	0.1428457
224	0xbe41f904	-0.18942648
225	0xbe5172d8	-0.20453966
226	0xbe42a585	-0.19008453
227	0x3e7b50f5	0.24542601
228	0x3e608694	0.21926337
229	0xbe5b06c3	-0.21389298
230	0x3cc40809	0.023929613
231	0x3e24b087	0.16082965
232	0xbe3133f9	-0.17304982
233	0x3dfc5299	0.12320442
234	0x3e44856f	0.19191526
235	0xbb4de588	-0.003141733
236	0xbde5f15b	-0.112276755
237	0x3d3a152a	0.04543034
238	0x3d8cab15	0.06868569
239	0x3ddebc41	0.1087575
240	0x3dd61e99	0.10455055
241	0x3d9bcfd2	0.07607998
242	0x3e76190c	0.24032992
243	0x3d42b214	0.04753311
244	0xbe04788e	-0.12936613
245	0x3e28926e	0.16462108
246	0xbdc4eb91	-0.09615243
247	0xbdb39de4	-0.087703496
248	0x3d0e4830	0.034736812
249	0xbe0882ec	-0.13331193
250	0x3db2ad74	0.0872449
251	0x3e3126cd	0.17299958
252	0xbe47b21c	-0.19501537
253	0xbd972c5d	-0.073815085
254	0xbe2bc6aa	-0.16775003
255	0xbe407dc4	-0.18797976

weight f4 [16]
0	0x3f7f9184	0.99831414
1	0x3f7f1a8a	0.9964987
2	0x3f7eec30	0.99579144
3	0x3f7eae3e	0.9948462
4	0x3f7efdcd	0.9960602
5	0x3f7ed25b	0.99539727
6	0x3f7f2877	0.9967112
7	0x3f7ea152	0.99464905
8	0x3f7f493f	0.9972114
9	0x3f7f781f	0.99792665
10	0x3f7f4ef0	0.99729824
11	0x3f7f88bb	0.9981801
12	0x3f7fb0d5	0.998792
13	0x3f7f33f9	0.9968868
14	0x3f7ea573	0.99471205
15	0x3f7f3645	0.99692184

bias f4 [16]
0	0xbb27b455	-0.0025589664
1	0xbbdfe351	-0.006832518
2	0xbc3d50fa	-0.011554951
3	0xbc115a12	-0.008871572
4	0xbc065379	-0.008198612
5	0xbc05b388	-0.008160479
6	0xbc00788e	-0.0078412425
7	0xbbcde517	-0.006283413
8	0xbbec655b	-0.007214231
9	0xbb8b4d22	-0.0042511383
10	0xbbb66fd9	-0.0055675325
11	0xbaa20833	-0.0012362063
12	0xbbe10cee	-0.0068679964
13	0xbbcf0b18	-0.006318461
14	0xbc3d781f	-0.011564284
15	0xbbe1a11c	-0.006885661

running_mean f4 [16]
0	0xbbf70b3f	-0.0075391824
1	0x3a3de7fb	0.00072443456
2	0x3ca100eb	0.019653758
3	0xbc075608	-0.008260258
4	0xbd225e51	-0.03964073
5	0x3c762591	0.015023605
6	0x3cd2b3a0	0.025720417
7	0xbcd44829	-0.025913315
8	0xbc01512e	-0.00789289
9	0x3d6531b8	0.05595562
10	0xbd7d071a	-0.06177435
11	0xbdc210d0	-0.09475863
12	0x3c0d4726	0.00862292
13	0xbc89b052	-0.016807709
14	0x3d10261f	0.035192605
15	0x3d05909b	0.03260861

running_var f4 [16]
0	0x3e53c3c7	0.20680152
1	0x3e5a4df0	0.21318793
2	0x3d8c945d	0.068642356
3	0x3e84c827	0.25933954
4	0x3e4c60c6	0.19958791
5	0x3df74d01	0.12075234
6	0x3ec0aa10	0.37629747
7	0x3d99dac0	0.075124264
8	0x3dad9426	0.08475523
9	0x3e282f9d	0.16424413
10	0x3d89a7be	0.067214474
11	0x3e0ca18f	0.13733505
12	0x3e855703	0.26042947
13	0x3d8a8401	0.06763459
14	0x3dc70280	0.09717274
15	0x3dd219a4	0.10258797

weight f4 [3, 1024]
0	0x3aa59a66	0.0012634515
1	0x3c8d35e8	0.017237619
2	0xbcbbf040	-0.022941709
3	0xbca58d12	-0.02020887
4	0xbc66a80c	-0.014078151
5	0x3ce6d336	0.028176885
6	0x3ca4db18	0.020124003
7	0xbce95cdb	-0.02848666
8	0x3d05748c	0.03258185
9	0xbcf240dc	-0.029571943
10	0x3c3f7ba6	0.011687195
11	0x3cd68c16	0.026189845
12	0x3c109ec4	0.008826915
13	0x3c01e584	0.007928256
14	0x3c0f1123	0.008732113
15	0x3a4876b1	0.0007647081
16	0x3c730858	0.014833532
17	0xbb867108	-0.00410283
18	0x3af9cd3a	0.0019058355
19	0xbc54cdb7	-0.012988499
20	0x3c0516d2	0.008123117
21	0x3d32eff3	0.043685865
22	0x3c80a16d	0.015701974
23	0x3c233c9f	0.009963184
24	0xbc99cb73	-0.01877377
25	0x3b947118	0.0045300834
26	0x3ba899db	0.005145294
27	0xbc874233	-0.016511058
28	0x3cad5fb3	0.021163797
29	0xbcd054f1	-0.025431128
30	0x3c388c32	0.011263894
31	0x3ccddaab	0.025128683
32	0x3c8cce0e	0.017188098
33	0xbca0696f	-0.019581525
34	0xbc4d9bc8	-0.012549348
35	0x3ba3adf7	0.0049951035
36	0x3cc34f32	0.023841474
37	0xbcea225a	-0.028580833
38	0xbcc1a88e	-0.023639943
39	0xbcf95c2e	-0.030439463
40	0x3ca143a4	0.019685574
41	0xbbf3e96e	-0.0074435985
42	0xbc0f671b	-0.00875261
43	0xbb536c12	-0.003226046
44	0x3c7eb524	0.015546117
45	0x3aac1a98	0.0013130484
46	0x3c9dd0ee	0.019264665
47	0xbced92ed	-0.029000724
48	0x3cd835db	0.026392868
49	0x3815cf5c	3.5717487e-05
50	0xbbc43ce7	-0.0059887054
51	0x3bb775a4	0.0055987407
52	0x3c92c2df	0.017915187
53	0x3cdaf76a	0.026729304
54	0x3abcb9e7	0.0014398665
55	0xbc77ee40	-0.015132487
56	0xbc84dcfc	-0.016218655
57	0x3d1158c3	0.03548504
58	0xbcdd9a22	-0.027051035
59	0xbba452fb	-0.005014775
60	0x3cbeb612	0.023280177
61	0x3d0c98f8	0.03432557
62	0x3c76d69f	0.015065818
63	0xbcd3b48c	-0.025842927
64	0xbcc2488f	-0.02371624
65	0xbc8718b9	-0.01649128
66	0x3cae3b11	0.0212684
67	0x3c530904	0.012880567
68	0xbc2091a0	-0.009800345
69	0x3c324bbd	0.010882315
70	0xbcd12132	-0.025528524
71	0x3cd047f8	0.025424942
72	0x3b164de6	0.0022934615
73	0xbc900a67	-0.017583085
74	0xbc9f13bb	-0.019418588
75	0xbbee31b0	-0.007269107
76	0x3d084478	0.033268422
77	0xbc8ad7b0	-0.016948551
78	0x3bf4be06	0.0074689416
79	0xbb41a30c	-0.0029546646
80	0xbcaf4870	-0.021396846
81	0x3c7bd44d	0.015370441
82	0x3cd3777b	0.025813809
83	0x3c9e27f5	0.019306162
84	0x3b9e0dbe	0.0048234155
85	0xba4b654a	-0.00077589287
86	0xbcb890c2	-0.022529963
87	0xbce422e2	-0.027848665
88	0xbcb0937a	-0.021554697
89	0xbc2711c6	-0.010197109
90	0xbc407c21	-0.011748345
91	0x3c6ac9d9	0.014330351
92	0xbcc045e6	-0.02347083
93	0x3cdb52fa	0.026772965
94	0xbc93c4e7	-0.018038226
95	0xbc8e0bf5	-0.017339686
96	0xbcabd36a	-0.020974834
97	0x3c8d50f2	0.017250512
98	0x3c296c8f	0.010340824
99	0x3bea7735	0.007155324
100	0x3bb4f3af	0.0055222134
101	0xbc8a2a38	-0.016865835
102	0xbd08ac7e	-0.033367626
103	0xbd046a39	-0.032327864
104	0xbc727b97	-0.014799974
105	0xbcd61c20	-0.026136458
106	0xbc570e79	-0.013126009
107	0xbab544fd	-0.0013829764
108	0x3c9d0465	0.019167135
109	0xbc567863	-0.013090226
110	0x3c2b9219	0.010471844
111	0x3c92e197	0.017929835
112	0x3c88bee9	0.016692596
113	0xbc848d4b	-0.016180655
114	0xbcaf6ae8	-0.021413282
115	0xbcf78d4e	-0.030218747
116	0xbc72296b	-0.014780383
117	0xbcf1234a	-0.029435772
118	0xbc811408	-0.015756622
119	0xbc180006	-0.009277349
120	0xbd08c41d	-0.033390153
121	0x3b79f840	0.0038142353
122	0x3c023a10	0.0079484135
123	0x3d0abd2a	0.033871807
124	0x3cac2837	0.02101527
125	0x3cd77b5b	0.026303938
126	0x3bd7b6de	0.0065830788
127	0xbca4bf6a	-0.020110805
128	0x396b7bf8	0.00022457528
129	0xbca983cf	-0.020692734
130	0x3c5ef66a	0.013608554
131	0x3cc9342b	0.024561008
132	0xbc6d474e	-0.014482332
133	0xbc3ed744	-0.011648003
134	0x3ccd2264	0.025040813
135	0xbc3ec256	-0.011643013
136	0x3c920414	0.01782421
137	0x3cab5bf8	0.020917878
138	0x3c8e8f6b	0.017402371
139	0xbcb29857	-0.021801157
140	0xbb5a2a2c	-0.0033289297
141	0x3c62c949	0.013841935
142	0xbd12210a	-0.03567604
143	0x3b2bc79f	0.0026211513
144	0x3ca5925f	0.020211397
145	0x3c78e02a	0.015190164
146	0xbcfa7cb9	-0.03057705
147	0xbd1b21fc	-0.037874207
148	0xbcc8acf1	-0.024496527
149	0xbc425d10	-0.011863008
150	0xbabd0033	-0.0014419615
151	0x3c24e3ac	0.010064047
152	0xbc63bb78	-0.0138996765
153	0x3d07ec23	0.033184182
154	0xbba2ad12	-0.0049644792
155	0x3c56f103	0.013118985
156	0x3b335dea	0.002736921
157	0xbc2c12ee	-0.01050256
158	0x3b56dbad	0.0032784746
159	0x3c71a448	0.01474864
160	0x3cdddfde	0.027084287
161	0x3b360ea1	0.0027779716
162	0x3b88e39e	0.0041775247
163	0x3c8e1be3	0.017347282
164	0xbb9b2eb5	-0.0047357925
165	0x3d12ca01	0.035837177
166	0xbd142e92	-0.036177225
167	0xbaf7a390	-0.001889335
168	0x3d0441b9	0.03228924
169	0x3c6fc955	0.014635404
170	0x3c532e1c	0.012889411
171	0xbcf8a266	-0.030350875
172	0x3c6d34d2	0.014477925
173	0x3ccf6069	0.025314527
174	0xbcc4da85	-0.02402998
175	0x3cb53833	0.022121524
176	0x3b95a973	0.004567319
177	0xbbfc0917	-0.0076915133
178	0x3c846597	0.016161723
179	0xbc6ecc13	-0.014575022
180	0xbb386ef4	-0.0028142305
181	0xbcc2c958	-0.023777649
182	0xbc5e7ea8	-0.013580002
183	0x3c46c520	0.012131959
184	0xbcc60c3b	-0.024175754
185	0x39648498	0.0002179317
186	0x3c9e56c4	0.019328482
187	0x3bb22e2c	0.005437633
188	0xbcc9dc80	-0.024641275
189	0xbc6f8dd0	-0.014621213
190	0x3bf9249c	0.007603241
191	0xbc8ae831	-0.01695642
192	0x3af680b7	0.001880667
193	0x3b1f4ba9	0.0024306572
194	0x3cc5448d	0.02408054
195	0x3c259c1d	0.010108021
196	0xbb8377f8	-0.004012104
197	0xbb28f8aa	-0.002578298
198	0x3bccbf18	0.006248366
199	0xbb7862f7	-0.0037900785
200	0x3c9842c9	0.018586533
201	0xbc0e579d	-0.008687881
202	0xbbbd1449	-0.0057702404
203	0x3c5dd887	0.013540394
204	0x3ca64453	0.020296251
205	0x3a14423b	0.0005655621
206	0xb812c4b0	-3.4992292e-05
207	0x3c9f67b5	0.019458631
208	0xbc85f374	-0.016351439
209	0x3d00d5c5	0.031453867
210	0xbcf20803	-0.029544836
211	0x3c126078	0.008934133
212	0x3c76e474	0.015069116
213	0xbd1e94d8	-0.038716167
214	0xbbbdd0b7	-0.005792703
215	0xbbddc567	-0.006767917
216	0xbbef376d	-0.0073003084
217	0xbce54e98	-0.027991578
218	0xbbe5b4ff	-0.007010102
219	0x3cb12f7d	0.02162909
220	0xbcb685aa	-0.022280533
221	0x3c314375	0.010819306
222	0xbb881695	-0.0041530826
223	0x3c879352	0.01654974
224	0xbcaeb9c7	-0.02132882
225	0x3aec941f	0.0018049515
226	0x3ce0e380	0.02745223
227	0x3c07ec6a	0.008296112
228	0x3c9d69d8	0.01921551
229	0xbcd6ce5d	-0.026221449
230	0x3ce5bee7	0.02804513
231	0x3cb0bc56	0.02157418
232	0x3cf7a393	0.030229365
233	0x3ca789ca	0.020451445
234	0x3b9cafa5	0.0047816806
235	0xbc850b04	-0.016240604
236	0x3c89d477	0.016824944
237	0xbc8a2832	-0.01686487
238	0xbccb0777	-0.024783833
239	0x3cb447f0	0.022006959
240	0xbc017f6f	-0.007903918
241	0xbca8456f	-0.020540921
242	0x3c9698c0	0.018383384
243	0xbce2628d	-0.027634883
244	0x3c3fe766	0.0117128845
245	0x3d030a82	0.031992443
246	0x3b1a6f1d	0.0023564764
247	0xbcda8ee6	-0.026679467
248	0x3b69b2cf	0.0035659557
249	0xbc560411	-0.013062493
250	0xbc657bd3	-0.014006573
251	0xbc6d5ad6	-0.014486989
252	0x3ce146ee	0.027499642
253	0xbc243745	-0.010022943
254	0x3bef7646	0.0073078005
255	0xbd195003	-0.03742982

bias f4 [3]
0	0x3c6a8331	0.014313505
1	0x3cb49be1	0.022046985
2	0x3d00d951	0.03145725
