mi/Algorithm/impl/eegnet_model/model_3_3.pkl (torch, 38676 bytes, 18 tensors)

weight f4 [8, 1, 1, 64]
000000 59 48 ae bc 72 45 96 3d 5c 8d 7e bd e9 a6 bd bb
       -0.021274732 0.073374644 -0.06214653 -0.0057877195
000010 6b 45 b7 3d 2a 91 b2 bd 05 2a 0d bd 89 8e 62 3d
       0.08948787 -0.08719094 -0.0344639 0.055311713
000020 4d 40 a8 3c 7a 09 a4 3d 04 8b c3 bd f6 2f 4f bd
       0.020538474 0.0800962 -0.095479995 -0.05058285
000030 f9 60 ae 3c b0 45 34 3c df 9f c8 bd a6 dd b8 3d
       0.021286475 0.011002943 -0.09796118 0.09026651
000040 d4 b0 85 bd 9e 19 f1 bc d8 90 e0 3d 63 73 08 3d
       -0.06527868 -0.02943116 0.10965127 0.033313166
000050 ee 87 76 bd 5d f4 33 3d ca 9b e3 bd 0c a9 31 3d
       -0.060188226 0.043934215 -0.11113699 0.043374106
000060 a8 45 96 3d 70 4d b3 bd 07 80 6a 3c 10 44 59 3c
       0.073375046 -0.087550044 0.014312751 0.013260856
000070 8d cf 90 3d 58 ee 1d 3b 57 01 96 3d 0a e0 d1 bd
       0.07070837 0.0024098363 0.07324474 -0.1024781
000080 50 94 59 bd 08 3a 83 bd 5a d4 d1 3c 99 bc fd bb
       -0.053119957 -0.06407553 0.025613952 -0.00774343
000090 0b 6a 78 3d 5e 51 86 bb 20 53 a1 bd 05 a0 1a bc
       0.060648005 -0.004099055 -0.07877183 -0.009437566
0000a0 b7 44 53 bd dc 4c db bd 64 a8 1b 3d 5f 14 b5 bd
       -0.051579203 -0.10708019 0.038002387 -0.08841776
0000b0 b6 13 ae 3c d8 be 84 bd 5f 6a f1 bd 43 99 60 bd
       0.021249633 -0.06481713 -0.11787867 -0.05483366
0000c0 3a 48 cb 3d a3 b5 ed 3c f9 9d c8 3d c1 52 9d bd
       0.099258855 0.029017275 0.09795756 -0.076818
0000d0 4e cf fc 3d bc 86 ea bc 4e 2d c1 bd d4 ec ff 3d
       0.12344228 -0.0286287 -0.09432469 0.12496343
0000e0 fe 73 d2 bc 1e 70 d0 3d cc 53 4a bc 85 34 08 3e
       -0.025690075 0.10177635 -0.01234908 0.13301285
0000f0 48 66 44 3d 51 9a b7 bc 3f 04 a9 bc 76 54 af bd
       0.047949106 -0.022412451 -0.020631908 -0.085610315
000100 be 7f 28 3b 2f 78 db 3d 94 c3 f0 bd 8a d3 62 bc
       0.0025710906 0.107162826 -0.117560536 -0.01384438
000110 2e ae 85 3d f7 17 c2 bd fb 8a 8f bd 3a 97 99 bd
       0.06527363 -0.09477227 -0.0700893 -0.07499547
000120 1b 35 9d 3d b5 45 a2 bb 84 54 9e 3d ae 4b d4 3d
       0.07676145 -0.0049521574 0.07730964 0.10365997
000130 44 7f ab bd a1 58 92 3d e5 47 c6 3d 04 fb 42 bd
       -0.08373883 0.07145811 0.096816815 -0.04760267
000140 4a dd d6 3b 37 c9 4d 3b aa 0a b5 bd 3d 29 3b 3d
       0.0065571414 0.003140045 -0.08839925 0.045693625
000150 cb 45 36 bd 41 58 c7 bd 3d 55 f5 3d 52 6c 13 3b
       -0.044500154 -0.0973363 0.119791485 0.0022494984
000160 72 22 93 bd 37 4c e2 3c ba fb 07 3d 48 77 7b 3c
       -0.07184304 0.027624233 0.03319905 0.015348263
000170 49 b9 ce 3d ad 69 8b 3d 90 d1 aa bd e7 9e f5 3b
       0.10093934 0.068072654 -0.08340752 0.0074957493
000180 eb ec ae bd c1 3f 44 3d 99 1d 91 bd 76 97 87 bb
       -0.08541282 0.047912363 -0.070857234 -0.0041379286
000190 71 c7 87 3d 6c e7 2f 3d bb 04 36 bd 09 2b 4f bc
       0.06629837 0.04294531 -0.044438105 -0.012644538
0001a0 12 7a 03 bd 37 4f e4 bc d7 aa 48 3d ef 52 2f bd
       -0.032098837 -0.027869804 0.04899105 -0.0428037
0001b0 8b 72 a1 3d b5 46 59 bd d2 b3 18 3d 56 e8 90 ba
       0.078831755 -0.053045947 0.037280865 -0.001105557
0001c0 94 a8 c8 3c 38 1a 3e 3d b9 43 95 3d 47 77 6d bd
       0.024494447 0.046411723 0.07288308 -0.05797508
0001d0 d2 f5 31 bd 8b d9 aa 3d fb 1a 9e bc 36 e6 e5 3b
       -0.043447323 0.08342274 -0.019299975 0.0070159687
0001e0 32 fe e2 3d 7f bb c1 3c 8d 16 87 bd c5 ab 93 3d
       0.1108364 0.023648975 -0.06596098 0.07210497
0001f0 ae d6 bf bd 6c 7a fb bd a6 2a f6 bd e4 5b 8e 3d
       -0.09367119 -0.122792095 -0.12019853 0.069511205
000200 5f 1b c0 3c a1 05 e1 bc 78 52 28 bd 9c a1 65 3d
       0.023450552 -0.027468504 -0.041094273 0.056062326
000210 45 5a 34 3d e4 ad da 3d 21 52 b1 bd 10 2b b1 3d
       0.0440314 0.10677698 -0.08658243 0.08650792
000220 70 a6 69 bb 33 f7 2d bd 08 da 7c bd 07 5b e7 3c
       -0.0035652183 -0.042472076 -0.06173137 0.028241647
000230 e1 a2 af bc 42 3c c2 bd 48 49 73 bd df 5d 8f bc
       -0.021439971 -0.094841495 -0.05939606 -0.017500816
000240 32 b5 26 3d 1d 58 0e 3d b3 17 57 3d 5d e9 ea bd
       0.040700145 0.034752 0.052512836 -0.11470292
000250 08 f1 1e 3d 04 57 8d 3c a1 d8 cf 3c da bb fb 3c
       0.038804084 0.017253406 0.025371851 0.030729223
000260 b6 c9 84 3d 35 09 b2 bd 99 2e a8 3d 3d b3 ad 3d
       0.06483786 -0.08693162 0.08212013 0.084814526
000270 c7 78 4e 3d 94 c1 9b 3d a0 e8 85 3a 62 59 a2 bd
       0.05040815 0.076052815 0.0010216422 -0.07927205
000280 00 5d b1 3b 37 b5 c6 3c 5c be 24 3d c4 bd 4f 3d
       0.005412698 0.024256332 0.040220603 0.050718084
000290 ee f8 eb bd 13 f1 06 be bd d4 2f 3d bf 6b 98 3d
       -0.11522089 -0.131779 0.042927492 0.07442426
0002a0 37 bd 08 3d 37 43 a1 bc 17 94 ed 3c c1 55 b3 bb
       0.033383574 -0.01968537 0.029001279 -0.005472869
0002b0 9d a1 b9 bd 2b 7e c8 3d 2a 5f 90 bd 11 55 d4 bd
       -0.090640284 0.0978969 -0.07049401 -0.10367788
0002c0 cd f2 c1 3c 3f 92 6b 3d 02 b4 91 3d 1f 86 de 3d
       0.023675347 0.057512518 0.07114412 0.10865425
0002d0 34 ed 02 bd 0e f8 91 3d ff d5 c5 3c 88 5a bc 3b
       -0.031964496 0.07127391 0.024149893 0.005748097
0002e0 ad 35 e2 bd c0 7f b9 3d d4 c1 fa bd 9e c8 05 bc
       -0.11045394 0.090575695 -0.12244001 -0.008165507
0002f0 5d 24 74 bd 03 bf d4 bd 03 6a 85 bc c1 c9 68 bd
       -0.05960499 -0.10387995 -0.016285902 -0.056833033
000300 ec e0 ca bd 09 1c 03 3d ea e0 df 3d 4c 2c e8 3d
       -0.09906182 0.03200916 0.10931571 0.11336574
000310 aa 1b b3 3d 9b 9b 6c bd 1e 5d d1 bd 23 dc 01 3e
       0.08745511 -0.057765584 -0.10222839 0.12681632
000320 72 21 9f bb 9f 9b 32 bd 77 37 c3 3c 2e e0 c2 bd
       -0.004856282 -0.043605443 0.023830159 -0.09515415
000330 e4 bf ed 3c c1 f7 c2 bc f5 1f 87 bc fd 5b 62 bd
       0.029022165 -0.023799779 -0.01649473 -0.055263508
000340 f5 92 fc 3d e6 a8 0b bd 2b a9 7e bd 9d 63 76 bd
       0.12332717 -0.03409662 -0.06217305 -0.060153592
000350 cb 59 98 bd 70 7c c3 3d ac e1 1f bc 3c a5 7b bd
       -0.07439002 0.09545219 -0.009758394 -0.061436877
000360 b9 71 77 bd c9 2c 4d bd 9e f7 85 bc 2b 9b f1 bd
       -0.06041119 -0.05009154 -0.016353425 -0.11797174
000370 3d 70 fe 3d bf f3 99 3d 02 7e 94 3d 95 6d cb 3d
       0.124237515 0.07517194 0.072505966 0.099330105
000380 08 52 e7 3d d4 53 73 bd 3a f2 ad bd 1f 1e d3 bd
       0.11294943 -0.059406117 -0.08493467 -0.103084795
000390 ef 2c 47 3b 74 b3 ac bd 53 a2 92 3b a6 64 d6 bc
       0.0030391773 -0.084326655 0.004474917 -0.02617104
0003a0 26 57 ab bd cf 82 1b bc e6 1c 6c bd 74 d1 d5 bc
       -0.083662316 -0.009491636 -0.057644747 -0.026100852
0003b0 ed 70 04 bd 04 a0 fe bc 83 d7 51 bd ab 91 ec 3c
       -0.032334257 -0.03108216 -0.05123092 0.028878054
0003c0 13 c7 00 3e 53 36 89 bd 8d c4 a2 bc 89 61 97 3c
       0.12575941 -0.06699815 -0.019869113 0.018479126
0003d0 81 3f 8d 3d 7d 28 ec bc 49 06 8f 3d 8c 07 cf bd
       0.06896878 -0.0288279 0.06983621 -0.10108861
0003e0 3c 46 b7 3c 40 5d c1 bc 45 0a b2 3d 2a 01 b6 3d
       0.022372358 -0.023604035 0.08693365 0.08886941
0003f0 92 e8 3d 3c 80 2b 95 3d 54 6e 78 3d d1 e4 f0 bb
       0.011591094 0.072836876 0.060652092 -0.007351496

weight f4 [8]
000000 d9 ff 7f 3f 01 00 80 3f 0a 00 80 3f fa ff 7f 3f
       0.9999977 1.0000001 1.0000012 0.99999964
000010 10 00 80 3f 7a ff 7f 3f fd ff 7f 3f 7a ff 7f 3f
       1.0000019 0.999992 0.9999998 0.999992

bias f4 [8]
000000 11 57 19 32 3c 0a f5 b1 d8 16 4d 32 33 8b 88 b2
       8.925569e-09 -7.131602e-09 1.19377646e-08 -1.5895784e-08
000010 f7 d0 2c b3 5f 66 ef b2 ce 8c a9 31 52 f8 45 b3
       -4.0236923e-08 -2.7869815e-08 4.934555e-09 -4.6093483e-08

running_mean f4 [8]
000000 78 cd e8 39 f5 e8 8d b9 90 ff 7f 35 9c 8a f6 38
       0.00044403574 -0.00027067182 9.5366795e-07 0.00011756012
000010 57 53 84 ba de 25 c4 3a dc e9 84 b9 28 18 49 ba
       -0.0010095638 0.0014964899 -0.0002535124 -0.0007671141

running_var f4 [8]
000000 ca 46 ce 38 14 25 8a 38 eb e9 15 38 fc fc 1d 38
       9.836031e-05 6.587259e-05 3.574222e-05 3.7667327e-05
000010 ae a2 c4 39 76 7e 49 3a 63 05 d1 38 95 22 6d 39
       0.0003750524 0.00076863857 9.9669e-05 0.00022614964

weight f4 [16, 1, 64, 1]
000000 cb 69 42 3d e8 61 c1 3b c3 82 ac bd 0e 88 0d bd
       0.047464173 0.005901564 -0.08423378 -0.03455358
000010 29 34 e2 3d e0 32 e1 3d 5f b9 ff bd 71 e5 ea 3d
       0.11045105 0.10996032 -0.124865286 0.11469544
000020 8f 8c 88 3d 29 2c 4c 3d 68 3d 78 bd d7 cf ed 3d
       0.066674344 0.049846802 -0.060605437 0.11611908
000030 a4 2d d2 bd 8a a9 9c bd 30 ab 4b 3d c2 cf 0e 3d
       -0.102626115 -0.076495245 0.049723804 0.034866102
000040 f1 f2 2c bd 51 89 ef bd f0 3f 1c 3d fa c8 f8 3d
       -0.042223874 -0.11696113 0.038146913 0.12147708
000050 22 4d 1c 3d d4 03 84 3c 75 63 1b 3d 7e ed 24 bd
       0.038159497 0.016115107 0.037936646 -0.040265553
000060 74 2b 5e ba 6c cf fa 3d fa b0 eb bc 26 13 52 3d
       -0.0008475103 0.12246594 -0.028770912 0.051287793
000070 04 9c 87 3d e6 58 a5 bd 9f b7 e1 bd 0b 34 71 bc
       0.066215545 -0.08073597 -0.11021351 -0.014721881
000080 5f e9 dc 3d 4c 1d 86 bd d4 b5 c7 3c 1a 32 af 3d
       0.107866995 -0.06548557 0.024378695 0.08554478
000090 87 e9 85 bc f2 0a 40 bd 06 09 6f 3d 5d 21 fe bc
       -0.016346706 -0.04688544 0.058358215 -0.031021768
0000a0 97 26 cf bc c7 57 ae bd 17 92 89 3d 70 17 40 bd
       -0.025286956 -0.08512836 0.067173176 -0.04689735
0000b0 a5 7a a7 3c 3c 37 07 bd 5f 0d 97 bc 51 18 c2 bd
       0.020444224 -0.03301166 -0.018438993 -0.09477294
0000c0 69 72 62 bd bb f3 b6 bc 77 6e f4 3c d4 95 4c bc
       -0.05528489 -0.022333017 0.02983783 -0.012486894
0000d0 17 75 fc bd 41 5c 17 bc 05 bb 88 bd 32 2f b3 3d
       -0.123270206 -0.009238304 -0.06676296 0.08749236
0000e0 3b a0 00 39 61 8f 84 3c 71 1a 91 bd fa eb f4 3d
       0.00012266722 0.01618165 -0.070851214 0.119590715
0000f0 d7 47 cb bc 43 33 b2 bc d6 30 c0 3d d9 c7 60 3d
       -0.02481453 -0.02175296 0.09384315 0.05487809
000100 35 f8 37 bd 05 bf 09 bd 07 6d 8e 3d 0f 12 7f 3d
       -0.044914443 -0.033629436 0.06954389 0.06227308
000110 82 96 26 39 ec d3 23 bd f1 04 a5 3c 86 0a d7 3d
       0.00015887062 -0.039997026 0.020143958 0.10500054
000120 71 b2 2e 3d 8e 46 aa 3d 4c 35 47 bc ce 42 d5 3d
       0.042650644 0.083142385 -0.012158703 0.104131326
000130 b6 67 bb bd 92 92 e9 3d cf b8 31 3d 4a 33 ad bc
       -0.09150641 0.11404909 0.043389138 -0.02114262
000140 7b 1c e9 3c 9e 29 80 3b 99 a3 f6 bd ad ed bb 3d
       0.028455963 0.003911211 -0.120429225 0.091761924
000150 2c 3b 15 bc a8 87 9a bd d8 53 d4 bd 96 65 d3 bd
       -0.009108346 -0.075454056 -0.103675544 -0.1032211
000160 de ef bc 3c 5a 81 fe bc d4 b3 e4 b7 60 88 60 bd
       0.023063596 -0.031067539 -2.7263457e-05 -0.054817557
000170 c9 6d 84 3d 61 d2 d5 3d 3a ab c5 bd 6f 38 d0 3d
       0.06466252 0.10440517 -0.096517995 0.10167014
000180 2b ea 1c bc bc 04 d2 bd be 62 bf 3d 21 7d 0b bd
       -0.009577314 -0.10254809 0.093450055 -0.03405488
000190 3d 95 cf 3d d0 a7 b7 bc 89 85 f6 bd ea 20 cc 3d
       0.10135887 -0.022418886 -0.120371886 0.09967215
0001a0 99 cf 26 bd 7a 9a f9 bd c5 67 ca 3c 2d fd b5 bd
       -0.040725324 -0.12187667 0.024707684 -0.0888618
0001b0 83 69 f5 bd cb 5b ed bd 32 3d 86 bd 90 95 c0 bd
       -0.119830154 -0.11589774 -0.06554641 -0.09403527
0001c0 88 43 f2 bd 06 9f 57 3d 00 cf e2 bc 84 8f 99 3d
       -0.11829287 0.05264189 -0.027686596 0.074980766
0001d0 6c 48 da 3c 25 e6 9f bd 69 e5 b0 3d d7 ab b3 bd
       0.026645862 -0.078075685 0.086375065 -0.0877301
0001e0 c1 51 ee bd da b5 75 bd b5 6b b5 bc 39 79 9f bc
       -0.11636687 -0.05998788 -0.022146085 -0.019466983
0001f0 c3 99 da bd 94 7f 8e 3c 14 19 8b bd c1 df c0 3b
       -0.10673859 0.017394818 -0.06791893 0.0058860485
000200 1b 62 d9 3d 9e 0f d4 3d 5a aa a3 bd 4b b8 62 bd
       0.10614415 0.10354541 -0.07991476 -0.055351537
000210 20 16 f1 bd 3f ef 06 bd d0 ef 47 3d de ca b4 3d
       -0.11771798 -0.032943007 0.048812687 0.08827756
000220 d4 a7 05 bd 46 bd df 3d 17 17 62 3d 87 3e 4b 3d
       -0.032630756 0.10924773 0.0551978 0.049620178
000230 8d 83 ba 3d e1 b4 c2 3d 21 68 eb 3c 3d 36 2a bd
       0.091071226 0.09507156 0.028736176 -0.041555632
000240 f5 06 d4 bd 09 39 92 bd 2c f9 d9 bd 9f e7 f3 bd
       -0.103528894 -0.07139785 -0.10643229 -0.119094126
000250 6e 34 00 be f5 07 e0 bd aa 03 4a bd 50 0e c3 3d
       -0.1252 -0.10939018 -0.0493199 0.09524214
000260 d8 5b f3 bd 3a 86 92 bc 60 a3 af bd b9 09 c6 3d
       -0.11882752 -0.01788627 -0.08576083 0.09669823
000270 ec 6d 94 bd 1d a1 d6 bc 6d 91 a3 3c 96 1d 12 3c
       -0.072475284 -0.026199872 0.019966805 0.008918187
000280 d7 2f b8 3c 68 22 c3 3d 36 9c 61 bb 45 c3 3b bd
       0.02248375 0.09528047 -0.0034425384 -0.04584052
000290 1f a6 e0 3c db b5 a3 3d c2 32 f5 bd 36 45 5b 3d
       0.027422963 0.079936706 -0.11972572 0.0535328
0002a0 fa fd 57 bb c1 1b 30 bd f0 73 91 3d f1 6f c0 bc
       -0.0032957778 -0.04299522 0.071021914 -0.023490878
0002b0 2b 31 cd bd dc cd 7a bd 1d 2f cb bd 4a ef 91 bd
       -0.10019144 -0.06123148 -0.099210955 -0.07125719
0002c0 a0 a7 ea 3d ff 6e f5 3d 14 8d a7 bd 74 1d ff 3d
       0.11457753 0.119840614 -0.081812054 0.124567896
0002d0 bb 1a d6 bd 8a 59 d9 bd df 28 24 3d 8c 26 cd 3d
       -0.10454317 -0.10612781 0.04007804 0.10017118
0002e0 33 28 12 3c b1 14 fe 3d b7 61 d4 bd 36 88 59 bd
       0.008920717 0.1240629 -0.103702 -0.053108416
0002f0 5b 19 a3 3d 9c e3 a9 3d 95 c7 7b bd 3c 35 27 bc
       0.079638205 0.08295366 -0.061469633 -0.010205563
000300 e9 19 3d bd 06 c4 e0 bd 16 b7 a9 bd 73 88 e8 bd
       -0.046167288 -0.109748885 -0.08286874 -0.113541506
000310 5d 17 24 bb 9f 48 d2 bd dc a2 6d bd fe 90 32 3d
       -0.002503834 -0.102677576 -0.058016643 0.043595307
000320 94 ba e2 3d f3 47 e2 3d 35 14 3e bd 4f b0 87 bc
       0.11070743 0.110488795 -0.04640599 -0.016563563
000330 84 fb 91 3d a8 2e af 3d 18 e0 2c bc 93 2b bc bc
       0.07128051 0.08553821 -0.010551475 -0.022969997
000340 c6 66 ad bd b3 6f e7 3d ee dc b8 bc 72 ed 38 bc
       -0.08466868 0.11300602 -0.022566285 -0.01128708
000350 43 7a 60 bc 19 81 93 3d a1 66 e8 bd 4a ed 8d bb
       -0.013701024 0.07202358 -0.113477 -0.0043312656
000360 6f 72 ce 3c 8d 3f ea bd 2b 9d fe bc ba 3f 34 3d
       0.02520105 -0.114379026 -0.031080803 0.044006087
000370 24 08 44 3d 66 7c 62 bb bd e8 5a bd 68 8e e5 3d
       0.047859326 -0.003455901 -0.053444613 0.112088025
000380 80 1d 80 bd d5 18 01 bd 7b 2b b7 3d c1 3f d7 3d
       -0.06255627 -0.031517822 0.0894384 0.10510207
000390 7a 79 42 bd 33 6d 65 bd 1d bb e2 3d 16 bb a3 3c
       -0.04747913 -0.056012344 0.11070845 0.01998667
0003a0 56 bc 78 3d f5 d3 a1 3d 4a cd 9d 3d bf 0c d4 3d
       0.060726486 0.07901756 0.077051714 0.103539936
0003b0 94 1a b1 bd 65 2f 08 3d 06 4f 92 3d d0 c0 ba 3d
       -0.086476475 0.033248324 0.07143979 0.09118807
0003c0 43 6a a7 bd 5f f4 45 3d 2b 54 6c bd d1 7e f6 3d
       -0.08174565 0.048328754 -0.057697456 0.12035907
0003d0 3a 0b b4 3d 1f bf a2 bc 7f 7e 66 bd 48 63 f9 bd
       0.08791204 -0.019866524 -0.05627298 -0.121771395
0003e0 67 55 ca 3d fe 7d a0 bd 0a 8e ea 3c 7c eb b8 3d
       0.098795705 -0.07836531 0.028632183 0.0902929
0003f0 d0 eb 09 3c ee 06 a6 bc 29 e6 08 3e 88 92 29 3d
       0.0084180385 -0.020266976 0.13369049 0.04139951

weight f4 [16]
000000 74 76 7f 3f c1 02 80 3f 30 1e 80 3f ac 94 7f 3f
       0.9979012 1.000084 1.0009212 0.9983623
000010 e3 6e 80 3f 40 79 80 3f cf dc 7f 3f 4b 18 80 3f
       1.003384 1.0037003 0.999463 1.0007414
000020 d2 a0 80 3f e7 eb 7f 3f bf 37 7e 3f b9 22 80 3f
       1.0049078 0.99969333 0.9930381 1.0010597
000030 7a b6 7f 3f 36 07 80 3f cc ce 7f 3f c8 6d 7f 3f
       0.9988781 1.0002201 0.9992492 0.9977689

bias f4 [16]
000000 a9 99 e7 ba a5 6a 14 b9 d2 a2 cc 3a 31 66 e3 b9
       -0.0017669696 -0.00014154108 0.0015612489 -0.00043372952
000010 65 db 5c 3a 08 4e 05 3a e4 77 7f 3a c1 f4 7e b8
       0.00084250263 0.0005085175 0.0009745343 -6.0786264e-05
000020 ba d8 1f 3b e0 81 ba ba d8 88 b3 bb 3d 6b cf 3a
       0.0024390654 -0.001422938 -0.0054789595 0.0015824806
000030 62 b2 1a 3b ea 0f 2e b9 68 e2 49 ba b3 17 16 39
       0.002360486 -0.00016599862 -0.00077012787 0.00014313943

running_mean f4 [16]
000000 67 d8 1a 3f a2 03 5c be 2c 42 09 be c2 81 3a bf
       0.60486454 -0.21485761 -0.13404149 -0.72854245
000010 c1 f7 67 bb 18 7b 07 3b ea 27 d4 be e8 90 bc 3e
       -0.0035395476 0.0020672735 -0.41436702 0.36829305
000020 8f 34 d9 be 36 de 3f 3f c3 f3 43 3f 5a bb 45 3e
       -0.42422912 0.7494844 0.76543826 0.1930975
000030 99 13 7d 3e d8 8a 5b bd 9d 8f f1 bd c1 90 80 bf
       0.24714507 -0.05359921 -0.1179497 -1.0044175

running_var f4 [16]
000000 ae 92 44 3c db db 9a 3c 21 60 a2 3c e1 f7 c9 3d
       0.011997862 0.018903663 0.019821228 0.09861732
000010 e5 fd d3 3d 4b 73 51 3e 86 9c 3f 3d 4e 45 31 3e
       0.10351161 0.20454137 0.04678013 0.17311594
000020 4e dc 06 3d ec cf 21 3c 74 30 93 3b 02 02 7c 3a
       0.032924943 0.009876233 0.00449186 0.00096133363
000030 bb 39 11 3e 5b 87 0c 3e b4 b3 ba 3a 98 29 79 3c
       0.14182179 0.13723509 0.001424423 0.015207671

weight f4 [16, 1, 1, 16]
000000 65 e9 5c 3e e9 7c df 3d 91 e7 0b be e1 87 0d bc
       0.21573408 0.109124966 -0.13662554 -0.008638353
000010 7f 38 75 3e aa cc 58 3e da a5 6b be 48 ff d8 3d
       0.23947333 0.21171823 -0.23012486 0.10595566
000020 99 bf 82 3e ff a1 60 be 3b 30 37 be e1 97 0f be
       0.25536802 -0.21936797 -0.17889492 -0.14022781
000030 10 34 4b be ff 95 59 3d 2b a5 75 be d8 57 3a be
       -0.19844079 0.053121563 -0.23988788 -0.18197572
000040 33 6b 3c bd 08 93 5f be b1 4d 7f 3e 73 84 55 3e
       -0.04600067 -0.21833432 0.2493198 0.20851307
000050 76 0d 95 3b 9c 0f 1a 3e ac fe 7c bd 3d cd 08 bd
       0.004548724 0.15045017 -0.06176631 -0.033398855
000060 e5 45 75 be 7b 78 67 3e b8 6f 5a be f6 4f 00 bd
       -0.23952444 0.22604553 -0.2133168 -0.031326257
000070 1c 14 d3 3d 54 fa 07 be a9 3d 0c be 5d 81 05 3e
       0.1030657 -0.13279086 -0.13695396 0.1303763
000080 ff fc 62 3e db 05 17 3e d0 db b6 3d f7 5b 5e bd
       0.22166823 0.14748327 0.08928645 -0.054286923
000090 27 fd 63 3e 58 94 35 be 74 2a 25 3d 7a b7 0c 3d
       0.22264539 -0.1773237 0.04032369 0.034354664
0000a0 2b 50 ba 3d de 9b c1 3c f0 9b 4f 3e 43 22 49 be
       0.09097322 0.023633894 0.20274329 -0.19641976
0000b0 1e ac 35 be 2e 3a 4e 3e 07 89 51 be fc 97 5d be
       -0.17741439 0.20139381 -0.20462428 -0.21640009
0000c0 c2 06 68 be 41 66 88 ba cf 27 05 3e 66 85 8d 3d
       -0.22658828 -0.0010406451 0.13003467 0.06910209
0000d0 2a 2c 09 be f0 df 3e be 07 92 fc 3c 2a a6 02 be
       -0.13395754 -0.18640113 0.03083135 -0.12758699
0000e0 e7 1f ab bc f8 f4 83 bd fd 99 5c bd b5 48 be bd
       -0.020889236 -0.064432085 -0.053857792 -0.092912115
0000f0 74 45 4f be ff e3 bc 3d 3e 06 ff bd 2d 48 7e bd
       -0.20241338 0.09223174 -0.124523625 -0.06208055
000100 56 66 04 be 60 43 3a 3d bb 00 7a 3e 86 ab 66 bd
       -0.12929663 0.04547441 0.24414341 -0.05631592
000110 e3 22 19 3e 76 79 58 be 27 3d 75 be 20 76 74 be
       0.14954714 -0.21140084 -0.23949109 -0.23873186
000120 6e 00 57 bd d6 87 4e 3e 1f e0 21 3e b4 3e 12 be
       -0.052490644 0.20169005 0.15808152 -0.14281732
000130 5f 82 49 3e f6 04 67 3e 40 3a 1d be a9 8f 93 bd
       0.19678639 0.22560486 -0.15354252 -0.072051354
000140 a4 46 08 be 89 be bf bd 15 90 fc bc e3 f5 27 3e
       -0.13308197 -0.093625136 -0.030830422 0.16402392
000150 8c 5e 32 3e 4a a0 5e be 1e 78 6b be 1d f3 ab bd
       0.1741888 -0.21740833 -0.2299504 -0.083959796
000160 2c ce 6e 3e 92 60 1c be 10 0f 78 be dd 83 77 3e
       0.23320836 -0.15271214 -0.24224496 0.24171396
000170 fd 46 16 3e ad 8e 5c bd fd 4b 33 be cf b2 0f 3e
       0.14675517 -0.053847004 -0.17509456 0.14033054
000180 d6 c3 fb bc af 9b fc 3d 4f a1 98 bc ab 26 52 be
       -0.03073303 0.12334382 -0.018631605 -0.20522563
000190 7e 07 f8 3d d4 7c 34 be a1 b8 44 bc b0 ed b0 bd
       0.12110804 -0.17625743 -0.01200691 -0.08639085
0001a0 7f 8f 07 3e ec 4d 12 3d 69 6d 2f bc 85 5e cf bd
       0.13238333 0.035718843 -0.010707238 -0.1012545
0001b0 4b ee 69 3e e1 71 a1 ba ca 18 31 3e 51 a2 6c 3e
       0.22844808 -0.0012317264 0.17294613 0.23108794
0001c0 24 54 05 be 9c f1 10 3d 7f 50 9a 3c 83 e0 10 be
       -0.13020378 0.035386667 0.018837212 -0.14148144
0001d0 66 b0 0e 3e ad 82 84 bc dd ee aa bd d4 22 3c 3b
       0.13934478 -0.016175592 -0.08346341 0.0028707283
0001e0 f9 fc 04 3d c4 02 82 3d 4c 74 1d be 1a 7e a1 bd
       0.032467816 0.06348184 -0.15376395 -0.0788538
0001f0 b0 b9 40 be 6a ed f4 3d 8a ab 3a be ae 9d 14 3e
       -0.18820834 0.11959346 -0.182295 0.14513275
000200 0d 00 7c 3e d9 ed 2f be 06 2f ca bd 18 75 50 3e
       0.24609394 -0.17180575 -0.0987225 0.20357168
000210 a0 b5 83 bd a9 14 24 be 8e 66 4b bd b6 3a 3d be
       -0.064311266 -0.16023506 -0.04965835 -0.18479428
000220 bd cb 36 be 5d a3 16 3e 26 c7 1d 3d 6f 5b 2c be
       -0.17851157 0.14710756 0.03852 -0.16831754
000230 10 f0 41 3e 60 61 36 3e 12 c0 d8 bb 83 cd 24 3d
       0.18939233 0.17810583 -0.0066146934 0.040235054
000240 4f 93 e1 3d 54 8c f5 bd 19 f9 a8 bc ec 1a 63 be
       0.11014425 -0.11989656 -0.020626592 -0.22178239
000250 f0 4c 2c be c4 e9 5c be e4 56 ed 3c a0 18 9d bd
       -0.16826224 -0.2157355 0.028972097 -0.076707125
000260 98 af 29 be 41 ca d8 3c e8 90 a2 bc 1d 0d 66 3e
       -0.1657089 0.02646363 -0.019844487 0.2246594
000270 3b 6c 08 3e cd e1 98 3d e3 3f 05 3e 3e de 83 3d
       0.13322537 0.07464943 0.13012652 0.06438874
000280 7d c4 6a 3e 81 d0 1f be e3 58 39 3e ce ef 3f 3e
       0.22926517 -0.15606882 0.18100314 0.18743822
000290 5f e3 9c bb 46 93 f0 3c e6 ef 8e 3c 66 19 a7 3d
       -0.004787847 0.0293671 0.017448377 0.08159141
0002a0 52 6d 2f be 49 39 b8 bd 4b e9 72 be cc 57 38 3e
       -0.17131546 -0.08995301 -0.23721807 0.18002242
0002b0 61 ae 26 3e 0f 6d 19 3d b1 b6 d2 3d a3 59 e0 bc
       0.16277458 0.037457522 0.10288752 -0.027386492
0002c0 38 57 f8 bc 83 79 ae 3d 08 ea 3f bd a3 a7 e1 3d
       -0.030315027 0.0851927 -0.04685405 0.11018302
0002d0 93 43 7a bd bf 5c c9 bd 49 86 40 be e9 ed 72 3e
       -0.0610996 -0.09832143 -0.18801226 0.23723568
0002e0 ee 2f 57 3e 38 61 d2 ba 19 3d 5e 3e 6f 35 97 bd
       0.21014377 -0.0016050702 0.21702994 -0.073832385
0002f0 9c 56 e5 bc 23 f0 3a be 63 82 09 3e be b9 74 3c
       -0.0279954 -0.18255667 0.13428645 0.0149368625
000300 53 35 35 be 2a e0 30 3e 1e b3 a8 3d ca 53 a2 3d
       -0.17696123 0.17273012 0.08237289 0.07926138
000310 ea ff 47 be a2 e5 1f bd ed 07 40 be f9 ad 41 be
       -0.19531217 -0.039037354 -0.18753023 -0.18914022
000320 69 a4 70 3d 25 e3 85 bc cb 94 2e bd f3 4f 64 3d
       0.058750544 -0.016343663 -0.04262237 0.055740308
000330 13 7e 2a be 4b a4 a0 bd 51 ec e6 bc d9 07 f0 bc
       -0.16649656 -0.078438364 -0.028188856 -0.029300617
000340 63 74 b7 bd f9 a4 52 3e 78 50 54 bd 39 d6 82 3c
       -0.08957746 0.20570745 -0.051834553 0.01597129
000350 cc 09 e0 bc 4f 87 05 3e 8f e4 48 bd e4 d1 06 3e
       -0.027348422 0.13039897 -0.049046095 0.13166004
000360 45 40 f7 3d 69 82 0d be d3 ff 71 be 00 da 2f be
       0.12072805 -0.13819279 -0.23632745 -0.17173004
000370 e8 3c 25 be d3 39 6c 3d 8b 3d 0c be 41 3b 26 3e
       -0.16136515 0.057672333 -0.13695352 0.16233541
000380 62 28 03 3e 78 e8 fc 3c 94 81 02 3e 08 4b 70 3d
       0.12808374 0.030872568 0.12744743 0.058665305
000390 8b 3f cc bd 98 a7 d4 3d 4c c2 3a 3e 64 d4 d5 bd
       -0.09973057 0.103835285 0.18238181 -0.10440901
0003a0 00 39 b0 bd 99 2d 61 be af 9e b5 bb 90 62 a8 3d
       -0.08604622 -0.2199005 -0.005542598 0.08221924
0003b0 a8 57 2b be d7 27 75 3c 88 23 06 3e 7f 66 6a bd
       -0.16732657 0.014963112 0.13099492 -0.057226654
0003c0 67 98 ab 3c 2b ab ed 3d fc 66 25 3e 33 34 64 be
       0.020946695 0.11604913 0.16152567 -0.22285537
0003d0 9c 11 7c 3e c5 5a e0 bd 45 80 8d bd 7b e9 e5 3c
       0.24616092 -0.10954813 -0.06909231 0.028065434
0003e0 a3 48 e0 bd 5a cb 55 be 18 b8 46 3e 5d 93 43 3e
       -0.10951354 -0.20878354 0.19406164 0.19099183
0003f0 6d e5 c2 3c ba 45 49 3e ab 63 0c 3e a7 7d 17 be
       0.02379104 0.19655505 0.13709895 -0.14794026

weight f4 [16, 16, 1, 1]
000000 68 52 62 bd 21 98 50 be 0f be f9 3d 1f 8a 61 3e
       -0.05525437 -0.20370533 0.12194454 0.22025345
000010 de fd fb bd 6f 0c 23 3d d3 2a 36 3e 6d 3d 76 3e
       -0.12304281 0.03980678 0.17789774 0.2404687
000020 42 18 61 be c0 c5 42 bc 00 d5 66 be ad d4 74 be
       -0.2198191 -0.011887968 -0.2254219 -0.23909254
000030 8d ba 3e be 76 20 f0 bc 4e fe 53 3e 5a af 90 bc
       -0.18625851 -0.029312354 0.20702478 -0.01766174
000040 5b 3f 3a bd 41 73 9d bd 85 43 b3 bc 19 c4 a2 bc
       -0.045470577 -0.076879986 -0.021882782 -0.019868897
000050 21 65 62 be cb bf 70 3d 1f 77 33 be a6 20 ee bd
       -0.2210889 0.058776658 -0.1752591 -0.11627321
000060 36 d2 7e 3b 21 28 33 3d 62 ce ff 3d 39 7e 0c 3e
       0.003888262 0.04373944 0.12490536 0.13720025
000070 a4 c9 5c 3e 5d be 91 bb 56 6f 66 bd 0c ba 28 be
       0.21561295 -0.004447742 -0.056258522 -0.16477221
000080 c9 d5 6a 3e 50 26 46 3e 4b d7 01 bd 9a b0 01 be
       0.22933115 0.19350553 -0.03169946 -0.12665024
000090 5c 2c e1 3d 66 3f 55 be 2b 03 7e 3e 73 26 3c be
       0.10994789 -0.20824966 0.24805896 -0.18374042
0000a0 eb 74 71 be 54 f1 bb bd 87 7e 74 be 16 33 00 3e
       -0.23579757 -0.09176889 -0.23876391 0.12519488
0000b0 b6 22 ca bd ce 2b 90 bb 91 a6 24 3e 95 2b e5 bd
       -0.09869902 -0.004399753 0.16079165 -0.11189953
0000c0 37 23 93 3d 1c 2c 2a be 05 5b 34 3e b0 89 2b 3e
       0.07184451 -0.16618389 0.17612846 0.16751742
0000d0 c4 17 23 3e ce 81 2f be a3 16 c3 bd bc 61 30 3d
       0.15927035 -0.1713936 -0.09525802 0.043061957
0000e0 ca 12 60 be 2b bd 5c be 32 41 3f bd b1 87 57 be
       -0.21882167 -0.21556537 -0.046693034 -0.21047856
0000f0 6e a3 74 be 79 7b b5 3d 15 6a 60 be b5 94 43 be
       -0.23890468 0.08861441 -0.21915467 -0.19099696
000100 76 4c f8 bd e6 a3 1f be 11 68 24 3e 16 4f 43 be
       -0.12123959 -0.15589866 0.16055323 -0.19073138
000110 56 c8 06 be 41 26 d4 bd e7 55 70 3e 5f 6f 39 3e
       -0.1316236 -0.10358859 0.23470269 0.18108891
000120 7d a0 6f 3d 2a c8 cf bd ff 75 5f 3e 16 84 8f 3c
       0.058502663 -0.101456 0.21822356 0.017519038
000130 77 d2 ae bd 30 42 68 be 28 ee 58 be 57 a0 34 be
       -0.08536237 -0.22681499 -0.211846 -0.1763929
000140 d9 b9 8c 3d 9d 7a 8c 3d 58 5c 09 be ee 7d fc 3d
       0.06871385 0.06859324 -0.13414133 0.12328707
000150 26 26 ae bd 57 73 12 3d e8 77 5d 3e 01 ed 59 bd
       -0.0850337 0.035754528 0.21627772 -0.05320454
000160 7b b9 5e 3e ef e6 69 be 04 94 0e be 3e 06 03 be
       0.21750443 -0.22842 -0.13923651 -0.1279535
000170 9f 0d 46 be 63 d9 5a bd 6b a8 3f 3e e3 ea 34 3e
       -0.19341134 -0.053429972 0.1871659 0.17667727
000180 9c 5e 3d 3b 91 56 e1 bd a3 61 5e 3e c2 c2 97 3b
       0.0028895503 -0.11002839 0.21716933 0.0046313712
000190 34 ec 9a 3c d5 f0 4c 3e 4d 51 9e 3d 7a 40 63 bc
       0.018911459 0.20013745 0.07730351 -0.013870353
0001a0 1c b4 3c be f8 b6 1d be 29 f4 1b be e5 4c 0a 3e
       -0.18428081 -0.15401828 -0.15229858 0.13505895
0001b0 fc 60 5e be 1e 3c 99 3d 9d a7 4c 3d e3 69 54 3e
       -0.21716684 0.074821696 0.049964536 0.20743518
0001c0 b7 41 df bd d9 41 64 3e 2a f8 8f 3d b1 a5 55 bd
       -0.10901206 0.22290744 0.070297554 -0.05215997
0001d0 78 46 22 be d8 c3 71 be 2a ca a8 bc c1 b7 5d 3e
       -0.15847194 -0.23609865 -0.020604212 0.21652128
0001e0 7a ec 1d 3e c8 80 41 be 1a ae d4 3d a8 f6 80 3d
       0.1542224 -0.18896782 0.1038477 0.06297046
0001f0 ef a7 36 be 9e 74 18 bc d9 bf 01 3c c0 25 84 bd
       -0.17837499 -0.009305147 0.007919275 -0.06452513
000200 bc ca 38 3e c8 eb 87 bd 2e e8 1a be 21 67 1d 3e
       0.18046087 -0.066367686 -0.15127632 0.15371372
000210 81 53 44 3e 1c b8 54 be ab d7 7a be 81 c1 d5 bc
       0.19172479 -0.20773357 -0.24496333 -0.026093246
000220 22 f5 8d 3d 37 96 8a 3d 64 8f 20 bd 24 e1 1e be
       0.06931521 0.067669325 -0.039199248 -0.15515572
000230 fb c2 17 be 38 4c 8e bc 8b e4 ad bc 8d 31 8a 3c
       -0.14820473 -0.017370328 -0.021227142 0.01686933
000240 13 63 a2 bb 50 4c ea 3d b7 03 07 bd 44 02 c0 bc
       -0.004955658 0.11440337 -0.032962527 -0.02343858
000250 c3 48 e9 bc 6d 43 7b 3e 1f a4 7a 3e 12 ac 33 be
       -0.028477078 0.2453744 0.2447667 -0.17546108
000260 3f bb 7c 3e 1f 3c 01 bd 70 7c c6 bd f2 32 01 3d
       0.24680804 -0.031551477 -0.09691703 0.031542726
000270 b4 6d 08 3e a0 4e 19 3e e9 0c 45 be d9 b0 31 be
       0.13323098 0.149714 -0.19243206 -0.17352618
000280 f9 5e 60 3c f7 f3 ca 3d 48 ab dc 3d f0 37 90 3c
       0.013694518 0.09909814 0.10774857 0.017604798
000290 ca 03 6a bd de c2 81 3d c2 64 7c bd 7b 33 5b 3e
       -0.05713252 0.06335996 -0.061619528 0.21406357
0002a0 61 d2 5e be 56 9c 1c bc c1 a2 6e be 2c ca 06 3e
       -0.2175994 -0.009558758 -0.23304273 0.1316306
0002b0 3d 57 ce bd 2a aa 5a bd bd 77 36 3e 5b ad 6d 3e
       -0.10075233 -0.053384937 0.17819114 0.23210661
0002c0 51 01 da bd 82 07 b8 bd 0d 9e 10 3c 97 53 99 bb
       -0.10644782 -0.08985807 0.008826745 -0.004679154
0002d0 80 fa 4d 3e 5e 2d 35 3e 52 1b 3b be 14 ba 22 be
       0.2011509 0.17693087 -0.1827214 -0.15891296
0002e0 6c 23 57 3e 3f 46 d4 3d eb 93 91 bd 5a 5c 5d 3d
       0.21009606 0.10364961 -0.07108291 0.05404315
0002f0 b4 9d 6b 3e e9 d7 ac bd 52 67 67 be bb 6b 36 be
       0.23009378 -0.08439619 -0.22598007 -0.17814533
000300 cd 45 e1 3d a4 0a 5f 3e e1 fd 22 be e6 61 74 bb
       0.109996416 0.21781403 -0.1591716 -0.0037289797
000310 29 ed d5 bd e6 93 06 be a0 ef 46 3e ab ce 4d 3d
       -0.10445625 -0.13142356 0.19427347 0.050245922
000320 2d 17 29 be d6 89 a1 ba 5f 35 70 3e e1 eb 6a 3c
       -0.16512747 -0.0012324404 0.2345786 0.0143384645
000330 13 78 cf bd 65 96 05 be 0b f8 50 be 11 88 07 3e
       -0.10130324 -0.13045652 -0.20407121 0.13235499
000340 e6 d7 1c 3e b2 fe c4 bd 5d aa c5 3d 01 cd 5b 3e
       0.15316734 -0.09618892 0.09651635 0.21464922
000350 ed d5 8e 3d 7f 4b a9 bd 87 8b 45 be 59 0e 1c bd
       0.06974397 -0.08266353 -0.19291507 -0.03809962
000360 d5 e5 7c 3e 77 2d 38 3e 39 ad 34 3c 49 d6 65 bd
       0.24697049 0.17986093 0.011027628 -0.05611256
000370 a5 d5 4b 3d ef 1b 29 be ff 97 61 be ed d9 29 be
       0.049764294 -0.16514562 -0.22030638 -0.16587038
000380 48 ce 67 3e 7c 35 79 3e 03 e2 20 be d4 77 3a bd
       0.22637284 0.24336809 -0.15711217 -0.045524433
000390 45 a6 66 be a2 c3 29 bc 4f b5 b1 3d 09 94 1d bd
       -0.22524364 -0.010361584 0.0867716 -0.038471255
0003a0 5c 7e 0e be 2e 3b 64 bd 7f 64 cf 3d 11 0e 71 bd
       -0.1391539 -0.0557205 0.1012659 -0.058851305
0003b0 d2 cb 19 3e b2 c6 19 be b9 0c 37 3e 3b 8c c6 bd
       0.15019158 -0.15017202 0.17875947 -0.096947156
0003c0 4b 7a 67 be af 7a d2 3d 2b e0 64 bd c0 94 a3 b8
       -0.22605245 0.10277306 -0.055877846 -7.8001525e-05
0003d0 9f 3f 6b 3d e2 2e 3e 3e 83 45 70 bc 2c d6 53 be
       0.05743372 0.18572572 -0.01466501 -0.20687169
0003e0 f6 ac 9c bd 0c 25 76 be 0d 71 3c be b7 1e 77 be
       -0.07650177 -0.2403757 -0.184025 -0.2413281
0003f0 a9 2e 5e 3d c4 bb 34 3e 10 f7 b7 3d 96 61 35 bd
       0.054243717 0.17649752 0.0898267 -0.04428252

weight f4 [16]
000000 d2 5c 7f 3f b2 88 7e 3f e4 b2 7d 3f f2 56 7f 3f
       0.9975101 0.9942733 0.9910109 0.99742043
000010 35 24 80 3f 08 09 7f 3f e2 30 7f 3f 70 73 7f 3f
       1.001105 0.99623156 0.99683964 0.9978552
000020 2b a5 7e 3f 2d 8f 7f 3f 0b eb 7e 3f 8b bb 7e 3f
       0.99470776 0.99827844 0.995774 0.9950492
000030 e4 cf 7e 3f 43 34 7f 3f 3f 8b 7e 3f 02 5c 7e 3f
       0.99535966 0.9968912 0.9943122 0.9935914

bias f4 [16]
000000 10 0b c9 b9 2c 77 d5 bb 71 63 82 bc 76 ac ad bb
       -0.0003834595 -0.0065144505 -0.015916558 -0.0053001
000010 5b cd 89 bb d7 df 38 ba 3c 07 ad bb 1b 0a 94 bb
       -0.0042053885 -0.00070523977 -0.0052804034 -0.004517806
000020 16 47 1a bb 1b af c3 ba c4 36 83 bb d4 5e 02 bc
       -0.0023540906 -0.0014929505 -0.0040043313 -0.007957179
000030 fb b9 b1 bb 04 4c b5 bb 16 9c 11 bc 19 54 b4 bb
       -0.005423782 -0.0055327434 -0.008887311 -0.0055031893

running_mean f4 [16]
000000 1e 33 0f bd c5 d7 8f bb 02 fb 22 3d 1c 49 e1 3a
       -0.03496086 -0.0043897354 0.03979016 0.0017187926
000010 00 3b ae 3d 88 a3 d7 bb b4 34 e5 3c e7 e2 60 3d
       0.08507347 -0.0065807737 0.027979232 0.05490389
000020 77 48 02 bd 6a d4 d0 bc 86 c5 0f bc 60 c1 0c bd
       -0.03180739 -0.025491912 -0.008775121 -0.034364104
000030 c4 1d 03 3d 6e 81 46 bd a2 7f 12 bc 8f 85 96 bc
       0.03201081 -0.048463278 -0.008941563 -0.018374233

running_var f4 [16]
000000 16 ae e5 3d 3d 82 32 3d 1a dd d6 3d da fa ed 3d
       0.11214845 0.043581236 0.104913905 0.11620112
000010 75 08 0a 3e 12 b2 ad 3d ef 01 b2 3d a0 3c f4 3d
       0.13479789 0.0848123 0.08691775 0.11925626
000020 f3 17 74 3d b5 5d 06 3e 19 1e a5 3d 9c 7f ff 3d
       0.059593152 0.13121684 0.08062381 0.124755114
000030 54 6a e0 3d 58 44 89 3d af 97 f1 3d c8 87 0e 3e
       0.109577805 0.06702489 0.117965095 0.13918984

weight f4 [3, 1520]
000000 16 c5 af 3c 55 98 d1 3b 62 82 72 3c b9 3b d4 3a
       0.021456283 0.006396333 0.0148015935 0.0016192115
000010 7f b2 8f 3b 0a ed b3 3b d7 b2 99 3b 8c 0b 2b 3c
       0.004385292 0.0054909037 0.004690509 0.010439765
000020 d1 f8 85 3c 2e 4d cb bb 54 77 92 3c f4 4a 0c 3b
       0.016353996 -0.006204269 0.017879166 0.002140698
000030 e2 ab ba 3c ca 93 87 3c 3a 01 8c bc ab f5 e5 3c
       0.022787038 0.016549964 -0.017090429 0.028071245
000040 3c 13 bf 3b 89 e8 d2 3c 4c 05 a6 bc 6d f5 e9 3a
       0.0058311503 0.025745647 -0.020266198 0.0017849632
000050 a7 84 c1 bc e1 ff 87 bc 45 2b 10 3c 40 8b 7d bc
       -0.023622824 -0.016601505 0.008799379 -0.015475094
000060 77 5f 67 3c 24 25 e7 3c 51 c6 9f 3c 14 fa 27 bb
       0.014121882 0.028215952 0.019503744 -0.0025631236
000070 d9 13 f3 bb 80 e2 7c 3c 5d ff ff 3c f9 f5 87 3c
       -0.0074181375 0.015434861 0.031249696 0.016596781
000080 be ce 54 3c 29 b6 01 3c 97 f2 72 3a d9 54 be 3c
       0.012988744 0.0079169655 0.0009267716 0.023233818
000090 8e ef f5 3c 75 68 9b 3a 34 4b 74 3c cd b6 9d 3c
       0.030021455 0.0011856692 0.014910508 0.019252205
0000a0 51 35 72 3c 0f 6e 72 3a 39 d1 92 bc 6d 5e 95 bc
       0.014783219 0.00092479674 -0.01792203 -0.018233502
0000b0 60 40 4d 3a 5d 03 29 bc a2 17 c3 bb 95 06 df 3b
       0.0007829722 -0.010315743 -0.005953745 0.0068062046
0000c0 34 e5 b9 bb 0c a5 62 bc b0 2d de bb 6f 85 06 3c
       -0.005673075 -0.013833296 -0.0067803487 0.008210524
0000d0 72 33 ce bb 40 97 9f 3b 3c ce 38 bc 9c 95 7b bc
       -0.006292754 0.0048703253 -0.011279639 -0.015355494
0000e0 18 af cf bb 46 3e a6 3c b0 f0 a0 3c f7 4e a7 3b
       -0.0063380115 0.020293366 0.019646019 0.005105849
0000f0 53 1f c4 bc 1f 90 fd 3b 24 0c 06 3c 4f 35 ff bb
       -0.023940718 0.007738128 0.0081816055 -0.0077883373
000100 e5 8d 92 bc d0 1e 2c bc b7 dc b7 3c c9 de b6 3c
       -0.017889926 -0.010505393 0.022444112 0.02232303
000110 16 f0 e7 3b eb 7b 43 3c fa 2e b2 bb 7b 0c d2 3b
       0.007078181 0.0119314 -0.005437729 0.006410179
000120 bb 6c d1 bb 47 88 c6 3b f1 8e 2e 3c 63 6f 10 bc
       -0.0063911355 0.006058726 0.010654197 -0.008815619
000130 28 06 8a 3c 36 33 62 3c a8 37 1d 3c 11 c3 94 3c
       0.016848639 0.013806155 0.009595789 0.018159421
000140 76 78 b5 3c b0 2e ce bc cb eb 76 3c 31 a3 bd 3c
       0.022152167 -0.025168747 0.015070866 0.023149105
000150 cd 02 ae bc 1a 78 64 3a 35 80 67 bc 9c 3d 00 bd
       -0.02124157 0.00087154063 -0.014129688 -0.031308755
000160 fb f1 96 3c 2b 0a 91 bc 3a c8 7f 3c a1 5f bc ba
       0.018425932 -0.017705044 0.015611703 -0.0014371761
000170 1d 4c bf bc 70 79 19 3d d1 50 17 bc 62 34 f8 bc
       -0.023351723 0.037469327 -0.009235577 -0.030298416
000180 f0 bb 83 39 82 67 01 3d 6f ca 57 bc 57 16 b7 3a
       0.0002512629 0.031592853 -0.0131708225 0.001396845
000190 34 a6 22 3b 30 fd b5 bb 56 e6 cd 3c 26 ef 01 3c
       0.0024818303 -0.005553864 0.025134247 0.007930553
0001a0 2c 74 a0 bc 53 ea 63 bb de 9c 8f ba b5 fb 84 bb
       -0.019586645 -0.003477712 -0.0010956784 -0.004058326
0001b0 3b a4 a6 bc 71 48 60 bc 9d 9b d3 3c c5 7a 9e 3c
       -0.020341983 -0.013689146 0.025831038 0.01934565
0001c0 6c 7a 9d bc 8f 13 5f 3c a1 73 e4 3c 6e 93 b0 3a
       -0.019223414 0.013615503 0.027887167 0.0013471672
0001d0 24 a6 1f 3c 52 12 89 bc 58 5d 06 3b ed f3 82 bb
       0.009744201 -0.016732369 0.0020502415 -0.0039963634
0001e0 da bc b9 3c 89 83 9d bc 72 89 29 3c c0 5c 37 3c
       0.02267306 -0.01922776 0.010347711 0.011191547
0001f0 64 0b 9d 3c b0 56 d0 bc 68 1f 8b bc af b7 b7 bc
       0.01917047 -0.02543196 -0.01698275 -0.022426454
000200 5e a9 a3 3c 8c 01 6b 3c 04 59 07 3b cf 71 b4 3c
       0.019978222 0.0143436305 0.0020652423 0.022026924
000210 28 ea 78 ba 98 c0 1d bc 17 6d 06 bc 52 04 c8 bc
       -0.0009495341 -0.009628437 -0.00820472 -0.024416123
000220 ea 9e e4 ba c9 87 4c 3c 26 8a 9b bc 6c a4 59 3c
       -0.001744238 0.012483546 -0.018986773 0.01328383
000230 60 f3 50 38 83 2f c8 bc ed fb 73 bb 97 fc 80 3b
       4.9817725e-05 -0.024436718 -0.0037229017 0.003936361
000240 a0 ba ed 3b f3 e6 04 bb f1 d5 1f 3c a7 08 ea 3b
       0.0072549134 -0.0020279258 0.009755597 0.0071421447
000250 60 b7 39 3b de 95 88 bc 06 cb 64 3b 1a 92 94 3b
       0.002833806 -0.016673025 0.003491105 0.004534018
000260 b1 19 b1 bb 4c 7a cc 3c e1 90 a7 3b 4c bd d6 bb
       -0.005404674 0.02496066 0.0051137065 -0.0065533277
000270 72 7a e8 bb 29 94 18 bc d1 dc 4e 3c b4 de fe b9
       -0.0070946747 -0.009312668 0.012625889 -0.00048612582
000280 f2 e8 39 3c 38 74 21 bc 78 b1 f7 bb 16 d2 20 bc
       0.011347042 -0.009854369 -0.0075589977 -0.009815713
000290 55 a8 b4 3a 4a 4a b5 3c 64 07 e4 bb fe e2 14 ba
       0.0013783077 0.02213015 -0.006958889 -0.00056795764
0002a0 68 b9 7a bc 29 1f 5f 3c 6f 18 57 3c 43 71 24 3b
       -0.015302993 0.013618269 0.013128384 0.0025091923
0002b0 39 3a 19 bc dc db 2d bc db 42 2b 3c fd 82 99 3c
       -0.00935226 -0.010611501 0.010452951 0.018739218
0002c0 8d 50 65 bc 5a 77 1d bc aa f9 d8 bb b0 51 63 3c
       -0.013996256 -0.009610975 -0.006621559 0.013874456
0002d0 17 73 86 3c c2 7b 06 3c dc 62 93 3c 9b ec 16 3c
       0.016412301 0.008208217 0.017991476 0.009211685
0002e0 e5 2d 5f 3c 9e 56 ea bc ac ff 6f 3c 04 18 6d 3c
       0.013621782 -0.028605755 0.014648359 0.014471058
0002f0 f2 97 29 bc 88 b8 35 bb f9 2e 91 bc ab ea 8c 3c
       -0.010351168 -0.0027728397 -0.017722594 0.017201742
000300 63 0c b0 3c 68 ef b0 3b 2b 2a 76 bb dc 07 c5 bc
       0.021490281 0.005399633 -0.0037561755 -0.0240516
000310 5e 6a 9c 3b 2d 67 e1 bb f4 c4 99 b9 98 d0 5f bc
       0.004773422 -0.0068787546 -0.00029329176 -0.0136605725
000320 44 d6 0a bb d8 8b 3b bc a4 a5 aa 3c 5a 0e c5 bb
       -0.0021184841 -0.011446916 0.020830937 -0.0060136737
000330 4d 28 7d bc 1c 60 64 bc a3 02 85 3b 3a 2e b8 bc
       -0.015451503 -0.01393893 0.004059152 -0.02248298
000340 bc c5 f4 3c 83 ec 15 bc 4e 09 92 3b e4 19 42 3c
       0.029879443 -0.009150627 0.0044566756 0.011846993
000350 39 d4 cb 3b 4f 52 18 3b 19 37 8b bc a4 80 a7 3a
       0.0062203673 0.002324242 -0.016994046 0.0012779427
000360 17 7f 42 bc 78 db db bc 17 88 86 3b 57 4d 42 bc
       -0.011871121 -0.02683805 0.0041055786 -0.01185926
000370 0f ef 97 3c 37 68 c7 ba 96 af 45 bb 37 25 94 3c
       0.01854661 -0.0015213554 -0.0030164472 0.018084152
000380 1f 84 1b 3c b5 ac 07 3c e3 6d 2a 3a ec bb 41 bc
       0.009491949 0.008280923 0.000650136 -0.011824589
000390 2f 80 66 3c ae 6c 06 3c f4 8b 0c 3b 97 53 6a 3c
       0.014068647 0.008204622 0.0021445723 0.014302156
0003a0 80 44 9f bb 80 a0 df 3b 64 5d d7 39 2b a7 82 bc
       -0.0048604608 0.006824553 0.00041077577 -0.015948853
0003b0 56 6e a0 3b 6a 6c 9b bb b4 f4 cf bc 5b 0b 5c bb
       0.0048959656 -0.0047431486 -0.025385238 -0.0033576104
0003c0 a4 3f e6 ba 16 42 8d 3c 7b 1e 38 bc 71 c6 ab ba
       -0.0017566574 0.017243426 -0.011237736 -0.0013105405
0003d0 23 a2 27 3c 66 12 67 3c b6 94 89 bb de c4 4a bb
       0.0102315275 0.014103508 -0.004198636 -0.0030940096
0003e0 ea ad 9a 3b 37 0e c1 bc e5 86 43 bc f5 c1 98 bc
       0.004720439 -0.023566348 -0.011934017 -0.018647173
0003f0 aa 44 47 3b f0 20 9c bc 16 f7 55 bc 7b 9e 34 bc
       0.0030405917 -0.019058675 -0.013059398 -0.011024113

bias f4 [3]
000000 7e 19 84 bb ec 5a c2 3a 8c 2e bf bc
       -0.004031359 0.0014828122 -0.023337625
