mi/Algorithm/impl/eegnet_model/model_3_2.pkl (torch, 32724 bytes, 18 tensors)

weight f4 [8, 1, 1, 64]
000000 42 c9 22 bd 76 8f 9a bc b8 21 f2 bd 0f 97 8b bd
       -0.039742716 -0.018867236 -0.118228376 -0.068159215
000010 9a 55 95 3d 83 c1 5c bd c5 2a 8a 3d 22 12 55 bd
       0.07291718 -0.053895485 0.06746439 -0.052019246
000020 e5 f0 39 3c 46 33 f2 bd d8 c2 c9 bd b5 99 be bd
       0.011348938 -0.11826186 -0.098516166 -0.09306661
000030 1b fa 6b 3d fc b2 d2 ba 2e 69 c9 3d 14 98 2b bb
       0.057611566 -0.001607507 0.098345146 -0.0026183175
000040 c0 be c6 3d f5 90 12 bd 50 18 4c bc 23 9a 2e 3c
       0.097043514 -0.035782773 -0.012456968 0.010656866
000050 81 ed 67 3d 3b b8 e9 3d a5 18 1e 3d 28 7e c6 bd
       0.056622986 0.11412092 0.03859772 -0.09692031
000060 ef 5a ef bd 1a a9 3d 3d 3b c2 da ba db 91 5d bd
       -0.11687266 0.046303846 -0.0016689965 -0.054094177
000070 fa 98 71 bb 51 30 65 3d d3 53 b6 bd df 9f df 3d
       -0.0036864863 0.05595428 -0.08902707 0.10919165
000080 8c 41 32 bd a9 55 13 3d 75 5d 83 3d 67 63 2e 3d
       -0.04351954 0.035970364 0.0641431 0.042575266
000090 65 ad 9b bd fc a9 64 bd bb 96 97 3c bc ed b0 bd
       -0.07601432 -0.055826172 0.018504491 -0.08639094
0000a0 2f dd ad bd 63 a1 e2 bc 97 5c b7 bd c0 21 de bc
       -0.08489453 -0.027664846 -0.08953207 -0.027115703
0000b0 3d 6d 30 bd 6d ed 89 3d a0 31 2b bd 4c a7 16 3d
       -0.043072928 0.067347385 -0.041795373 0.03678064
0000c0 9b 08 12 bd ee 8d b5 3d 78 d0 af bd b7 b2 a9 3d
       -0.035652738 0.088649616 -0.08584684 0.0828604
0000d0 4e 42 85 bd c0 67 16 3c 3a 3e fc bb 48 4d e7 3d
       -0.06506787 0.009180009 -0.0076978477 0.11294037
0000e0 0d 5e 4e bd 92 6d 27 bc be 11 25 3b 01 b6 76 3c
       -0.050382663 -0.010218995 0.0025187577 0.015058042
0000f0 86 b4 f4 3d 4b a1 38 bd ed 8e b0 3d e0 37 cb bd
       0.119484946 -0.045075696 0.08621011 -0.09922767
000100 f6 ac 4d 3b 9d 39 0f bc 0b d3 97 3d f4 16 21 3c
       0.003138361 -0.008741763 0.074133 0.009832133
000110 4f c6 95 3d f9 5c ec bc a8 39 bb bd 46 16 36 3b
       0.07313215 -0.028852927 -0.091418564 0.0027784272
000120 9a 5b 80 bd e5 c9 4a bc 0c f2 19 3d 06 02 b8 3d
       -0.062674716 -0.012377237 0.03758435 0.08984761
000130 ee 65 92 bd 3e ff fb 3d 87 22 fd bc a3 df 81 3d
       -0.07148348 0.12304543 -0.030900253 0.063414834
000140 70 37 f0 3d 7f ff b7 3d 5d ae cc 3d 14 07 58 bd
       0.11729324 0.08984279 0.09994195 -0.052741125
000150 ee e9 af 3d c4 49 7d 3d 63 51 43 3c b7 b8 e9 bc
       0.085895404 0.061837927 0.01192126 -0.028530462
000160 72 34 b1 3d b7 f3 11 3d f7 d5 ba 3d 91 51 4d bd
       0.08652581 0.035632815 0.09122842 -0.050126616
000170 8b db 1f 3d 5c bb 89 bd b2 f0 c9 bd 34 b9 40 bd
       0.039027732 -0.06725189 -0.09860362 -0.047051623
000180 3a c6 e5 ba fc 0b e7 3d 71 53 8e 3d d0 61 dc 3d
       -0.001753039 0.11281583 0.06949509 0.10760844
000190 1e 4a d2 3d 39 3d 82 3d cb 63 dc bd ff da f2 3d
       0.10268043 0.063593335 -0.107612215 0.118581764
0001a0 02 1b fd 3c 08 18 a0 3d c6 43 d0 3c f8 c9 4b bd
       0.030896667 0.078170836 0.025422942 -0.04975316
0001b0 6a 87 ea bd 40 20 ff 3c 4e fb 0a 3c 16 4b fc 3c
       -0.114516094 0.031143308 0.008482767 0.030797523
0001c0 bd 4a 58 3c e7 a4 1e 3b d3 9f 90 bd 2d 9a 79 bb
       0.013201413 0.0024207176 -0.07061734 -0.003808628
0001d0 84 3f f6 3d 98 bd 99 3d 83 6a c4 bd 66 32 8a bd
       0.120238334 0.07506865 -0.09590628 -0.06747894
0001e0 52 a4 48 bd d8 b6 51 bd 20 e6 27 3d b2 ff bf 3d
       -0.048984833 -0.051199764 0.04099095 0.09374942
0001f0 c4 7f 45 bd d5 bc 57 bd 9e e0 23 bd 40 b5 93 bc
       -0.04821755 -0.05267032 -0.040009134 -0.018030763
000200 bb fb 90 bd 12 10 dc bd ab 87 e7 bd 6f a7 45 3d
       -0.07079264 -0.10745253 -0.113051735 0.04825538
000210 8d 9f 95 bd db f6 07 bd 2e 5d 99 b9 a3 c7 89 bc
       -0.073058225 -0.033194404 -0.00029251858 -0.016818827
000220 ae 04 39 bd 18 20 9c bc 0c 0c 5d 3d 36 93 8f b9
       -0.04517048 -0.019058272 0.053966567 -0.00027384766
000230 a8 8d f2 3d e6 c8 cc 3d be a0 82 3d 0d 5b 8a bc
       0.11843425 0.09999256 0.063783154 -0.01688912
000240 48 d1 9a 3d 8d f5 fd 3c 47 a2 0a 3d 54 a3 e5 3d
       0.075594485 0.031000877 0.033846166 0.11212793
000250 69 86 d9 3d 87 f7 fb bd 0a cd ab bd 77 93 91 3d
       0.1062134 -0.123030715 -0.083887175 0.07108205
000260 b6 e4 24 bd be 1e 1d bd d8 d3 9e bd 4d 26 fa 3d
       -0.04025718 -0.038359396 -0.0775525 0.122143365
000270 2b be ef bd f6 37 c0 3d d5 42 7f bc 2f bd c4 bd
       -0.117061935 0.09385674 -0.015579899 -0.096063964
000280 fd d3 8d bd 64 54 e1 bd 50 88 04 bd fa e5 8a bd
       -0.06925199 -0.11002424 -0.03235656 -0.06782146
000290 4b 7a d7 3d c3 17 14 3c 4c 89 bd bb 5b 13 b2 3d
       0.105213724 0.009038868 -0.0057841893 0.08695098
0002a0 aa 3e b0 3d 8a da 00 bd 32 a4 07 3d 5e aa 6b 3d
       0.08605702 -0.031458415 0.033115573 0.05753552
0002b0 30 4c 79 3d 32 4d 7d 3d 14 7d 19 bd 11 a8 2a bd
       0.060863674 0.061841197 -0.0374728 -0.041664187
0002c0 97 3c f9 3d be ad da 3d 48 7d fd 3d 06 0a 6d 3c
       0.1216976 0.1067767 0.12377411 0.014467722
0002d0 27 0f d8 3d 38 f2 9f bd 84 bc b7 bc 1c 3f b2 bd
       0.10549765 -0.078098714 -0.022428758 -0.087034434
0002e0 a4 3a d2 3d 2b 63 bd 3d a1 f7 40 bd 69 4b c3 bc
       0.10265091 0.092474304 -0.047111157 -0.02383967
0002f0 5d 7f aa 3d 23 93 04 be b8 4d c3 bd 12 05 94 3d
       0.08325074 -0.12946753 -0.09536308 0.072275296
000300 82 e7 a6 bd d7 9a 10 3e 3f 96 70 bc b5 88 19 bd
       -0.08149625 0.14121567 -0.014684259 -0.03748389
000310 1b 84 38 bd db 2d 6e bc 2b 14 cd bd 6f b8 d8 3d
       -0.04504786 -0.0145373 -0.10013612 0.10582053
000320 73 b1 ba 3c ca 46 47 3c c7 dc b0 bd c9 df 2f bd
       0.022789693 0.0121628735 -0.0863586 -0.042938028
000330 44 0a 41 bd 7c 19 01 3c 5e b4 f2 bc 25 4e c9 3d
       -0.04712893 0.007879611 -0.029627021 0.09829358
000340 08 84 a3 bd eb 39 ea 3d da df 04 3e 4c f8 e1 3b
       -0.07984167 0.11436828 0.12976018 0.0068960544
000350 2a d1 8b bd 72 a0 a0 bd 91 68 80 bb 50 05 8d 3c
       -0.06827004 -0.078431025 -0.0039187153 0.017214447
000360 c7 87 c9 3d 88 88 5d 3d db 7c c2 bd 16 d8 18 3b
       0.098403506 0.054085284 -0.094964705 0.0023322157
000370 f8 ff ec bc a3 3a 5d 3d 17 d3 b8 3c 09 6e d1 bc
       -0.02893065 0.054011 0.022561593 -0.025565164
000380 27 c7 8e bd 92 e9 f0 bd 20 3d 96 3d f1 ce 5b 3d
       -0.06971579 -0.117633 0.073358774 0.05366415
000390 a8 8f ba 3d aa 32 ae 3a 15 43 d9 3d c5 8c 83 3d
       0.091094315 0.0013290246 0.10608498 0.06423334
0003a0 9f cf ea bd 16 e6 de bc 4e 8e 51 3d 7f a1 02 3e
       -0.11465382 -0.027209323 0.051161103 0.12756918
0003b0 cb a9 f5 3c 50 4d 23 3d a8 01 59 3d 27 21 98 3d
       0.02998819 0.039868653 0.052980095 0.07428198
0003c0 17 a5 da bd fe 5b e0 bc ed 8b b5 bd 81 fc 67 bd
       -0.1067602 -0.027387615 -0.08864579 -0.05663729
0003d0 b2 57 b9 bc 4f f3 a7 3b d1 91 cb ba 70 b6 45 bc
       -0.022624824 0.00512544 -0.0015531128 -0.012067422
0003e0 78 1d 8a bd 16 da 39 3d 92 69 43 bc 00 3f f3 3d
       -0.06743902 0.045374 -0.011927025 0.11877251
0003f0 ae e6 49 3d 32 45 c6 3d 6b 31 d8 3d 5e 4b af bd
       0.04929226 0.09681167 0.10556301 -0.08559297

weight f4 [8]
000000 1c 00 80 3f fd ff 7f 3f ff ff 7f 3f f2 ff 7f 3f
       1.0000033 0.9999998 0.99999994 0.99999917
000010 15 00 80 3f f8 ff 7f 3f 01 00 80 3f ff ff 7f 3f
       1.0000025 0.9999995 1.0000001 0.99999994

bias f4 [8]
000000 15 97 49 31 e3 fa 08 b2 67 06 8e 31 0a 57 0e 31
       2.933523e-09 -7.973287e-09 4.133472e-09 2.0713196e-09
000010 16 3e 21 b2 29 b4 93 b2 e8 32 9b 2e 7a b4 cc b2
       -9.38555e-09 -1.719498e-08 7.057627e-11 -2.3830797e-08

running_mean f4 [8]
000000 d5 c6 63 3a 4a e8 e8 ba d6 40 46 ba b2 17 46 ba
       0.0008688991 -0.0017769423 -0.0007562762 -0.00075566315
000010 3d 6b 22 ba 03 d5 1b b9 e4 96 4b b6 fc 9c f9 ba
       -0.00061957893 -0.00014861305 -3.0337187e-06 -0.0019043977

running_var f4 [8]
000000 a9 a5 95 39 d7 d9 8d 3a 2d ef 6a 39 0c e6 7c 39
       0.0002854292 0.0010822368 0.00022405079 0.00024118292
000010 72 7f 29 39 25 22 90 38 73 82 08 38 31 54 a5 3a
       0.00016164573 6.872815e-05 3.2546417e-05 0.0012613592

weight f4 [16, 1, 64, 1]
000000 06 de 4d bd 7b 9a 43 3b 14 71 94 3d 61 66 60 3d
       -0.050260566 0.0029846716 0.072481304 0.054785136
000010 e8 6c 47 bd 98 ab 2a bd 8b d5 6b 3d b1 9c 8b bd
       -0.048687845 -0.04166755 0.057576697 -0.06816996
000020 18 ec f0 bc 22 92 ec bd 9b b6 f8 ba 64 2b 2e 3d
       -0.029409453 -0.1155131 -0.0018975319 0.04252185
000030 90 33 46 3d ae f4 7a 3c ca d3 ee 3d 39 6d e3 bd
       0.048389018 0.015317125 0.11661489 -0.11104817
000040 6e 1c 0c bd 4e 94 98 3d d5 fd 72 bc 25 f4 81 bd
       -0.0342068 0.07450162 -0.014831026 -0.06345395
000050 f9 47 9e bd ff 07 a8 3d 6b 15 08 3d 7b 6d 27 bd
       -0.077285714 0.0820465 0.03322355 -0.040875893
000060 6c 62 17 bd 58 ff 5b bd 68 0a 40 bd 78 0a 9c bd
       -0.036959097 -0.05371031 -0.046884924 -0.07619184
000070 c7 c1 d7 bd c5 f0 99 3c 73 d8 b5 bd 55 34 eb bd
       -0.10535007 0.018791566 -0.08879175 -0.11484591
000080 08 1a f1 3c f6 04 8c 3d bc e2 78 3d 1c 91 df 3d
       0.029431358 0.06836884 0.060763106 0.10916349
000090 92 85 95 bd 17 ef c2 3d fd 4b c3 3d fa ef e2 bd
       -0.07300867 0.09518259 0.09535978 -0.11080928
0000a0 5a 92 f1 bc a9 4a 60 bc c1 cf 12 bc 1d 76 5f 3c
       -0.029488731 -0.013689675 -0.008960665 0.013639
0000b0 48 45 8a bc e4 e2 04 bd f2 73 9d bd e5 8c bc 3b
       -0.016878739 -0.032442942 -0.076881304 0.0057541006
0000c0 1d cc ae 3d 24 bc 70 3c a2 a1 9c bd 89 b8 d0 bd
       0.08535025 0.014693294 -0.076480165 -0.10191447
0000d0 f1 e4 f6 3d ad 7b 8f 3d 18 05 26 3d de bc 51 bd
       0.12055386 0.07006011 0.0405322 -0.05120551
0000e0 83 08 a1 bd 43 51 72 3d dd f9 cf 3d c1 89 79 bd
       -0.078629516 0.05915953 0.101550795 -0.060922388
0000f0 ee 33 df bd 66 a3 f9 bc 9c 29 45 bd 65 6d ed bd
       -0.10898577 -0.030473422 -0.048135385 -0.11593131
000100 62 b1 44 bd f2 f0 9a 3d f4 42 ce 3d b0 cf 65 bd
       -0.048020728 0.07565488 0.10071364 -0.05610627
000110 4e 6d e7 3d 4d 94 d7 bd a7 0b f1 3d fe b5 81 3d
       0.11300145 -0.10526333 0.11769801 0.063335404
000120 09 fb 85 bd 36 1a c1 bc d4 6d 7e bd 90 8a a6 36
       -0.06542022 -0.023572069 -0.06211646 4.9633163e-06
000130 ff 05 aa 3d 9e f7 bb bd 7a 3c 8c bd fb 39 83 bd
       0.08301925 -0.091780886 -0.068474725 -0.06407543
000140 ad a3 96 3d 47 73 73 3d aa c7 f9 3d 9e 1f e6 bd
       0.073554374 0.05943611 0.12196286 -0.11236499
000150 d1 84 09 3d 4b 19 98 bb cc 4a 02 3d 8f 0f cf 3d
       0.03357393 -0.004641687 0.031809613 0.101103894
000160 bf 93 4d 3d 6a 4b 62 bd 53 a2 79 bd f0 53 d8 3d
       0.05018973 -0.0552477 -0.06094582 0.10562885
000170 80 4a 1c 3d 55 ad 12 bc 86 2b 67 3d 2a fa d8 bd
       0.038156986 -0.008952458 0.05643799 -0.1059459
000180 e1 05 0c 3c b8 fa 60 bc a5 f1 cd 3d 27 89 33 3d
       0.0085463235 -0.013731651 0.10055856 0.04383197
000190 bd 73 b7 3d f2 7a 98 bd 64 c4 d6 3d 2a 83 c6 3d
       0.08957622 -0.07445325 0.10486677 0.09692986
0001a0 48 0b 6c bd d3 59 cb 3d e1 bf f8 3a 42 19 33 bb
       -0.057627946 0.09929242 0.0018978083 -0.0027328287
0001b0 d4 63 20 3d c2 38 00 3e 13 31 2b 3d 25 e9 47 bd
       0.039157704 0.12521651 0.041794848 -0.04880633
0001c0 3a c4 35 bd 29 5e b9 bd 47 ce 02 bd ef 70 08 3e
       -0.04437659 -0.09051163 -0.031935003 0.13324331
0001d0 d5 60 6a bd 26 bd 3e 3c c2 52 a5 bc 83 ae db 3d
       -0.057221252 0.011641776 -0.020181064 0.10726645
0001e0 0c cd 6f 3c 42 07 dd bd 85 a7 a3 bd 7b cb fc 3c
       0.014636289 -0.107924 -0.07990936 0.030858746
0001f0 fa 3f 71 3d 18 4b 09 bd 1b ad e1 bd 05 ba b8 3d
       0.058898903 -0.03351888 -0.110193454 0.090198554
000200 be 9c 67 3d 2e 9f 5e bd 3b 25 b4 3d 7d f6 6d 3d
       0.056545965 -0.054351024 0.08796164 0.058096398
000210 b1 b5 e4 bd 13 7f e1 3d 63 e8 a6 bd 5f 17 92 bd
       -0.111674674 0.110105656 -0.08149793 -0.07133364
000220 d5 16 19 3d 73 e2 61 bd d7 cf 91 bd ff fa 6d 3d
       0.03737529 -0.0551476 -0.071197204 0.058100697
000230 8c d4 3b bd 6c ef e2 3d 1e 44 fe 3d 8b 0d 84 3d
       -0.045856997 0.11080822 0.12415336 0.064478956
000240 01 01 84 bd 1a af 87 bd f6 8e f0 3d e4 7f d6 3b
       -0.06445504 -0.06625195 0.11746018 0.0065460075
000250 27 83 c3 3d 64 80 b5 bd 89 9b db 3c f4 3c 26 3d
       0.095465 -0.08862379 0.026807563 0.040585473
000260 26 f0 d3 bd b0 97 dd 3c e5 b9 05 3c e8 f1 a4 3d
       -0.10348539 0.02704987 0.0081619965 0.080539525
000270 a9 28 78 bd 96 23 a9 bd 53 a1 92 3d ba 75 71 3d
       -0.06058565 -0.082587406 0.071596764 0.058950163
000280 1e b6 f0 bd 55 03 d3 bc 29 24 de bc 4c 3d 71 bd
       -0.11753486 -0.025758425 -0.027116852 -0.058896348
000290 b5 28 bf 3d 6d 40 1c bd c0 9d ef bd 58 18 88 3d
       0.09333936 -0.03814738 -0.1170001 0.06645268
0002a0 ab ec 49 3c a2 0f 92 3d 09 0e 12 3d bc 68 5b 3d
       0.012324492 0.07131888 0.035657916 0.05356668
0002b0 57 cb ef bd d6 23 f0 bd 47 7c 3b 3d ab d8 4a bc
       -0.11708706 -0.11725585 0.045772817 -0.012380759
0002c0 06 8e b2 3d e2 0e 64 3c f6 db 09 3c 8c 0a 42 3d
       0.08718495 0.013919564 0.008414259 0.04737334
0002d0 0f 07 ec bd 15 47 8b bd f2 7b f3 bc 1d cb ce bd
       -0.11524784 -0.06800667 -0.029722188 -0.100973345
0002e0 81 52 1d 3d 45 03 23 bc 7e c5 db bd 66 a1 8c bd
       0.03840876 -0.00994951 -0.10731028 -0.06866722
0002f0 5c 56 0e bc 9d 66 4b 3d bf 22 3c bd 69 97 d3 3d
       -0.008687582 0.049658407 -0.045931574 0.103316136
000300 d8 38 ec 3d f3 de 8c 3d 9d 3f 9f bb e1 6c bb bd
       0.115342796 0.06878462 -0.004859878 -0.091516264
000310 73 45 b4 3c e9 4e 91 3d c9 e9 ed bc 5b 5a e9 3d
       0.022005772 0.07095129 -0.029042142 0.11394187
000320 69 e0 d4 bd a5 28 cd bd 32 a2 99 bd 9c 83 71 bd
       -0.10394365 -0.10017518 -0.075016394 -0.058963403
000330 5e 53 22 bd 35 e9 f9 3d 7e 8f b0 3c 99 f1 83 3d
       -0.039630286 0.12202684 0.021552797 0.064425655
000340 95 45 02 3d 31 d5 5a 3c d1 0d c0 bc da 07 d3 bd
       0.03180464 0.013356493 -0.023444088 -0.10304232
000350 6d 0d 32 ba 99 cb 07 3d 78 a8 a2 bd 8e fc d8 3d
       -0.0006792162 0.03315315 -0.07942289 0.10595046
000360 9b d6 2e 3d 05 44 04 bd 1d ee c2 3b e5 60 a3 bd
       0.042685132 -0.03229143 0.0059487955 -0.079774655
000370 6c d9 9b bc 17 cb 3e 3d bb b2 6b bc 7a b4 02 3d
       -0.019024573 0.0465804 -0.014385874 0.031910397
000380 b3 8a de 3d c7 38 66 bd 9e 26 8b 3d ec 32 e5 bd
       0.108662985 -0.05620649 0.06794475 -0.11191353
000390 1a 89 5c bd 0e a2 20 bd e1 2d 84 3c 6d af 85 3d
       -0.053841688 -0.039217047 0.016135158 0.065276004
0003a0 00 1b f1 bc d6 f8 24 3d 83 dc 6b 3d dd 0d 88 3d
       -0.02943182 0.04027637 0.057583343 0.06643269
0003b0 5a 62 73 bc 95 82 6f 3b 73 7b 88 bd 26 1e e6 bd
       -0.014854992 0.0036546339 -0.06664171 -0.11236219
0003c0 f5 3c c6 3d 7b 0c bb bd e8 5b 70 3d 22 53 dd 3c
       0.096795954 -0.0913324 0.0586814 0.02701718
0003d0 e4 e3 e7 3d 3d 56 e8 bd ad f1 0c 3d 7f 89 26 bd
       0.113227636 -0.11344574 0.034410167 -0.04065847
0003e0 a3 bc 45 bd 48 66 c7 3d 63 31 ad 3d a3 46 80 bc
       -0.0482756 0.097363055 0.084566854 -0.015658682
0003f0 62 c7 04 bd bd d3 b2 bd ba c4 94 bc f4 5a bb bd
       -0.03241671 -0.08731792 -0.018160213 -0.09148207

weight f4 [16]
000000 6b 8b 7f 3f ab 14 80 3f 6d 15 80 3f e1 71 7f 3f
       0.9982211 1.0006307 1.0006539 0.9978314
000010 14 10 80 3f b2 e3 7f 3f 89 c9 7f 3f dd ae 7f 3f
       1.0004907 0.9995681 0.99916893 0.99876195
000020 13 11 80 3f c2 47 80 3f f7 27 80 3f b3 2d 7f 3f
       1.0005211 1.0021899 1.0012196 0.99679106
000030 d5 13 80 3f 39 05 80 3f 49 e7 7f 3f 0f 2e 80 3f
       1.0006052 1.0001594 0.9996229 1.0014056

bias f4 [16]
000000 cd 3b b0 b9 55 e9 78 ba c0 fa 6a 3a 06 37 35 bb
       -0.0003361389 -0.00094952184 0.0008963756 -0.0027651205
000010 28 d1 83 3a 86 10 05 bb f8 69 b8 b7 0c 42 be 3a
       0.001005684 -0.0020304038 -2.1983855e-05 0.0014515533
000020 61 9b ea b9 4b 52 61 3a 40 26 bf 36 a2 90 2a bb
       -0.00044747724 0.00085953315 5.6966965e-06 -0.002602615
000030 d6 a6 65 39 e9 b9 87 39 32 f2 fa b8 38 59 bb 3a
       0.00021901293 0.0002588772 -0.00011966041 0.0014293557

running_mean f4 [16]
000000 be bb 57 bf ea f3 95 3d 3b 01 63 3e f0 b1 25 3f
       -0.84270847 0.073219135 0.22168438 0.64724636
000010 23 ab 46 3f 64 db 2f 3f 2f 1b c0 3e 75 8c e7 3e
       0.77604884 0.6869414 0.3752074 0.45224348
000020 88 eb da 3e 32 0d c1 3d ee ce 1f 3e 5f b6 3c 3e
       0.4275782 0.09426345 0.15606281 0.18428944
000030 30 3f 39 bb 80 b4 6d 3c d5 f0 76 3f 28 e4 1c 3f
       -0.0028266422 0.014508367 0.9646123 0.6128564

running_var f4 [16]
000000 25 1f 8b 3d 0e 8e a1 3b 5e fa 7f 3b f2 b5 6d 3c
       0.0679305 0.0049302643 0.0039059143 0.014508711
000010 c7 e3 2e 3d 39 be 1e 3d d1 8c c3 3c b3 62 90 3c
       0.042697694 0.03875563 0.023870857 0.017625188
000020 0e a1 01 3c 4e b3 b8 3c d6 2a 10 3e c6 87 1d 3e
       0.007911934 0.022546437 0.1407884 0.15383825
000030 f8 ed 6b 3d b0 83 01 3e da c5 00 3c df 67 88 3c
       0.05759999 0.12647891 0.0078596715 0.016651092

weight f4 [16, 1, 1, 16]
000000 a6 4b 70 3e ac 2e 82 3d d7 e9 4a bc 9d f3 76 3e
       0.23466358 0.06356558 -0.012384853 0.24116369
000010 4f 3b b2 3d b9 0e 63 3e 1d 3f 5d 3e 45 93 42 be
       0.087027185 0.22173585 0.21606107 -0.19001491
000020 3b 80 6f be b5 42 be bd b4 24 2c 3e 9e c9 3e 3e
       -0.2338876 -0.09290067 0.16810876 0.18631598
000030 1c 90 4c be 5c 70 13 3e 66 d1 c8 bb 0d ac de bc
       -0.19976848 0.1439833 -0.006128478 -0.02718165
000040 b5 ad c8 3d 3a 41 42 3e b1 00 fe 3d d0 4b c2 bd
       0.09798757 0.18970194 0.124024756 -0.09487116
000050 70 51 02 3d 67 61 56 be 93 d5 00 3e cf fd 1b 3e
       0.031815946 -0.20935594 0.12581472 0.15233539
000060 76 4c 45 be d2 10 3d 3e 54 50 98 bd c9 6b 49 3d
       -0.19267449 0.18463448 -0.074371964 0.049175058
000070 b8 a1 2b 3d e5 4a f6 3d b3 e1 5c be e8 ef fc bd
       0.041902274 0.12026004 -0.21570472 -0.12350446
000080 b0 79 d2 3d 95 13 92 bc 88 02 87 bd a8 1b 2a be
       0.10277116 -0.017831603 -0.0659228 -0.16612113
000090 4d f0 56 be cc 43 49 3d ce 9d 4a be ce 9d 19 3e
       -0.20990105 0.04913692 -0.1978676 0.15001604
0000a0 0b e6 6a 3d f2 01 7f 3e d0 28 76 3d bd 46 70 bd
       0.057348292 0.24903086 0.060097516 -0.05866121
0000b0 b9 72 68 be 9b 7a 62 be fb b1 f0 bd 86 43 28 be
       -0.22700013 -0.22117083 -0.11752697 -0.16432008
0000c0 2a 6e 7f be 77 1f ba bd a2 16 57 3e a9 cc 80 3c
       -0.24944368 -0.09088033 0.21004727 0.01572259
0000d0 d6 bb 47 3e 64 aa 3c 3e c6 e0 4b be 18 89 70 3e
       0.19505247 0.18424374 -0.19909963 0.23489797
0000e0 64 30 90 bb 2e cc 94 3d 2f 10 7f 3d 87 74 e0 3d
       -0.0044003 0.07265507 0.062271293 0.10959726
0000f0 b4 2b 15 be ce 9f d2 bd 55 8c 61 3e 90 55 0b be
       -0.14567453 -0.102843866 0.22026189 -0.13606858
000100 2b 58 59 bc 0f ab 6d 3d a2 f3 34 3e f9 c8 19 3e
       -0.01326565 0.058024462 0.17671064 0.15018071
000110 29 38 88 3d e6 6a 03 3d 17 50 31 3e dd de d6 3d
       0.06651337 0.03208437 0.17315708 0.104917265
000120 5c be 03 be e8 1c 12 3e bd 50 0a 3e e0 b1 e7 3d
       -0.12865585 0.1426884 0.13507362 0.11313224
000130 99 22 67 be c3 36 88 3d 9d e7 76 be 48 fe 41 bd
       -0.22571792 0.0665107 -0.24111791 -0.047361642
000140 a3 cf 70 be 80 dc 2f ba af 64 52 3e c1 de 0f 3e
       -0.23516707 -0.0006708577 0.2054622 0.14049818
000150 a2 3c 1e 3d e6 f9 42 3e de d1 05 3c fa 51 62 be
       0.038632043 0.19040641 0.008167712 -0.22101584
000160 00 f2 82 3b 1c 08 b5 3d 42 4d 22 3c 42 d0 89 3d
       0.003996134 0.08839437 0.009906115 0.06729175
000170 81 ef 39 3e da 65 07 3e 62 bf 7e bd 55 ae f7 3d
       0.1815777 0.13222447 -0.062194236 0.12093798
000180 08 55 32 3e 4a 62 b3 3d b3 ea e2 bc 3e 2d d6 bd
       0.1741525 0.087589815 -0.027699804 -0.10457848
000190 7e 19 58 be ee de 5e be 2a 4c cc 3c 93 62 38 be
       -0.21103474 -0.21764728 0.024938662 -0.18006353
0001a0 67 5c 66 3e 1e aa 2f 3e 3a b5 4f 3c 39 5f 11 be
       0.22496186 0.17154738 0.012677485 -0.14196481
0001b0 6a ac 25 be 26 ef 72 bd e7 b8 ae 3d d6 da c4 3d
       -0.16179052 -0.0593101 0.08531361 0.09612052
0001c0 b0 33 15 b8 7a da f7 3d af 8e 20 be 65 5e 04 3e
       -3.5572506e-05 0.12102218 -0.1567943 0.12926634
0001d0 83 02 45 3e 13 1c 7c be 76 b4 3d 3e c0 2e 70 be
       0.1923924 -0.24620084 0.18525872 -0.23455334
0001e0 84 be 13 be 8b de 0e be d8 9a fe bd 5f 2c 1d be
       -0.14428145 -0.13952081 -0.12431878 -0.15348957
0001f0 b4 ae c8 3d 90 73 14 3c 22 cd 73 3d 14 41 ae 3d
       0.09798947 0.009060755 0.0595218 0.085085064
000200 ed 27 50 be 8d f3 8c 3d d9 34 5c 3d f3 d8 b9 bd
       -0.2032773 0.06882391 0.053761337 -0.09074583
000210 db 85 1a 3d d9 70 b9 3d 48 44 56 be f0 97 83 bd
       0.03772531 0.09054727 -0.20924485 -0.06425464
000220 a3 3d 2f 3e 84 75 5c 3e d7 30 a5 3d 61 2c 95 3d
       0.17113356 0.21529204 0.08065956 0.07283855
000230 bd 2d 79 3e 1c 0a 1b be 6e 9a 54 bd 68 75 52 be
       0.24333854 -0.15140575 -0.051905088 -0.205526
000240 8a 02 7a 3e 58 c0 0e 3e c8 a4 2a be c4 f2 26 be
       0.24415031 0.13940561 -0.16664422 -0.16303545
000250 00 17 04 3e c2 50 cf 3d 61 21 1f 3e 37 3c 5a be
       0.12899399 0.10122825 0.15540077 -0.21312033
000260 84 75 ae bd 4d 98 af bd bd e3 58 3e 5b 13 3b be
       -0.08518508 -0.08573971 0.21180625 -0.18269102
000270 52 98 db bd fe e0 0e 3c bf 35 42 3e 04 c4 7f be
       -0.10722412 0.0087206345 0.18965815 -0.24977118
000280 69 5d 2f bb 26 9c 79 3e 36 c8 0d 3e 55 b7 3d bb
       -0.0026758558 0.24375972 0.13845906 -0.0028948386
000290 d4 46 c9 bd 56 2d 76 be 76 6a df 3d b2 cb 09 be
       -0.098279625 -0.24040732 0.10908978 -0.1345661
0002a0 76 89 26 be 95 ad 5d be d5 21 02 be a3 84 d4 bb
       -0.16263375 -0.21648248 -0.12708218 -0.006485538
0002b0 ad 0f 05 3d 02 c4 cb bc 3c 7d 60 3e 95 b0 81 bc
       0.032485653 -0.024873737 0.21922773 -0.015831271
0002c0 76 71 aa 3d 9e c6 ad 3c 63 e4 f6 bd 16 59 2c be
       0.08322422 0.021212872 -0.1205528 -0.16830859
0002d0 34 82 1c be 72 24 9c 3d 86 1b 10 be 0e 16 a1 bd
       -0.15284044 0.07624139 -0.14073 -0.07865535
0002e0 9f 71 24 3e 46 3a ea bd e9 6a c2 3d be ad 3f be
       0.16058968 -0.11436896 0.09493048 -0.18718621
0002f0 37 f0 51 3c 6a 16 72 be c5 1d 0a be b0 52 aa bd
       0.012813619 -0.23641363 -0.13487919 -0.08316553
000300 26 c1 50 3d 3c 79 54 be 89 33 64 3e 0f 8b d2 bd
       0.05096545 -0.20749372 0.22285284 -0.102804296
000310 34 91 68 bb 87 cf 3e be 10 f8 99 3c a6 f5 b1 bd
       -0.0035486938 -0.18633853 0.018795043 -0.08689432
000320 be d9 55 be b6 11 ad bd 1c 56 64 be 35 18 28 3e
       -0.20883843 -0.08450644 -0.22298473 0.16415484
000330 31 50 3d be 89 2e 5e 3e 6e 0e 21 bd 6f ba 3e 3e
       -0.18487622 0.21697439 -0.0393204 0.18625806
000340 65 35 1e be f8 1c e5 bd 14 c3 9f bd b7 76 70 3e
       -0.15450056 -0.11187166 -0.0780088 0.23482786
000350 13 50 44 be ff 63 f4 3d fa 3a ae 3c b4 39 0a 3e
       -0.19171171 0.11933135 0.021268357 0.13498574
000360 56 af e5 bd 66 3f 04 bd 88 57 e5 3d 76 dc 2e bc
       -0.11215083 -0.032287024 0.11198336 -0.010672679
000370 40 55 4a be 8c bd a3 3c ba 99 f5 3d de 83 57 3d
       -0.19759083 0.019987844 0.11992212 0.052615993
000380 9a 1b 27 3d 55 87 67 be e7 10 01 3e e3 4e 4f 3c
       0.040797807 -0.22610219 0.12604104 0.012653085
000390 28 bc ba 3d 1a 41 6b be 74 49 f6 3d 5d 2d 21 be
       0.09117919 -0.22974053 0.12025729 -0.15739961
0003a0 ab 98 bd ba 9d 0b 5f be b3 a7 60 3e fb 70 1f 3e
       -0.0014465054 -0.21781774 0.21938972 0.15570442
0003b0 82 d8 3f 3d 57 fc f4 3c a9 5e c3 bc 02 cf 2d 3e
       0.046837337 0.029905481 -0.023848848 0.16973498
0003c0 07 8c 06 be 25 5a 9f bd 5f d7 20 be ad bd 63 3b
       -0.13139354 -0.077808656 -0.15707158 0.0034750507
0003d0 5e d7 ed 3d ad 92 12 3e 5e 69 2a be a5 2e b8 3a
       0.11613344 0.14313765 -0.16641757 0.0014051987
0003e0 c8 33 5f 3d 1c a0 ac bc 8b 86 66 3e 92 c9 50 be
       0.05449274 -0.02107244 0.22512262 -0.20389393
0003f0 91 e4 8e bd 34 88 5c 3b 90 34 19 3e 30 5a 5a 3d
       -0.06977189 0.003365052 0.14961457 0.053308666

weight f4 [16, 16, 1, 1]
000000 ea 9f 15 3e 53 36 0f 3e 80 2a 6e 3d db b7 5a be
       0.14611784 0.13985567 0.058146 -0.21359198
000010 17 47 e3 bd 05 b5 20 be 24 97 6b be 0c 2f d5 3c
       -0.11097544 -0.15694053 -0.23006874 0.02602341
000020 7d 45 ce 3d f1 54 5b 3d c4 b0 7e be 87 88 3e 3d
       0.100718476 0.053547803 -0.24872118 0.04651692
000030 7f cc 8f bd 9f 08 31 be d2 f4 1a be b0 fd 68 be
       -0.070214264 -0.17288445 -0.15132454 -0.22753024
000040 a5 b1 dc bc a5 b3 06 3d c4 24 38 be 7b fe 17 3e
       -0.026940176 0.032886166 -0.17982775 0.1484317
000050 00 d0 5c 3e d9 6c ab bd 38 e3 80 3e 26 bf a9 bd
       0.2156372 -0.083703704 0.25173354 -0.08288412
000060 7b bc 2c bd c2 e7 4a be 23 9c 1c 3d c0 90 34 3e
       -0.042171936 -0.19814971 0.03823484 0.17633343
000070 d6 6c 71 be a6 28 82 3d 3c 59 b0 3d bd 9b 04 bd
       -0.23576674 0.06355409 0.0861077 -0.032375086
000080 0b 2b 4c 3d 66 ed 78 be cb 5e 47 3d 89 d4 d3 3d
       0.049845736 -0.2430931 0.048674386 0.10343272
000090 8f eb 3f 3d 2b 7c 32 3e d2 3b 30 3e 98 d0 f3 bd
       0.046855506 0.17430179 0.1721032 -0.119050205
0000a0 70 57 c7 bd 0a a3 75 be a5 26 f0 bd 84 d0 49 3e
       -0.09733474 -0.23987976 -0.11726121 0.19708449
0000b0 9b 11 a3 bc 28 28 12 3d be d6 d7 3c 34 8e dc bd
       -0.019905856 0.035682827 0.026347514 -0.107693106
0000c0 5d 56 f0 3c b5 59 ae 3c d4 6c 65 be a7 cf 94 3d
       0.029338056 0.02128301 -0.22404796 0.07266169
0000d0 1b 33 3c be 80 5b 94 bd 64 a6 5e be da 70 e4 bc
       -0.1837887 -0.07244015 -0.2174316 -0.027885843
0000e0 39 49 b2 bd ed c6 26 bd f3 f1 a2 bd 1d 31 44 be
       -0.08705372 -0.040717054 -0.079563044 -0.1915936
0000f0 b8 7d 0e 3c 7c 8c 1e 3e 5d 83 8f 3c d1 5d 8f 3d
       0.008696966 0.15483278 0.017518694 0.07000316
000100 d4 6e 36 be 07 d1 03 3c df 15 22 3e c6 0d f7 3d
       -0.17815715 0.0080454415 0.15828656 0.12063174
000110 e0 8b 49 be 92 7c d7 3d f2 d8 77 be 41 eb 1a 3e
       -0.19682264 0.10521807 -0.24203852 0.15128805
000120 5c f2 64 3e 60 42 98 bb 66 1c d6 3d 6e 82 dc bd
       0.22358078 -0.0046465844 0.10454635 -0.10767065
000130 dc 5c f7 3d e3 e4 76 be b7 a6 ab bd 1f 0a 49 3e
       0.120782584 -0.24110751 -0.08381408 0.19632767
000140 86 24 18 3e 2a 3d 27 3e 60 4f 5a be 9b c9 8c 3c
       0.14857683 0.16331926 -0.21319342 0.017185977
000150 5e 4b 0c be 2a 3c dd 3d cb 6c 89 3d 86 03 a0 3c
       -0.13700625 0.10802491 0.06710204 0.01953293
000160 ea 38 58 3e ba 7e 4a 3c a4 91 96 3c eb d8 67 3e
       0.21115461 0.0123593155 0.018379994 0.22641341
000170 9b 2f 48 be 71 87 17 be 98 b9 6a 3a c6 7c 79 3e
       -0.1954941 -0.1479776 0.0008954047 0.24364004
000180 06 6a 72 3e f1 35 d1 3d df 5f bd bd 40 e2 16 3e
       0.23673257 0.10215367 -0.092468016 0.14734745
000190 5c e1 39 3e f4 94 0c be 20 a6 38 be ed 61 91 bd
       0.18152374 -0.13728696 -0.18032122 -0.07098756
0001a0 14 5e 46 3d 25 13 6b be 43 bb 79 be 96 f5 de bd
       0.048429564 -0.22956522 -0.24387841 -0.108866856
0001b0 79 9c 22 3e 18 da 76 3e 63 fe 1f 3e f6 26 1a 3c
       0.15880002 0.24106634 0.15624385 0.009408703
0001c0 cf 38 67 3d 18 b7 4f be 39 5f 3d bd a4 80 55 be
       0.05645066 -0.20284688 -0.04623339 -0.20849854
0001d0 0b 98 bb bd 63 bc 81 bd 6e 0b f8 3d 01 ca 4d 3e
       -0.09159859 -0.0633476 0.12111555 0.2009659
0001e0 0f 81 ea bd fe 16 ec bd 2f d3 79 3e 26 b4 f3 bd
       -0.11450397 -0.11527823 0.24396966 -0.11899595
0001f0 5a 52 eb bc c2 9e 36 bd 6b 5f bc bd 72 04 72 be
       -0.028725792 -0.044584997 -0.09197887 -0.23634508
000200 c6 f0 44 3e 01 99 01 be e8 e1 5c be b2 97 7c bd
       0.19232473 -0.12656023 -0.21570551 -0.061668105
000210 0d 17 5c 3e 40 e7 72 3e 2c b6 66 3c fd c7 88 bd
       0.21493168 0.23721027 0.014081519 -0.0667877
000220 73 d3 8a bd 11 28 07 3e d9 6a fe bd 25 f6 cc 3d
       -0.06778612 0.13198878 -0.12422723 0.10007886
000230 69 5e 0f 3e c5 ce aa 3d 77 f6 8f 3d 85 6e 88 bd
       0.14000858 0.083402194 0.07029431 -0.06661705
000240 2a 43 e4 bd 17 7a 14 be 1c 60 0d 3e 64 d6 12 3b
       -0.11145623 -0.14499699 0.13806194 0.0022405619
000250 93 70 44 bc 90 d5 e0 3c d3 53 00 be 27 71 6c be
       -0.01198973 0.027445585 -0.12531976 -0.23090039
000260 d1 3e 0a 3e ce b2 50 be 9b f0 78 be 14 8c 38 be
       0.13500525 -0.20380709 -0.24310534 -0.18022186
000270 6c a7 7c 3e 70 b2 d8 3d 08 43 13 be 9b 79 2d be
       0.24673241 0.10580909 -0.14381039 -0.1694092
000280 36 eb 19 3e a2 de 58 3e d2 de f1 3c 64 4b 1f bb
       0.15031132 0.21178678 0.029525194 -0.002430641
000290 3a ec 9b bd 99 d4 28 3e 70 37 38 be b3 55 46 be
       -0.07613416 0.1648735 -0.17989898 -0.19368629
0002a0 d1 80 ea bd 1a ac 5f 3d ba fc 90 3d 2f 6f 56 3d
       -0.11450351 0.05460749 0.07079454 0.052352127
0002b0 75 0f 99 3d 13 75 0c 3e fc 97 4b 3d 87 bd 41 be
       0.07473651 0.13716535 0.04970549 -0.18919955
0002c0 5c 12 a4 3d a2 ec e2 bd 65 50 19 bd 02 78 66 3e
       0.08011314 -0.110802904 -0.037430186 0.22506717
0002d0 ba ce 19 3d e7 df 5d be c8 08 48 be a5 89 1f be
       0.037550665 -0.21667443 -0.195346 -0.15579851
0002e0 35 e5 89 3d 2f 72 65 3e 71 cc f6 3d 23 f8 12 3e
       0.06733171 0.22406839 0.12050713 0.14352469
0002f0 74 05 1e 3c 36 d1 0e be aa 6a 78 be ad d4 1d 3c
       0.009644855 -0.13946995 -0.24259439 0.009633225
000300 20 46 01 be 0c 84 85 3d 3e 29 42 3e 65 c2 92 bd
       -0.12624407 0.065193266 0.18961045 -0.07165984
000310 33 c9 f7 3d 02 04 17 3d 25 04 29 be 03 28 d2 bd
       0.120989226 0.036869057 -0.16505487 -0.10261538
000320 c2 4b 4e 3d 1f 45 35 3e 48 73 06 be 8b 2f 13 3e
       0.050365217 0.17702149 -0.13129914 0.14373605
000330 28 4c 63 3e 2a bc 2b 3e 4e 05 40 3e 71 68 33 be
       0.2219702 0.16770998 0.18752024 -0.1752031
000340 d5 fb 43 3e e8 f0 4a 3e c0 09 30 bd 45 4f b4 bd
       0.19139035 0.19818461 -0.04297805 -0.08804182
000350 e2 b3 a6 bd 11 b2 79 be 4c 65 2c 3e 3a 94 6c be
       -0.08139779 -0.24384333 0.16835517 -0.23103419
000360 3c 61 dc bd 05 a2 2b be 98 6f 55 3d 81 fb f4 bd
       -0.107607335 -0.16761024 0.052108377 -0.11962033
000370 ae 67 81 3c 7b a4 7c 3e 77 f9 a1 bb 2b 81 3c bd
       0.015796509 0.2467212 -0.0049430686 -0.04602162
000380 a1 e8 08 be 7a 32 b8 bd ed fa a6 3d 12 85 51 3e
       -0.13369991 -0.08994003 0.08153329 0.20460919
000390 ef 2d b2 3a 77 cb 15 be 39 07 a0 bd 09 0f b2 3d
       0.0013594012 -0.14628397 -0.078138776 0.08694274
0003a0 56 6b 7f 3e f5 2c 45 3e 9f 64 dd ba 28 69 93 bd
       0.24943289 0.19255431 -0.0016890949 -0.07197791
0003b0 ac e5 dd 3c eb 05 80 3d 60 35 17 be 5f 9e 4a be
       0.027087055 0.06251129 -0.14766455 -0.19786976
0003c0 46 0a b0 bd cb ce de 3d 2b ca bc bc 6e c3 88 bd
       -0.085957095 0.108792864 -0.02304562 -0.066779
0003d0 18 b1 9a 3c 13 5a 40 be a2 0e 9e bd 50 e9 f2 bd
       0.018883273 -0.1878436 -0.07717635 -0.11860907
0003e0 39 7c 12 3e 38 fd 32 3d d1 47 12 be 57 13 34 be
       0.143052 0.04369852 -0.14285208 -0.17585503
0003f0 53 05 12 3e d8 80 0e be b9 90 74 3d 1d cd a5 bd
       0.14259844 -0.13916337 0.05970833 -0.08095763

weight f4 [16]
000000 a6 9b 7f 3f 09 9d 7f 3f 73 e4 7f 3f 10 1c 7f 3f
       0.99846876 0.9984899 0.9995796 0.99652195
000010 87 eb 7e 3f 19 86 7e 3f 06 02 80 3f da f8 7e 3f
       0.99578136 0.99423367 1.0000618 0.9959847
000020 99 79 7e 3f f4 b2 7e 3f 3d 97 7f 3f 8e 4a 7f 3f
       0.99404293 0.9949181 0.99840146 0.99723136
000030 0b 17 7f 3f 62 99 7f 3f 29 3f 7f 3f d0 36 7f 3f
       0.99644536 0.9984342 0.9970575 0.9969301

bias f4 [16]
000000 20 3e e8 ba 35 93 97 bb 86 12 c8 bb e7 d8 c6 bb
       -0.001771871 -0.0046257027 -0.006105724 -0.0060683372
000010 3d 50 2b bc f5 ab 27 bc 81 4f ce ba d6 17 76 bb
       -0.010456142 -0.010233869 -0.0015740247 -0.0037550828
000020 d6 84 79 bc 2d 54 23 bc d2 08 3d ba 4e d4 93 bb
       -0.015229424 -0.0099688 -0.0007211092 -0.0045113927
000030 2d 36 a9 bb c6 4e 6f bb d2 ba d5 bb 06 3d 24 bc
       -0.005163929 -0.0036515458 -0.006522515 -0.010024315

running_mean f4 [16]
000000 cd 7a 3b bc 5a 90 ff 3c 08 82 0b bb 0a 2b 73 3d
       -0.011442852 0.031196762 -0.0021287221 0.059367217
000010 1c dd 2e bd 92 14 c2 3c 4c a1 c7 3d 52 c6 eb bc
       -0.042691335 0.02369145 0.09747562 -0.02878109
000020 d2 38 98 3d ac a2 c6 3b cc c1 0b 3d 6f bc 77 bc
       0.074327126 0.0060618725 0.034120366 -0.01512061
000030 30 32 31 bd a0 5d b4 3c 5b 31 c9 bc db 73 2f 3c
       -0.043260753 0.0220173 -0.024559667 0.010708774

running_var f4 [16]
000000 0a 1f 2c 3e 56 95 1b 3e 4a f3 26 3e d2 c8 60 3d
       0.16808715 0.15193686 0.16303745 0.054879017
000010 14 49 24 3e de bb db 3d 76 50 74 3e 8c e1 9f 3d
       0.16043502 0.10729192 0.23858818 0.078066915
000020 a3 57 d5 3d 2c 61 25 3e 04 7c da 3d b5 2b a7 3d
       0.10417106 0.1615035 0.10668185 0.08162633
000030 b3 97 1f 3e 52 95 11 3e ba c9 2b 3e a6 e5 e1 3d
       0.15585212 0.14217117 0.16776171 0.1103013

weight f4 [3, 1024]
000000 96 70 62 bc 86 e1 d7 3b 71 99 c7 bc cc 0d 21 bd
       -0.013820788 0.006588164 -0.024365159 -0.0393198
000010 08 91 f5 3a c6 f9 c5 bc 04 8f 09 3d 60 3f 65 bc
       0.0018735239 -0.024166953 0.033583656 -0.013992161
000020 db 65 cc 3c dd cc 80 3c be 2a cc 3c 59 70 d9 3b
       0.024950912 0.015722686 0.024922725 0.0066357073
000030 ed 68 b9 ba 88 ce bc 3a f6 e2 eb 3b 5f 76 0e bc
       -0.001414565 0.0014404813 0.0071986867 -0.008695214
000040 a4 71 f7 bc a6 cf 6f 3c 85 5b 84 bc 55 76 00 3d
       -0.030205555 0.01463691 -0.016156921 0.03136285
000050 69 76 c9 3c 32 01 9d 3b cb 92 41 3b 94 1d 00 bd
       0.024592595 0.0047914023 0.0029536958 -0.031278208
000060 26 66 a7 bc 2a 42 ba bc 42 01 e6 bc 09 8b e9 bb
       -0.02043445 -0.022736628 -0.028076772 -0.00712717
000070 14 56 1f bc b5 7c 47 3c 1e ca dc 3c bd d8 16 3c
       -0.0097251125 0.012175729 0.026951846 0.009206948
000080 db 48 35 3d fd 1d ae bc 94 3f 1a bc 80 8c 95 3c
       0.044258934 -0.021254534 -0.009414572 0.018255472
000090 cd 49 8a bc a1 d4 a4 3b 80 a4 eb b6 e2 e2 23 3c
       -0.016880894 0.00503023 -7.022696e-06 0.010002824
0000a0 4e ef e1 ba 80 73 10 3d ef 2a 77 3c 0b 61 86 bc
       -0.0017237456 0.0352664 0.01508592 -0.016403696
0000b0 f5 47 d6 3b bf 74 3b bc f6 99 a6 bc 4e ae 01 3d
       0.0065393397 -0.011441409 -0.020337086 0.03166037
0000c0 7b f9 83 3c b5 97 a4 3c a2 92 8b 3c 31 11 6b bc
       0.016110172 0.02009187 0.017037693 -0.0143473605
0000d0 ff fe 0c bd ae e2 95 3c ff 2f 91 3c 4e 1c 37 3b
       -0.03442287 0.018296566 0.017723082 0.0027940455
0000e0 6e a9 91 bc dd 07 9b 3c f1 70 be 3c 7c da b3 3c
       -0.017780986 0.018924648 0.023247214 0.021954767
0000f0 a9 5e 38 3c 4d b3 09 bd 24 b4 66 bb 93 87 f5 bc
       0.0112530375 -0.03361826 -0.0035202587 -0.029971873
000100 bf 75 81 bc b4 ee 70 39 6d 2d 9f bb 63 3c 81 3c
       -0.015803216 0.00022977107 -0.00485771 0.015775865
000110 3c 02 93 3b ec e2 13 3c 79 27 88 3c 31 54 b7 3c
       0.0044863503 0.00902627 0.016620385 0.022379013
000120 b5 7b fe ba 4d ef 6c bc ca 8a f7 3a 26 19 a1 bc
       -0.001941553 -0.014461351 0.0018885967 -0.019665312
000130 c9 6b f4 bc 31 28 7b 3c 00 d9 34 38 0e 10 81 ba
       -0.029836552 0.015329407 4.311744e-05 -0.0009846704
000140 51 95 2b 3c db 96 85 bc 20 de 19 3c f3 a5 c4 ba
       0.0104726115 -0.016307285 0.009391338 -0.001500307
000150 cb 33 7c bc 03 ba 97 3c be 55 a8 bb 21 c6 9a bc
       -0.015393208 0.018521314 -0.0051371744 -0.018893303
000160 d6 c1 a7 bc bb 2e 40 bb d9 e2 9f 3c e6 80 18 bc
       -0.02047817 -0.0029324729 0.01951735 -0.0093080755
000170 7b 96 04 3c 56 2f 37 bc f6 0c 10 bc bb f3 ad 3c
       0.008092518 -0.011180719 -0.008792153 0.021234384
000180 54 c2 df b9 67 e2 35 bc 2a 54 7b bc bd fc 8b bc
       -0.0004267866 -0.011101342 -0.0153398905 -0.017088288
000190 fe 45 14 bd 39 62 83 3c 0e 4d f1 bc c6 b0 a8 bc
       -0.036199562 0.016038047 -0.029455688 -0.020592105
0001a0 af 4e 99 3c 50 51 80 bb 91 10 e2 bc b1 e9 1b 3c
       0.018714277 -0.003915943 -0.02759579 0.009516166
0001b0 26 5f 56 bb 6b 79 5c 3c af 9c 66 3b ef d9 ae 3c
       -0.0032710521 0.013456683 0.0035188606 0.021344153
0001c0 c4 99 5d 3c 4d 1c 19 3d 35 9f 07 3c 26 26 3a 3c
       0.01352543 0.037380505 0.008277704 0.011361634
0001d0 63 73 e4 bb bb 1a 91 3c b0 af 67 bb 0b 95 6d 3c
       -0.006971763 0.017712941 -0.003535252 0.014500867
0001e0 f2 7d 2b bc 9a f6 43 3c 2a 11 89 3c 4b 52 f0 3c
       -0.010467039 0.01196065 0.016731817 0.029336115
0001f0 71 66 0f 3b a0 05 df bc ba 63 b8 bb 52 0d e2 3c
       0.0021881128 -0.027224362 -0.0056271227 0.027594242
000200 c7 b5 d4 3b 41 c2 93 bb 28 a9 05 3d 5c 99 a7 3c
       0.006491396 -0.004509241 0.032632023 0.02045887
000210 1e d4 fd 3c 53 3f e2 bb 7c fb 03 3c 1f 2e 84 3c
       0.030984934 -0.0069045215 0.008055564 0.016135274
000220 3b 95 e0 3b fc 56 0b 3c ef 63 13 3c 1e 14 84 bc
       0.006853727 0.008504625 0.008995994 -0.016122874
000230 9c ae 22 3c 73 7b 10 bd 48 3b 9d bc fc f9 47 bc
       0.009929325 -0.03527398 -0.019193307 -0.012205597
000240 f4 c7 d8 ba 3d 10 e0 3c 58 ad 82 bc 0c 46 5d bc
       -0.0016539083 0.027351493 -0.015951797 -0.01350547
000250 71 bf b5 3b c2 5f 60 3b a5 91 96 bb 03 33 64 3c
       0.0055465032 0.0034236764 -0.004594999 0.013928178
000260 48 e2 b3 ba 28 a9 c4 3b 8e 3f 52 bb 50 9d bc 3a
       -0.0013724053 0.0060016103 -0.0032081339 0.0014390144
000270 7c e7 d2 bc 35 74 da 3b 60 79 18 3b 6c 30 6b 3b
       -0.025745146 0.006666685 0.0023265705 0.0035887016
000280 7c aa 53 bc 57 bd f6 3c 46 ec 67 bc 0f 6b 2f bc
       -0.012919065 0.030119581 -0.014155453 -0.010706677
000290 ca ee a2 3b 0e 5e c5 bc 13 6c e6 3c 13 49 c4 bc
       0.0049723135 -0.0240927 0.028127706 -0.023960626
0002a0 0b 8b d2 bb fc ce aa bc 88 cf f6 bb 15 14 2e 3c
       -0.0064252666 -0.020850651 -0.007532064 0.010624905
0002b0 0e 1a 03 bd 12 f6 f7 bc fc 15 ae bb 99 c9 be 3c
       -0.03200727 -0.030268703 -0.0053126793 0.023289489
0002c0 c7 ea f1 bc 44 b6 1f 3d bb 05 54 3b 7c 19 0e 3c
       -0.029530896 0.03899218 0.0032352048 0.008673068
0002d0 98 75 b3 bc 30 d7 69 bc 18 a8 94 bc b4 60 a0 bc
       -0.021906659 -0.014272496 -0.01814656 -0.019577362
0002e0 39 bf e4 bc ad 20 ba bb 7d da c7 3a ca 09 ea bc
       -0.027923213 -0.005680165 0.001524761 -0.02856912
0002f0 2a 56 9f 3c 34 48 8b 3c 01 22 70 3c a5 f5 64 bc
       0.019450266 0.017002203 0.014656545 -0.013974582
000300 56 73 da 3c e6 80 d8 3a 70 b2 4f 38 fc d9 78 3c
       0.026666325 0.0016517907 4.951883e-05 0.01518869
000310 e0 11 6b 3c 19 1b e6 bc c7 97 ac 3c 72 01 cb bc
       0.014347523 -0.028089093 0.021068467 -0.024780963
000320 a5 56 87 bc 14 32 b7 bc cc 06 51 3c 2d 36 7f 3c
       -0.016520808 -0.022362746 0.012757968 0.015576881
000330 b0 25 ae 3c 75 56 91 bc e9 d1 09 3c ab 6b 97 bc
       0.021258205 -0.017741421 0.008411863 -0.018483957
000340 45 85 46 bc 37 55 72 3c b0 d2 9d bc db 2c 24 bc
       -0.012116735 0.014790825 -0.019265503 -0.01002046
000350 12 a0 d0 39 22 81 9a bb e1 33 e2 3b 5a 16 29 3c
       0.00039792113 -0.004715101 0.006903157 0.01032027
000360 50 7c 6c bb 7b 9f 31 bc 47 5c b3 bb 35 17 c2 bc
       -0.0036084838 -0.010841246 -0.005473647 -0.023692707
000370 8c dc 96 3b 61 c9 00 bc 95 5a a3 bc d0 d1 0b bb
       0.004603928 -0.0078605125 -0.019940654 -0.0021334775
000380 c9 58 91 3c 7f b2 ed bc 4f 98 9b 3c 26 88 33 bc
       0.017742531 -0.029015778 0.018993525 -0.010957753
000390 8e 59 85 bc f6 20 ca 3c 38 57 8a bb 85 4e 14 3b
       -0.016278055 0.02467392 -0.004221823 0.002262981
0003a0 8a e7 ab bc 7a 66 9a 3c c7 62 ba bc e8 09 53 bc
       -0.02098443 0.018847693 -0.022752179 -0.01288078
0003b0 07 40 ec ba c0 ea 13 3c 58 e3 d1 3b 82 47 bd 3b
       -0.0018024453 0.009028137 0.0064052753 0.0057763467
0003c0 45 2a 0c bd da b1 1a 3b 40 92 ea 3c ee 95 36 3b
       -0.03422 0.0023604543 0.02863419 0.002786036
0003d0 ee b0 94 bc 49 e7 ed 3b 67 7f 8c bc 98 63 51 bb
       -0.018150773 0.0072602374 -0.017150594 -0.0031950232
0003e0 f3 a3 cd bc 36 33 34 bc 30 b8 14 3c 59 59 80 ba
       -0.025102591 -0.010998538 0.009077117 -0.0009792253
0003f0 40 13 94 3c 6d e8 94 ba 1e d1 16 3c d9 13 07 bc
       0.018075585 -0.0011360772 0.009205131 -0.008244478

bias f4 [3]
000000 4a 0d 14 3c ed ab c5 bc e8 28 8a 3b
       0.0090363715 -0.024129832 0.004216302
