mi/Algorithm/impl/eegnet_model/model_2_2.pkl (torch, 32724 bytes, 18 tensors)

weight f4 [8, 1, 1, 64]
0	0x3d7dad7c	0.061933026
1	0x3ca332cf	0.019921688
2	0xbca19670	-0.019725055
3	0x3de99083	0.114045165
4	0xbd60b0f0	-0.05485624
5	0xbc3b68b3	-0.011438536
6	0x3d1740d3	0.036927056
7	0xbb81f2d4	-0.003965715
8	0xbdc4dcda	-0.096124366
9	0xbdb26f80	-0.08712673
10	0x3dcd3e54	0.10021654
11	0xbd3cbe69	-0.046080027
12	0xbba982d8	-0.0051730685
13	0x3dce95c2	0.10087158
14	0xbdbe1798	-0.09281844
15	0x3cca07eb	0.024661979
16	0x3db678ac	0.08909735
17	0x3cbbcf0a	0.022925872
18	0x3d751cdf	0.059841987
19	0xbd56f500	-0.052479744
20	0xbd791e75	-0.06082006
21	0xbd97488e	-0.073868856
22	0xbddc53eb	-0.107581936
23	0xbd535b5e	-0.051600806
24	0x3cf2b5b4	0.029627658
25	0xbdc5649b	-0.096383296
26	0xbd97efaf	-0.07418763
27	0x3d51ffe2	0.05126942
28	0xbdff2d11	-0.124597676
29	0x3dea6b4f	0.11446249
30	0xbd4358ad	-0.04769199
31	0xbd398238	-0.045290202
32	0x3d3b039b	0.045657735
33	0xbcd63988	-0.02615048
34	0x3dfff1ad	0.12497268
35	0x3c37893f	0.011202156
36	0x3d548678	0.051886052
37	0x3dd3571f	0.103193514
38	0xbd796424	-0.060886517
39	0x3d881c4c	0.06646022
40	0x3d58b0b3	0.05290289
41	0x3d167bf9	0.036739323
42	0xbdb8a26e	-0.09015356
43	0xbdd159cf	-0.10222208
44	0x3cb6b737	0.02230416
45	0x3d9949ca	0.07484777
46	0x3bf46c49	0.0074591977
47	0xbd7ddac7	-0.06197622
48	0xbd8cf37e	-0.0688238
49	0x3cc1e966	0.023670863
50	0xbbaa81bd	-0.0052034543
51	0x3d084687	0.033270385
52	0x3daf9d69	0.085749455
53	0x3d0bce32	0.03413219
54	0x3dc9aacf	0.09847032
55	0x3c31c5b0	0.010850355
56	0x3dab7048	0.08371025
57	0xbd32ebd6	-0.043681942
58	0xbdaf514a	-0.085604265
59	0xbd767349	-0.06016854
60	0x3c41b78d	0.011823547
61	0x3d5da82a	0.054115452
62	0xbdd9111f	-0.10598969
63	0x3d99855b	0.07496139
64	0x3db555c6	0.088542506
65	0x3cf00d15	0.029303113
66	0xbd6b3d7d	-0.057431687
67	0x3dff84b4	0.12476483
68	0x3b8f5068	0.004373599
69	0xbdf66a91	-0.12032045
70	0x3da99aeb	0.082815014
71	0x3c766531	0.015038774
72	0x3ca5601c	0.02018743
73	0x3d0296fb	0.031882267
74	0xbc87043b	-0.01648151
75	0x3da66642	0.08124973
76	0x3d0838b7	0.033257212
77	0x3d15e7b1	0.03659791
78	0x3d4aafe9	0.049484167
79	0xbdb98e2c	-0.0906032
80	0x3d997e5c	0.07494804
81	0x3d337ea7	0.043821957
82	0x3c712d0b	0.014720212
83	0x3df5cd0e	0.12002002
84	0x3dab87b1	0.083754905
85	0x3ddbcf06	0.10732846
86	0xbdb3fcee	-0.08788477
87	0xbdce0e60	-0.100613356
88	0x3dfde0f0	0.12396419
89	0xbcaaef77	-0.020866139
90	0x3d8b2ccc	0.06795654
91	0xbd71f88e	-0.05907493
92	0xbc490fb1	-0.0122718075
93	0x3d6d8ec4	0.05799748
94	0x3dbc01a9	0.09180004
95	0xbd55a283	-0.052156936
96	0xbdd3c63b	-0.10340544
97	0xbdfd33e6	-0.123634145
98	0xbc158c25	-0.009127651
99	0xbdd35a82	-0.10319997
100	0x3d0b7a45	0.034052152
101	0xbd867ba2	-0.0656655
102	0x3de77ea1	0.113034494
103	0x3c0b4750	0.008500889
104	0x3df51dc4	0.11968568
105	0x3dd56981	0.10420514
106	0x3c9b41a6	0.018952202
107	0xbc9010db	-0.017586162
108	0x3dd9bf9e	0.10632251
109	0x3dd9d82e	0.10636936
110	0x3da95465	0.0826805
111	0xbd195701	-0.03743649
112	0x3d58e17f	0.052949425
113	0x3da211e7	0.07913571
114	0x3ddc0f3e	0.10745095
115	0x3d4cb34b	0.049975675
116	0xbc4d33de	-0.012524573
117	0x3bab5f58	0.0052298717
118	0x3cffb511	0.031214269
119	0xbd01a894	-0.03165491
120	0xbdb0769b	-0.08616372
121	0x3dbc4cf7	0.091943674
122	0x3d9e9a71	0.07744301
123	0x3d859e61	0.06524349
124	0x3c5d4420	0.013505012
125	0xbc390f91	-0.011295215
126	0x3d1b1134	0.037858203
127	0x3da686ce	0.08131181
128	0xbd477dc4	-0.048703924
129	0xbd4e2f5b	-0.05033813
130	0x3d8569c4	0.06514314
131	0x3defaa81	0.11702443
132	0x3d2adbf7	0.04171368
133	0x3d1552da	0.036455967
134	0x3d93153a	0.07181783
135	0x3d9482a8	0.07251483
136	0xbd3a4f27	-0.04548564
137	0xbd94da1e	-0.07268165
138	0xba06d18c	-0.0005142919
139	0x3dc94cb9	0.09829087
140	0x3b06f6bf	0.002059385
141	0xbd97ffef	-0.07421862
142	0xbcae7688	-0.021296754
143	0xbd22911c	-0.03968917
144	0x3c439402	0.011937143
145	0xbd6807ab	-0.056647938
146	0xbd680c9f	-0.05665266
147	0xbd62a34b	-0.05533151
148	0x3d9d7049	0.07687432
149	0x3d41925a	0.047258712
150	0x3d9da731	0.07697905
151	0x3d9a3610	0.07529843
152	0x3c293753	0.010328132
153	0xbdd5a382	-0.10431577
154	0x3c1d8ab9	0.009615594
155	0xbcd5602c	-0.026046835
156	0x3ded8e96	0.11599462
157	0x3d9f7be0	0.07787299
158	0x3d7504bf	0.05981898
159	0x3c964ee6	0.018348169
160	0x3d16c843	0.03681208
161	0xbe024668	-0.1272217
162	0xbd992da4	-0.074794084
163	0x3dbc252c	0.091867775
164	0x3da7dbf3	0.08196249
165	0xbd6802fe	-0.05664348
166	0xbd6b711e	-0.057480924
167	0x3de6f2c9	0.11276776
168	0x3d356c98	0.044293016
169	0x3db81a32	0.08989371
170	0x3de968cc	0.113969415
171	0xbc113411	-0.008862511
172	0x3c827fe3	0.015930122
173	0x3d4100ca	0.047119893
174	0xbdafb6d2	-0.08579792
175	0x3d2c2aec	0.04203312
176	0xbdc223c7	-0.0947948
177	0x3b88f431	0.0041795005
178	0xbdbaee5d	-0.091274954
179	0xbd51f616	-0.051260076
180	0xbd1f5e67	-0.03890839
181	0x3d83fc7d	0.06444643
182	0xbcbfb92e	-0.02340373
183	0xbdd42ffb	-0.10360714
184	0x3d489e59	0.048979137
185	0xbde78157	-0.113039665
186	0x3dd5beb4	0.10436764
187	0xbd6c352f	-0.057667907
188	0xbde14152	-0.10998787
189	0x3dc7e9c5	0.09761385
190	0x3d998a88	0.07497126
191	0x3dc3c15d	0.095583655
192	0x3bf087c6	0.007340404
193	0x3dd90e90	0.10598481
194	0xbdcb7cbe	-0.09935902
195	0x3dae0ab8	0.08498138
196	0x3dac1654	0.08402696
197	0xbd142ad5	-0.03617366
198	0xbde57e03	-0.112056755
199	0xbd9c1778	-0.07621664
200	0x3dcb3fee	0.09924303
201	0x3cab0d3e	0.020880338
202	0x3dabc974	0.083880335
203	0x3bb2dbaa	0.005458315
204	0xbd37579f	-0.044761296
205	0x3df4f32a	0.11960442
206	0x3c45fe48	0.012084551
207	0xbce0ca1e	-0.027440127
208	0xbdaae181	-0.08343793
209	0x3da1e57c	0.07905099
210	0xbd11be26	-0.03558173
211	0x3b914878	0.004433688
212	0x3dc7140b	0.0972062
213	0xbd23b18a	-0.039964236
214	0xbd8d1538	-0.06888813
215	0xbd62682c	-0.055275127
216	0xbaf35044	-0.001856335
217	0x3a678b60	0.0008832719
218	0xbd76ada0	-0.060224175
219	0xbdcba138	-0.099428594
220	0x3d677481	0.05650759
221	0x3d96111c	0.07327482
222	0x3d2f4d95	0.042798597
223	0xbd9cfa54	-0.07664934
224	0x3d590457	0.052982654
225	0xbd975b40	-0.073904514
226	0x3d243338	0.04008791
227	0x3dedecd5	0.11617438
228	0xbdb6ba6c	-0.08922276
229	0xbdf6dc97	-0.12053793
230	0x3b29bbd8	0.0025899317
231	0x3d44ec5a	0.048076965
232	0x3d329b58	0.04360518
233	0xbd0282f8	-0.031863183
234	0x3cc6483e	0.02420437
235	0xbc8fce92	-0.017554555
236	0x3dd0848e	0.10181533
237	0xbdb82dc4	-0.08993104
238	0xbd4b94ed	-0.049702574
239	0x3d85ed11	0.065393575
240	0xbd6ccf46	-0.05781486
241	0xbde31b1c	-0.11089155
242	0xbd9cc663	-0.07655027
243	0x3dcbc007	0.09948736
244	0x3d1242c8	0.03570822
245	0x3d95815a	0.073000625
246	0x3c586bf3	0.013209331
247	0x3d83cd8b	0.064356886
248	0x3d5b5c23	0.053554665
249	0xbcb352b1	-0.021890016
250	0x3d06dbb1	0.032924358
251	0xbdb8275a	-0.08991881
252	0x3d5578b1	0.052117053
253	0xbde710da	-0.11282511
254	0xbdee9971	-0.116503604
255	0x3d4161da	0.04721246

weight f4 [8]
0	0x3f7ffffe	0.9999999
1	0x3f7fff55	0.9999898
2	0x3f7ffff0	0.99999905
3	0x3f7ffffe	0.9999999
4	0x3f80000e	1.0000017
5	0x3f800000	1.0
6	0x3f80000a	1.0000012
7	0x3f7ffff7	0.99999946

bias f4 [8]
0	0xb22fdade	-1.0236105e-08
1	0xb192f5c0	-4.277098e-09
2	0x32b64ffd	2.1223963e-08
3	0xb14cb70c	-2.9789957e-09
4	0x32206e15	9.3382555e-09
5	0xb14d4cce	-2.9875085e-09
6	0x328ecd70	1.6624398e-08
7	0xb1249950	-2.395229e-09

running_mean f4 [8]
0	0xbaafd8c8	-0.0013416046
1	0xbc841e8e	-0.01612785
2	0xbbb1f07d	-0.0054302798
3	0x39ba3fc9	0.00035524208
4	0x3b60eb83	0.0034320063
5	0xba48c43f	-0.00076586375
6	0x38b93712	8.831745e-05
7	0xbb2ad32d	-0.0026065812

running_var f4 [8]
0	0x39272c84	0.00015942944
1	0x3bc928f1	0.006138914
2	0x3a5596e2	0.00081477885
3	0x387a16df	5.9625945e-05
4	0x39ac8d04	0.0003291146
5	0x38b644cf	8.691253e-05
6	0x3876ffc5	5.8889174e-05
7	0x39bc1772	0.00035875622

weight f4 [16, 1, 64, 1]
0	0x3d9eea49	0.0775953
1	0x3cfaa3be	0.030595656
2	0xbd2dcf38	-0.042433947
3	0xbc18a8b3	-0.009317565
4	0xbdab550e	-0.08365832
5	0x3c88cfc7	0.016700638
6	0xbda5ea1d	-0.08101294
7	0x3d6dad09	0.058026347
8	0x3d3533b2	0.044238754
9	0x3cddb56c	0.027064048
10	0xbc87e827	-0.016590191
11	0x3c6c7138	0.01443129
12	0x3d94cc00	0.072654724
13	0x3bbc36d1	0.0057438393
14	0xbd9a2ef5	-0.075284876
15	0xbc6c6528	-0.014428414
16	0x3caddaff	0.02122259
17	0x3d167e31	0.03674144
18	0x3d9352ab	0.07193502
19	0x3d5a9b6b	0.053370874
20	0xbd755a52	-0.05990059
21	0xbdf5a333	-0.119940184
22	0x3d3c67eb	0.04599754
23	0xbdbb579c	-0.091475695
24	0x3c983ff2	0.018585179
25	0x3d8cf2fc	0.06882283
26	0x3de1214e	0.109926805
27	0x3dbe8e56	0.09304492
28	0xbd871eda	-0.06597681
29	0xbd142c56	-0.036175095
30	0xbdc73a7f	-0.09727954
31	0xbd0ecd80	-0.03486395
32	0x3c8abdb0	0.016936153
33	0x3dec8d42	0.1155038
34	0x3d8e9e77	0.069638185
35	0xbd358af7	-0.04432198
36	0x3dfdeba2	0.12398459
37	0x3d1c7831	0.03820056
38	0xbde069c3	-0.109576724
39	0xbd83f102	-0.06442453
40	0xbd995bff	-0.0748825
41	0xbd629013	-0.05531318
42	0x3c80798a	0.015682954
43	0xbddd9904	-0.10820201
44	0xbd531017	-0.051529016
45	0x3df03a7f	0.11729907
46	0x3d983ada	0.074331
47	0xbd5b43c3	-0.05353142
48	0x3d7c170d	0.06154542
49	0x3dab4573	0.08362856
50	0x3df3e11c	0.119081706
51	0x3dd88c5e	0.10573648
52	0xbd445b53	-0.047938656
53	0x3d489859	0.048973415
54	0x3cb6b4aa	0.022302944
55	0x3ba876e5	0.0051411265
56	0xbc82f226	-0.015984606
57	0x3cfdbf5e	0.03097504
58	0xbcf6416f	-0.030060498
59	0xbcd1193b	-0.025524726
60	0x3df83581	0.1211958
61	0x3d0d72e1	0.034533385
62	0xbd712d60	-0.058881164
63	0xbd8aba3c	-0.06773803
64	0x3bd06142	0.0063592503
65	0xbdfd714c	-0.12375125
66	0xbdec4d1e	-0.115381464
67	0xbd39165c	-0.04518734
68	0xbcebe8f4	-0.028797604
69	0xbc0081d4	-0.007843453
70	0x3d98a71a	0.07453747
71	0x3dcef135	0.101046
72	0xbc328011	-0.010894791
73	0x3d385042	0.044998415
74	0xbc02f309	-0.007992514
75	0x3d473f06	0.04864409
76	0x3d7b9e47	0.061430242
77	0x3dee76a9	0.116437264
78	0xbce2727e	-0.027642485
79	0x3d60b497	0.054859724
80	0xbcf18f06	-0.029487144
81	0x3dea1c13	0.11431136
82	0x3deee000	0.11663818
83	0xbdabcc88	-0.083886206
84	0x3cb41496	0.021982472
85	0xbcb6a97c	-0.022297613
86	0xbdb4e0f7	-0.08831971
87	0xbcea9ef2	-0.028640244
88	0xbdeae775	-0.11469928
89	0x3b96172e	0.0045804
90	0xbc9b53ae	-0.0189608
91	0xbd13add6	-0.036054455
92	0xbd04151a	-0.032246687
93	0xbdd1cde1	-0.102443464
94	0x3d16ce22	0.036817677
95	0xbdf7bf16	-0.120969936
96	0xbd1f48b2	-0.038887687
97	0x3db81423	0.08988216
98	0x3ce308a0	0.027714074
99	0xbde97af5	-0.11400405
100	0xbd4b6cb5	-0.049664218
101	0xbd38db86	-0.04513123
102	0xbd9ea667	-0.077465825
103	0xbd91f250	-0.071262956
104	0xbdd4dabe	-0.10393284
105	0xbc9995d6	-0.018748205
106	0xbde0ba96	-0.109730884
107	0xbdaa6029	-0.08319122
108	0xbde3644d	-0.11103115
109	0x3df17e80	0.11791706
110	0x3db5ea1e	0.08882545
111	0x3d18833f	0.03723454
112	0xbddad5bd	-0.106852986
113	0xbdacf6fb	-0.08445545
114	0x3daa804f	0.08325254
115	0xbdf51aaf	-0.1196798
116	0x3cd660ee	0.026169267
117	0xbd0571e1	-0.032579307
118	0x3d0dd9fb	0.03463171
119	0xbd4ccc1d	-0.049999345
120	0x3d91afe4	0.071136266
121	0xbd0c7f5e	-0.034301154
122	0xbd12e653	-0.035864186
123	0xbdd34c80	-0.103173256
124	0x3c33a931	0.010965631
125	0x3d039fc3	0.032134783
126	0x3d96ee2f	0.07369649
127	0x3e0c640f	0.13710044
128	0xbdfd3c3f	-0.12365007
129	0xbc968065	-0.01837177
130	0x3cb8a860	0.022541225
131	0x3dde91b0	0.108676314
132	0x3de9120d	0.11380396
133	0xbd8975ca	-0.067119196
134	0xbd9b9a76	-0.075978205
135	0xbdccb807	-0.09996038
136	0x3ddb4306	0.10706143
137	0x3da787fa	0.08180232
138	0x3da25b54	0.07927576
139	0x3d805699	0.06266517
140	0x3d409713	0.047019076
141	0xbdbfefa4	-0.0937188
142	0x3dd8e315	0.105901875
143	0xbd060043	-0.032715093
144	0xbdbab42b	-0.091163956
145	0x3d81a498	0.06330222
146	0xbd066a90	-0.03281647
147	0xbdad0ce1	-0.08449722
148	0xbdbf049e	-0.093270525
149	0xbd0bfca0	-0.03417647
150	0xbd389d57	-0.045071926
151	0x3d535523	0.051594865
152	0xbd16162a	-0.03664223
153	0x3c578e7f	0.013156532
154	0x3c3691b3	0.011143136
155	0x3dae47b2	0.085097685
156	0x3c73ea55	0.014887412
157	0xbda5bae6	-0.08092289
158	0x3df39088	0.118928015
159	0xbd992649	-0.074780054
160	0xbd64a2c9	-0.055819307
161	0x3d5c3f4f	0.053771313
162	0x3d0d9dd6	0.034574352
163	0xbd946bf4	-0.07247153
164	0x3d3af85d	0.045647014
165	0x3c60946c	0.0137072615
166	0x3df05c0d	0.11736307
167	0x3daedb44	0.08537915
168	0x3d60a1ce	0.05484181
169	0xbd3ddb1c	-0.046351537
170	0xbb80fbe0	-0.003936276
171	0xbb299608	-0.002587678
172	0x3c5f4f03	0.013629678
173	0xbd28cc5f	-0.04121053
174	0x3c835dcd	0.016035939
175	0x3d2aa755	0.041663487
176	0x3da3b9b7	0.07994407
177	0xbbd61dbe	-0.0065343073
178	0xbdac2671	-0.084057696
179	0x3d0a5853	0.03377564
180	0xbbc146f7	-0.0058983522
181	0xbdd13f78	-0.10217184
182	0x3d9b4e8b	0.0758334
183	0xbda2a0b0	-0.07940805
184	0xbdc438c0	-0.09581137
185	0x3d67e40c	0.056613967
186	0xbc0fec9c	-0.008784439
187	0xbb7af604	-0.003829361
188	0x3cea341e	0.028589305
189	0x3db8ed0e	0.090295896
190	0xbd4cb693	-0.049978804
191	0xbba41b34	-0.0050081257
192	0xbde29162	-0.11062886
193	0x3b34b3fc	0.00275731
194	0xbd927c82	-0.07152654
195	0x3c8597da	0.01630776
196	0xbcc4923b	-0.02399551
197	0x3d9b3e49	0.07580239
198	0xbdcf43d4	-0.10120359
199	0xbd8a32d8	-0.06747979
200	0xbc3505c7	-0.011048741
201	0x3ddd7bf5	0.108146586
202	0xbdfbc65f	-0.12293696
203	0x3d8236b0	0.06358087
204	0xbdd9f3b5	-0.106421866
205	0x3b289a74	0.0025726827
206	0x3d87d771	0.06632889
207	0xbdafadaa	-0.08578046
208	0x3db25841	0.08708239
209	0xbdab3a20	-0.08360696
210	0xbc9dbf25	-0.019256184
211	0xbddae979	-0.106890626
212	0x3da324fc	0.079660386
213	0xbd9c941f	-0.07645439
214	0x3df517da	0.1196744
215	0x3d803d13	0.06261649
216	0xbdda70b0	-0.10666025
217	0x3d4afb9a	0.049556352
218	0x3d1328d3	0.035927605
219	0x3d0a16ad	0.03371303
220	0x3da93942	0.08262874
221	0x3d7d92bc	0.061907515
222	0x3d256201	0.040376667
223	0x3dc111da	0.09427233
224	0x3d44a08a	0.048004664
225	0xbcfa8685	-0.030581722
226	0xbd9306b7	-0.07179015
227	0x3db2937b	0.08719536
228	0xbd86b79d	-0.0657799
229	0xbdecc27f	-0.11560535
230	0x3d0a9927	0.033837464
231	0xbc89465f	-0.016757188
232	0xbb3f5ab7	-0.0029198357
233	0x3d58c5b8	0.052922934
234	0xbd653403	-0.055957805
235	0xbc16c121	-0.009201319
236	0x3dc8363a	0.09775968
237	0xbd84c5e3	-0.064830564
238	0x3dff1626	0.12455396
239	0x3ae9bedc	0.001783337
240	0xbc83cba0	-0.016088307
241	0xbd62e319	-0.05539236
242	0xbe02113c	-0.12701887
243	0x3dc47a51	0.095936425
244	0xbdaac8b4	-0.08339062
245	0x3dd2a561	0.1028545
246	0xbd703c62	-0.058651336
247	0xbd2c6356	-0.04208692
248	0xbdf517be	-0.11967419
249	0x3d58ef62	0.05296267
250	0xbdaec07d	-0.08532808
251	0xbd9a5c35	-0.07537118
252	0x3df81e17	0.12115114
253	0xbc971f60	-0.018447578
254	0x3da92bb4	0.08260289
255	0x3dc72653	0.09724107

weight f4 [16]
0	0x3f7fd004	0.9992678
1	0x3f803cd7	1.0018567
2	0x3f7faafd	0.9987028
3	0x3f7f733b	0.997852
4	0x3f7f0d7c	0.9962995
5	0x3f7ffe2c	0.9999721
6	0x3f7fb154	0.99879956
7	0x3f8026bd	1.0011822
8	0x3f7fd0a2	0.99927723
9	0x3f802e8e	1.0014207
10	0x3f803379	1.0015708
11	0x3f7ff4dd	0.99983007
12	0x3f803e35	1.0018984
13	0x3f804f3c	1.002418
14	0x3f8008ff	1.0002745
15	0x3f80054b	1.0001615

bias f4 [16]
0	0xbb324117	-0.002719944
1	0x3adf23b7	0.0017024194
2	0xba532820	-0.00080549903
3	0xbb6c9b4a	-0.0036103302
4	0xbacf4a94	-0.0015815073
5	0xb919d83c	-0.0001467177
6	0xb9470994	-0.00018981687
7	0x39511232	0.00019938571
8	0x38adf3c4	8.294688e-05
9	0x3a700596	0.0009156106
10	0x3a9ae0cb	0.0011816261
11	0xbaf7e21d	-0.0018911992
12	0x3a0f5d9b	0.00054689654
13	0x3b3464a6	0.0027525811
14	0xba8752a4	-0.0010324311
15	0x38078b41	3.23162e-05

running_mean f4 [16]
0	0x3e8fc735	0.2808167
1	0xbeda04d8	-0.4258182
2	0x3f21e5b1	0.63241106
3	0x3e097402	0.1342316
4	0x3ec5c1e9	0.38624504
5	0xbf351e58	-0.70749426
6	0xbd3e26ea	-0.04642383
7	0xbe62e451	-0.22157408
8	0x3f927708	1.1442575
9	0xbe5b68d0	-0.21426702
10	0xbe9515f2	-0.29118305
11	0x3eac8706	0.33696765
12	0x3d3b665c	0.045751914
13	0x3c01ac94	0.007914681
14	0xbd1b2323	-0.037875306
15	0x3e087408	0.13325512

running_var f4 [16]
0	0x3e8e9b32	0.2785278
1	0x3e20daa5	0.15708406
2	0x3b62982b	0.0034575562
3	0x3b78f579	0.003798811
4	0x3d897127	0.06711035
5	0x3cb12aee	0.021626916
6	0x3e51211a	0.20422783
7	0x3fa5421e	1.2910802
8	0x3d19a59f	0.037511464
9	0x3be25efe	0.0069082966
10	0x3e0dead3	0.1385911
11	0x3e71ee52	0.23626068
12	0x3db9a3b2	0.090644255
13	0x3d2ae1e1	0.04171932
14	0x3e865e95	0.26244035
15	0x3d48203c	0.048858866

weight f4 [16, 1, 1, 16]
0	0xbd865769	-0.06559641
1	0x3d03f249	0.032213483
2	0x3e537be7	0.20652734
3	0x3dccbea5	0.099973
4	0x3e542c92	0.20720127
5	0xbc292335	-0.010323335
6	0x3e669d12	0.22520855
7	0x3e4247a2	0.18972638
8	0x3aadfedf	0.001327481
9	0x3c858aa2	0.016301457
10	0x3e21d25b	0.158029
11	0xbd7a41bf	-0.061097857
12	0xbe715712	-0.23568371
13	0xbdf7c624	-0.12098339
14	0x3ce1f092	0.027580533
15	0xbda4704d	-0.08029232
16	0x3cd25f96	0.025680345
17	0xbda92b0d	-0.082601644
18	0xbdf638b1	-0.12022532
19	0xbd3acd65	-0.045606036
20	0xbe1b5bb5	-0.15171702
21	0xbe4b9ef0	-0.19884849
22	0x3dda7772	0.10667314
23	0xbe16f31e	-0.1474118
24	0x3d36450b	0.04449944
25	0xbe7d8bbd	-0.24760337
26	0x3cc75f93	0.024337566
27	0xbd0511d2	-0.032487698
28	0xbe31da07	-0.17368327
29	0xbe442abd	-0.19156928
30	0x3e18a93f	0.14908312
31	0x3e5d9818	0.2164005
32	0xbdf0b48a	-0.11753185
33	0x3e26ee43	0.16301827
34	0xbe59a0dd	-0.2125277
35	0xbd877996	-0.066149876
36	0xbc6f32a1	-0.014599473
37	0x3df96854	0.12178102
38	0xbbd0e352	-0.006374755
39	0x3e38fdbb	0.1806554
40	0xbe399f1c	-0.18127102
41	0xbe79c1f7	-0.24390398
42	0x3cf60239	0.030030357
43	0xbdf1804f	-0.11792051
44	0x3e647c11	0.22312953
45	0x3e723e96	0.23656687
46	0x3e151301	0.1455803
47	0x3e5cbca9	0.21556343
48	0xbd8a4455	-0.067513146
49	0x3c9af147	0.018913878
50	0xbe05954d	-0.13045235
51	0x3c247bf7	0.010039321
52	0x3d90fa10	0.07078946
53	0xbe122db5	-0.14275248
54	0xbe621b0a	-0.22080627
55	0x3ba62ed3	0.0050715
56	0xbe2ab4f9	-0.16670598
57	0x3e24edc4	0.16106325
58	0xbd91f357	-0.071264915
59	0x3e55b525	0.20869882
60	0x3e36a836	0.17837605
61	0x3dcb948b	0.09940442
62	0x3e6bb89e	0.23019645
63	0x3d53bf7c	0.051696286
64	0xbe4083e7	-0.18800317
65	0xbe27e99c	-0.16397709
66	0xbe0bc410	-0.1364901
67	0xbe1f7938	-0.15573585
68	0x3d969915	0.07353417
69	0xbb5674a2	-0.0032723327
70	0x3cd9dfb0	0.02659592
71	0x3e40f822	0.18844655
72	0xbe372f22	-0.17889073
73	0xbe42e689	-0.19033255
74	0xbdbab2e1	-0.0911615
75	0x3e6b5d37	0.22984777
76	0x3d0df497	0.034657087
77	0xbc33627a	-0.010948772
78	0xbd92b2c7	-0.07163005
79	0xbdc55646	-0.09635596
80	0xbdb5f0c7	-0.08883815
81	0x3e4c3f0f	0.1994593
82	0xbe3ba2ad	-0.18323775
83	0xbe05f586	-0.13081941
84	0x3e410d7e	0.18852803
85	0x3d4c3710	0.0498572
86	0xbe2a0cfd	-0.16606517
87	0xbe7d542f	-0.24739145
88	0xbcc3ec3c	-0.023916356
89	0x3d4298c9	0.04750899
90	0xbe2fa674	-0.1715334
91	0xbd33e668	-0.043920904
92	0xbe5a8633	-0.21340255
93	0xbe0e3165	-0.1388603
94	0x3e7cf46c	0.24702615
95	0x3db05fea	0.08612044
96	0xbd5357c0	-0.051597357
97	0xbe7b4ae1	-0.24540283
98	0x3d5ad36e	0.05342429
99	0xbc244685	-0.010026579
100	0x3e45ad08	0.19304287
101	0xbe39cd96	-0.18144831
102	0xbe2708d1	-0.16311957
103	0xba3d385c	-0.0007218176
104	0xbe5d07f2	-0.21585062
105	0x3e06055b	0.1308798
106	0xbde2c88f	-0.1107341
107	0xbe2f4b9f	-0.17118691
108	0xbd988a41	-0.07448245
109	0xbc4e594f	-0.012594535
110	0x3dd171a0	0.102267504
111	0x3d7c9632	0.061666675
112	0xbd4c2102	-0.049836166
113	0xbd87597f	-0.06608867
114	0x3de51e84	0.11187461
115	0xbe4e8e56	-0.20171484
116	0x3e2db95b	0.16965239
117	0xbe7000b6	-0.23437771
118	0xbaef4db5	-0.0018257411
119	0x3d1e3fc6	0.038635038
120	0xbb444142	-0.0029946123
121	0xbdb32e96	-0.0874912
122	0x3da7e170	0.08197296
123	0x3d7a940e	0.061176352
124	0x3e1bf4f4	0.15230161
125	0xbc50f450	-0.012753561
126	0xbd99979f	-0.074996226
127	0x3d977595	0.07395474
128	0xbdb6e382	-0.089301124
129	0x3e39bfda	0.18139592
130	0xbca0afd0	-0.019615084
131	0x3e55b394	0.20869285
132	0xbe439cfb	-0.19102852
133	0xbe3dc6f6	-0.18532929
134	0x3e172b0d	0.14762516
135	0xbbb75fb6	-0.0055961264
136	0x3d59b2c9	0.05314902
137	0xbe59b678	-0.21261013
138	0xbe35adb1	-0.1774204
139	0x3e4efdf0	0.20214057
140	0xbd76d504	-0.06026174
141	0x3d138fba	0.03602574
142	0x3da270d2	0.07931675
143	0x3d074c56	0.033031784
144	0x3d4c7c83	0.04992343
145	0x3d2dfd8c	0.04247813
146	0xbe10fae7	-0.14158212
147	0xbc518927	-0.012789047
148	0x3e652730	0.2237823
149	0xbe43ee60	-0.19133902
150	0xbdcd61c9	-0.10028417
151	0x3e3bc0dc	0.18335289
152	0x3d5609aa	0.05225531
153	0x3da9554a	0.08268221
154	0xbe194df5	-0.14971144
155	0x3d48e7b9	0.049049113
156	0xbe44b902	-0.192112
157	0x3c1eec9d	0.009699968
158	0x3d5c2168	0.053742796
159	0xbd0a3a3f	-0.033746954
160	0xbe3d2404	-0.1847077
161	0xbb987ea0	-0.0046537668
162	0x3e509044	0.20367533
163	0x3e0681b1	0.13135411
164	0xbe44fb3f	-0.19236468
165	0x3b97b5cf	0.0046298276
166	0x3e5a5fa9	0.21325554
167	0xbe52e041	-0.20593359
168	0x3bd0333a	0.006353763
169	0x3d559185	0.05214073
170	0x3e5cf9be	0.21579644
171	0x3d7ee7cc	0.062232777
172	0x3cbe5fd9	0.023239063
173	0x3e159a88	0.1460973
174	0xbe30ce0c	-0.172661
175	0x3ccbe53e	0.024889585
176	0x3e5e9a93	0.21738653
177	0x3d115b3c	0.0354874
178	0x3e098bbd	0.13432212
179	0xbe05351c	-0.13008541
180	0xbd21d592	-0.039510317
181	0xbe1534a9	-0.1457087
182	0xbd97bc75	-0.07408992
183	0xbcb225df	-0.021746574
184	0x3dc68a1f	0.09694313
185	0xbe7019f5	-0.23447402
186	0xbe3cd502	-0.18440631
187	0x3dad3969	0.08458216
188	0x3e18c51a	0.14918938
189	0xbd8018cd	-0.062547304
190	0xbe1a15b4	-0.15047342
191	0x3cf32c0c	0.02968409
192	0xbe4c1c42	-0.19932655
193	0x3c2393ad	0.009983939
194	0xbced638f	-0.028978137
195	0x3d5bb36a	0.0536379
196	0x3dc036a2	0.093854204
197	0x3e2c3672	0.16817644
198	0x3dca4ebf	0.09878301
199	0x3e7443b5	0.23853953
200	0xbc6db067	-0.01450739
201	0xbe4a2351	-0.19740035
202	0xbe6822ca	-0.22669521
203	0x3ce32f01	0.027732374
204	0xbe112b6b	-0.14176719
205	0xbcd73025	-0.026268074
206	0xbe02013d	-0.12695785
207	0xbe021196	-0.12702021
208	0xbd2c4f94	-0.04206808
209	0x3e37987a	0.17929259
210	0x3b675b3c	0.0035302183
211	0xbbdc99b1	-0.0067321886
212	0x3de15a06	0.11003499
213	0x3cd3bbed	0.025846446
214	0x3e742461	0.23842002
215	0xbe35debb	-0.17760746
216	0x3d02dea6	0.031950615
217	0x3db98eab	0.09060415
218	0xbdf61fe8	-0.120178044
219	0xbda2dd99	-0.07952423
220	0xbe30ddd0	-0.17272115
221	0x3dd75705	0.105146445
222	0x3e0fc278	0.14039028
223	0x3e243d8b	0.16039102
224	0xbcea64f2	-0.028612588
225	0xbdbeafd6	-0.09310882
226	0xbe6dbcf1	-0.23216607
227	0x3c2b607a	0.0104600135
228	0xbd5a1edf	-0.053252097
229	0xbe68985d	-0.22714372
230	0xbe3b9409	-0.1831819
231	0xbe2ba4c1	-0.16762067
232	0x3dd76f93	0.10519328
233	0x3e432c78	0.19059932
234	0xbe522921	-0.20523502
235	0xbe398f84	-0.18121153
236	0x3d5efc68	0.054439932
237	0xbda1c0b3	-0.078980826
238	0x3e1f6b66	0.15568313
239	0xbe64fc8b	-0.22361962
240	0x3e13e339	0.14442147
241	0xbd875ee2	-0.06609894
242	0xbd0d65f8	-0.034521073
243	0xbd7d54b7	-0.06184837
244	0x3e34d386	0.17658815
245	0xbdc619e1	-0.09672905
246	0x3dfd0093	0.12353625
247	0xbe2c74f7	-0.16841494
248	0xbe546d64	-0.20744854
249	0xbe6197c9	-0.22030558
250	0x3d94f23c	0.07272765
251	0xbd91ee06	-0.071254775
252	0xbdc655cc	-0.09684333
253	0xbe4ce46f	-0.20009016
254	0x3d49b6ac	0.049246475
255	0xbe55b9f5	-0.20871718

weight f4 [16, 16, 1, 1]
0	0xbd2a3e67	-0.041563418
1	0x3d27fe8a	0.04101423
2	0xbde2b3c7	-0.11069446
3	0x3dfd77db	0.12376376
4	0xbe5a5ed0	-0.2132523
5	0x3d074360	0.03302324
6	0x3e1ba5d6	0.1519998
7	0x3e15cb37	0.14628302
8	0x3d90855e	0.07056688
9	0xbd961ec9	-0.073300906
10	0xbe363ab0	-0.17795825
11	0xbd5af623	-0.05345739
12	0x3e0cc5fb	0.13747399
13	0xbe0a8679	-0.1352786
14	0x3e3311c9	0.17487253
15	0x3e0679d6	0.13132414
16	0xbe53b162	-0.20673135
17	0x3e2f3a93	0.17112188
18	0xbcb963d6	-0.022630613
19	0x3e27aa23	0.16373496
20	0x3e1aca3a	0.15116206
21	0xbd9f3b17	-0.07774942
22	0x3a923349	0.00111542
23	0xbe31578d	-0.17318554
24	0x3d58be33	0.052915763
25	0x3e644a53	0.22293977
26	0xbe1919d1	-0.14951254
27	0xbda7fd64	-0.08202627
28	0xbd0d6261	-0.03451765
29	0x39ffc3b6	0.00048783206
30	0x3e1cd6f7	0.15316378
31	0xbe4f31a6	-0.20233783
32	0xbdcd0acf	-0.10011827
33	0xbc4a5e1b	-0.012351538
34	0x3e64e9f4	0.22354871
35	0xbe6d5933	-0.23178558
36	0xbdb78ced	-0.08962426
37	0x3e6248e8	0.22098124
38	0x3d4a7751	0.049430195
39	0x3e670f19	0.22564353
40	0xbd67ceac	-0.056593582
41	0xbd93e770	-0.072218776
42	0xbe77a442	-0.24183753
43	0x3e38af16	0.1803554
44	0xbe40e4f9	-0.18837346
45	0x3e7b8e85	0.24566086
46	0x3dcdf29e	0.10056041
47	0x3e09c61b	0.13454477
48	0x3b811d7a	0.0039402815
49	0xbe315960	-0.1731925
50	0x3cb908d9	0.022587227
51	0x3e74b619	0.2389759
52	0xbe5c5bc0	-0.21519375
53	0x3e14f4f0	0.14546561
54	0xbe3e987b	-0.18612854
55	0x3e03865c	0.12844223
56	0xbe6f862f	-0.2339103
57	0x3e5f9c40	0.21836948
58	0x3e5aa562	0.21352151
59	0x3cf96a64	0.030446239
60	0xbdabe723	-0.08393695
61	0x3e3d8b76	0.18510231
62	0x3e78554a	0.24251285
63	0x3d4894d3	0.048970055
64	0x3e58282f	0.21109079
65	0x3dfee8aa	0.12446721
66	0x3d9665a5	0.07343606
67	0xbe20715d	-0.15668245
68	0xbd71aac0	-0.05900073
69	0xbe5faa23	-0.21842246
70	0xbe68e28a	-0.22742668
71	0x3d8c6358	0.06854886
72	0xbe144d10	-0.14482522
73	0xbdfa00b8	-0.12207168
74	0x3d7ed11c	0.06221114
75	0x3e49944b	0.19685476
76	0x3e48d39a	0.1961197
77	0xbe3094d6	-0.17244276
78	0x3e4a5d5e	0.1976218
79	0xbe692c16	-0.22770724
80	0xbe56fd5e	-0.2099509
81	0x3e7ac615	0.24489625
82	0x3e2c3462	0.16816857
83	0xbe7a617a	-0.24451247
84	0xbd17fde5	-0.037107367
85	0x3b9763a0	0.0046200305
86	0xbd766ddd	-0.060163368
87	0xbe4c6a80	-0.19962502
88	0x3e5e183c	0.21688932
89	0xbe17b6d5	-0.14815839
90	0xbd629981	-0.055322174
91	0xbe2d5c6f	-0.16929792
92	0x3e54de44	0.20787913
93	0x3e58a933	0.21158294
94	0xbe735203	-0.23761754
95	0x3d5a0d6f	0.053235468
96	0x3c812313	0.015763795
97	0xbde6def7	-0.11272996
98	0x3dda1946	0.10649352
99	0x3e09a058	0.13440073
100	0xbd43c577	-0.04779574
101	0xbd3802e3	-0.044924628
102	0x3e3c9025	0.18414362
103	0x3e7ccb02	0.24686816
104	0x3bec9af1	0.007220619
105	0xbd226ed2	-0.039656468
106	0xbe10ec9f	-0.14152764
107	0x3e0317eb	0.12802093
108	0xbdd226ac	-0.10261282
109	0xbe6b2b08	-0.22965634
110	0x3e1b4de6	0.15166435
111	0x3e6ea2af	0.23304246
112	0x3e3629ee	0.17789432
113	0x3e01f514	0.12691146
114	0xbd7584df	-0.05994117
115	0x3e71d310	0.2361567
116	0x3e54a14c	0.20764655
117	0x3d317d2e	0.04333227
118	0x3bfe6610	0.0077636316
119	0xbd3ad546	-0.04561355
120	0xbe634591	-0.22194506
121	0x3e56af62	0.2096534
122	0x3e254543	0.16139702
123	0xbd8f197b	-0.06987282
124	0x3e7f0ced	0.24907275
125	0x3e544618	0.20729864
126	0xbdc9f906	-0.098619506
127	0x3daa1639	0.0830502
128	0xbe4c8130	-0.19971156
129	0xbdac491d	-0.08412383
130	0x3dbbc42c	0.09168276
131	0xbe2322c0	-0.15931225
132	0x3e1dc33f	0.15406512
133	0xbdd34c43	-0.1031728
134	0x3c46e06e	0.012138469
135	0x3e1a83b4	0.15089303
136	0x3d157e4c	0.0364974
137	0xbde1cda7	-0.11025553
138	0xbe477b99	-0.19480743
139	0x3e04d7b4	0.12972909
140	0xbd56fd3f	-0.052487608
141	0xbde27194	-0.110568196
142	0xbd8f2a83	-0.0699053
143	0xbdf8c133	-0.12146225
144	0x3e0d6a0f	0.1380999
145	0x3e2f93e3	0.17146258
146	0xbd17a85b	-0.03702579
147	0xbe7d4205	-0.24732216
148	0xbe29c9fe	-0.1658096
149	0xbdd89530	-0.1057533
150	0xbdab85fa	-0.083751634
151	0x3e095a42	0.13413337
152	0xbddf5b2c	-0.109060615
153	0x3e4a3999	0.19748534
154	0x3e05ee2c	0.13079137
155	0xbe1f9394	-0.1558364
156	0x3dadfc27	0.0849536
157	0xbe7c5a71	-0.24643876
158	0x3dfbcaa6	0.122945115
159	0xbe27fc77	-0.16404901
160	0x3cf5a78c	0.02998712
161	0x3e3e5c60	0.18589926
162	0x3dd1e22c	0.10248217
163	0xbe19088f	-0.14944671
164	0x3d507f52	0.050902672
165	0x3ddbbd03	0.107294105
166	0x3d5e1a70	0.05422443
167	0xbbb4f62b	-0.0055225096
168	0xbd94d535	-0.072672285
169	0xbe4a51e4	-0.19757801
170	0xbe098645	-0.13430126
171	0xbc935be3	-0.017988151
172	0xbe00d53a	-0.1258134
173	0xbe13c5b3	-0.14430885
174	0xbe3d5b3d	-0.18491836
175	0x3cbbc5a7	0.022921396
176	0xbe64b11e	-0.2233319
177	0xbdbb361e	-0.091411814
178	0xbe771b44	-0.24131495
179	0x3e6df93b	0.23239605
180	0xbe550be6	-0.2080532
181	0x3d933c85	0.071892776
182	0xbe5ce09c	-0.21570057
183	0xbc8b9f77	-0.017043812
184	0xbe550cfb	-0.20805733
185	0x3e580ace	0.21097872
186	0xbca38e9b	-0.01996546
187	0x3d9a02ff	0.07520103
188	0xbe1ba2cb	-0.1519882
189	0xbe4e3a17	-0.20139347
190	0xbe802953	-0.25031528
191	0x3e21fc91	0.15819003
192	0xbe7740b3	-0.24145775
193	0xbe1d0d9b	-0.15337221
194	0x3d64e316	0.05588063
195	0x3e75d55c	0.24007171
196	0xbe59977a	-0.2124919
197	0x3e3b4dd9	0.18291415
198	0x3dfd3878	0.12364286
199	0xbdc4227e	-0.09576891
200	0xbe5a84e5	-0.21339758
201	0xbe2e16cb	-0.17000882
202	0xbcad3ba2	-0.0211466
203	0x3a1815f2	0.000580161
204	0xbddff2ad	-0.109349586
205	0xbd9d93e7	-0.07694226
206	0x3e0f1310	0.13972116
207	0x3db2d103	0.08731272
208	0xbe32afe0	-0.17449903
209	0x3d45a3a7	0.048251774
210	0x3d7e7c7f	0.062130447
211	0xbe65a686	-0.22426805
212	0x3e6ec859	0.23318614
213	0xbb2bf57c	-0.002623885
214	0xbe3bfe67	-0.18358766
215	0xbd761fac	-0.0600888
216	0xbe54206d	-0.20715494
217	0xbc9b46fc	-0.018954746
218	0xbc30d8b0	-0.01079385
219	0x3e49b771	0.19698884
220	0x3b227bfd	0.002479314
221	0xbe39fc48	-0.18162644
222	0xbe62780f	-0.22116111
223	0xbe790de7	-0.2432171
224	0x3e38ac6c	0.18034524
225	0x3e65ad00	0.22429276
226	0x3daa6c47	0.083214335
227	0xbcb3c9b2	-0.021946762
228	0x3d828f0e	0.06374942
229	0xbda0d061	-0.07852245
230	0xbe125cd2	-0.1429322
231	0xbe42463f	-0.1897211
232	0x3e2a3820	0.16622972
233	0xbe301942	-0.17197135
234	0xbd9f0504	-0.077646285
235	0xbc9a0f96	-0.01880626
236	0x3e2affb3	0.16699104
237	0x3e81def4	0.25365412
238	0xbd1c59fc	-0.038171753
239	0x3e78e19c	0.24304813
240	0xbdbd41a2	-0.09241034
241	0x3e4ba63e	0.19887635
242	0x3d391e41	0.045194868
243	0x3e05c309	0.13062681
244	0x3e276334	0.16346437
245	0x3df4e330	0.11957395
246	0x3ca79714	0.020457782
247	0xbda58e01	-0.08083726
248	0xbdd3946c	-0.103310436
249	0x3e034613	0.128197
250	0xbde07199	-0.10959167
251	0x3e30bab9	0.17258729
252	0xbe28e902	-0.16495135
253	0x3e62d365	0.22150953
254	0x3e212c35	0.1573952
255	0xbde86f5a	-0.113493636

weight f4 [16]
0	0x3f7f3624	0.9969199
1	0x3f7ffee8	0.9999833
2	0x3f7edcde	0.99555767
3	0x3f7f7535	0.9978822
4	0x3f7e30bd	0.9929312
5	0x3f7ece7c	0.9953382
6	0x3f7f9edd	0.9985178
7	0x3f7fd050	0.99927235
8	0x3f7f20d3	0.9965946
9	0x3f7e9bfc	0.99456763
10	0x3f7f1fb4	0.9965775
11	0x3f7f5e88	0.9975362
12	0x3f7f3ec9	0.9970518
13	0x3f7f1b11	0.99650675
14	0x3f7f6514	0.9976361
15	0x3f7e30cd	0.99293214

bias f4 [16]
0	0x3a41c9ba	0.00073924253
1	0xbbab7a3a	-0.0052330764
2	0xbb511ef3	-0.0031909316
3	0xbb381dbf	-0.0028093902
4	0xbc24b9d2	-0.010054069
5	0xbbb73f1f	-0.0055922414
6	0xbb8cdef2	-0.004299038
7	0xba233361	-0.00062256126
8	0xbb9acef8	-0.0047243796
9	0xbc02e99a	-0.007990265
10	0xbbf8bd0a	-0.0075908946
11	0xbbb9ebe2	-0.0056738714
12	0xbbf3b802	-0.007437707
13	0xbbd848d6	-0.0066004796
14	0xbbad2e9f	-0.0052850987
15	0xbc32377b	-0.010877485

running_mean f4 [16]
0	0xbdaa1809	-0.083053656
1	0xbd6c1266	-0.057634734
2	0xbd4c1a0a	-0.04982952
3	0x3d260431	0.04053134
4	0x3c9364ad	0.017992342
5	0x3c1030fa	0.008800739
6	0xbd92a2b1	-0.07159937
7	0x383b6270	4.467595e-05
8	0xbc3bd191	-0.011463539
9	0x3ae52702	0.0017482939
10	0xbcb76d95	-0.02239112
11	0x3d23ac86	0.039959453
12	0xbd1286a2	-0.035772927
13	0x3c72aa74	0.014811147
14	0xbbee0979	-0.007264313
15	0xbd894f43	-0.06704571

running_var f4 [16]
0	0x3d8f80d7	0.07006996
1	0x3e0547b2	0.13015631
2	0x3dc414c2	0.09574272
3	0x3e487a7d	0.19577976
4	0x3dc9cd79	0.09853644
5	0x3dd43914	0.10362449
6	0x3da00727	0.07813864
7	0x3e0768ed	0.1322362
8	0x3dc75d2f	0.0973457
9	0x3d8ce352	0.068792954
10	0x3db47b18	0.08812541
11	0x3de2e4c8	0.11078793
12	0x3d810fbd	0.0630183
13	0x3e4436ea	0.19161573
14	0x3e24d499	0.16096725
15	0x3de08d74	0.1096448

weight f4 [3, 1024]
0	0xbcf17199	-0.029473113
1	0x3ce3c2df	0.027802883
2	0xbd04a081	-0.03237963
3	0x3942073f	0.00018503981
4	0x3cfb207b	0.030655136
5	0x3c14f125	0.009090696
6	0xbb9383b5	-0.0045017847
7	0xbce3b7c3	-0.027797585
8	0xbccf28e7	-0.025288058
9	0x3cb17d0d	0.021666074
10	0xbc71c146	-0.014755553
11	0xbcb9cb8d	-0.022680068
12	0x3ba7f7f6	0.005125995
13	0xbcdf6be8	-0.027273133
14	0xbcc9cf5c	-0.02463501
15	0xbb585077	-0.0033006945
16	0x3cb2fe00	0.021849632
17	0x3c8803f3	0.016603446
18	0xba61169a	-0.0008586437
19	0x3bf87d04	0.0075832624
20	0x3cae3c03	0.02126885
21	0x3c4197a2	0.011815937
22	0xbc5c1a54	-0.0134340115
23	0x3c76bb5b	0.015059317
24	0xbcccdeb7	-0.025008542
25	0x3d045aec	0.032313272
26	0xbc9d7721	-0.019221844
27	0x3c780ed8	0.015140258
28	0xbc8680c1	-0.016418817
29	0xbca5edb9	-0.020254957
30	0xbcee307b	-0.029075852
31	0x3c2e1aa9	0.010626473
32	0xbc1306ba	-0.008973772
33	0xbc5a6025	-0.013328587
34	0x3c3e0c84	0.011599664
35	0x3c85de0b	0.01634123
36	0x3beaeaa7	0.007169086
37	0x3c585f0f	0.0132062575
38	0x3ce2941b	0.027658513
39	0xbcabd964	-0.020977683
40	0xbc9f61ad	-0.019455755
41	0x3cf085d3	0.029360687
42	0xbcb5877d	-0.022159332
43	0x3c1edd55	0.009696324
44	0xbb11f702	-0.0022272472
45	0x3c096732	0.00838642
46	0xbcf47a05	-0.02984334
47	0x3a331f0e	0.00068329356
48	0x3b86cd17	0.004113804
49	0x3caabc38	0.020841703
50	0x3a8cfbd0	0.0010756198
51	0x3c86e399	0.016465949
52	0x3d05994b	0.032616895
53	0xbc780f2b	-0.015140335
54	0x3cde066b	0.02710267
55	0xbcde7088	-0.027153268
56	0xbcbf9057	-0.023384256
57	0x3b7c2728	0.0038475487
58	0xbc7c7c55	-0.015410502
59	0x3b2a66a4	0.002600112
60	0xbcd04fe8	-0.025428727
61	0xbb616e66	-0.0034398078
62	0x3b3eef24	0.0029134238
63	0x3cd3e48a	0.025865812
64	0xbc1872ba	-0.009304697
65	0x3b4dd1e8	0.0031405631
66	0x3ac51916	0.0015037383
67	0x3c9f4f1d	0.019446904
68	0xbc922ebf	-0.017844556
69	0xbc1ae3d8	-0.009453736
70	0xbb8d9405	-0.004320624
71	0x3c221b7e	0.00989425
72	0xbcd4efd1	-0.02599326
73	0x3c431aed	0.011908275
74	0x3cba4569	0.022738175
75	0xbc8da74f	-0.017291693
76	0x3cc97e5b	0.024596384
77	0xbd0b3624	-0.03398718
78	0x3d1181d5	0.035524208
79	0x3c25a38e	0.010109795
80	0x3b54a456	0.0032446585
81	0xbcf37961	-0.029720964
82	0x3c1b123a	0.009464795
83	0xbcbb2185	-0.022843132
84	0xbc1fb5fd	-0.009747979
85	0xbcb286a1	-0.021792712
86	0xbcb4f787	-0.022090686
87	0x3c0c63c8	0.008568712
88	0x3b83d94e	0.0040237075
89	0x3bbe8d36	0.0058151735
90	0x3c970b8a	0.01843812
91	0x3b7e3f04	0.0038794884
92	0x3c6e5227	0.014545954
93	0xbb8d55b1	-0.0043131937
94	0x3c3a862e	0.01138453
95	0xbb45dbbc	-0.0030190786
96	0x3cc08a70	0.023503512
97	0xbba793e8	-0.0051140673
98	0x3c8df208	0.017327324
99	0x3b000bd7	0.0019538307
100	0xbc514af9	-0.0127742225
101	0x3ceade15	0.02867035
102	0x3bbf3bcf	0.005835987
103	0x3c92067a	0.017825354
104	0x3c25287d	0.010080454
105	0xbcb6587c	-0.02225899
106	0x3c446ed2	0.011989312
107	0xbbd5c798	-0.0065240376
108	0xbbf33c68	-0.0074229725
109	0xbcf0ffbc	-0.029418819
110	0xbcf21d99	-0.029555129
111	0xbcad640d	-0.021165872
112	0x3cf13319	0.02944331
113	0xbcbcfbbd	-0.023069257
114	0x3cd3fb00	0.025876522
115	0xbc7ec74b	-0.015550445
116	0xbcfede8d	-0.03111198
117	0xbd074188	-0.03302148
118	0x3cec9147	0.028877867
119	0x3cb3210e	0.021866348
120	0xbca755ef	-0.020426719
121	0x3c5f20cd	0.01361866
122	0x3c1e0b8f	0.0096463105
123	0x3c4c391e	0.01246479
124	0x3cfbf7ae	0.030757751
125	0xbcac7bd9	-0.021055149
126	0xbca8e7cb	-0.02061834
127	0x3cd8e755	0.026477495
128	0xbc8fa699	-0.017535495
129	0xbba025b6	-0.004887308
130	0x3c7ee54a	0.015557596
131	0xbc58292b	-0.013193409
132	0xbac41b8d	-0.0014961824
133	0x3c59a818	0.013284706
134	0xbd30c7d8	-0.043159336
135	0x3d0e1a27	0.03469291
136	0xbd173b8f	-0.036922034
137	0x3c13073e	0.008973895
138	0xbcd643ab	-0.026155313
139	0x3cdd56be	0.027018901
140	0xbcf5a8f4	-0.02998779
141	0xbc6b3e09	-0.014358052
142	0xbb1b9938	-0.0023742449
143	0x3d02440e	0.031803183
144	0x3c4eb3c5	0.012616103
145	0x3ca38742	0.019961957
146	0xbceeca3b	-0.029149165
147	0xbcb0bba5	-0.02157385
148	0xbcc137f7	-0.023586256
149	0xbc585a04	-0.013205055
150	0x3c1c01f8	0.009521954
151	0xbc416bda	-0.011805499
152	0xbd0bfe86	-0.03417828
153	0x3cc2116c	0.023689948
154	0xbc5a053a	-0.01330691
155	0x3c8fb50e	0.017542388
156	0x3ca46bbb	0.020070901
157	0x3b372161	0.002794348
158	0xbcdbb311	-0.026818784
159	0xbc0b63cf	-0.008507683
160	0x3b51929a	0.003197825
161	0xbccbcc2e	-0.024877634
162	0x3c18f1ca	0.009334991
163	0xbd040502	-0.03223134
164	0xbc678c88	-0.014132626
165	0x3b0594e4	0.0020382935
166	0x3c32d157	0.010914168
167	0xbc000963	-0.007814738
168	0x391fccea	0.00015239758
169	0xbcb816fd	-0.0224719
170	0xbcba88f9	-0.022770392
171	0x3b39321a	0.0028258623
172	0x3cb3c3e5	0.021943996
173	0xbc89055b	-0.016726186
174	0xbc81f3bc	-0.015863292
175	0x3b7bca0c	0.003841999
176	0x3b3a4b68	0.0028426293
177	0x3cb69e25	0.022292206
178	0xbc25b0ae	-0.0101129245
179	0x3c5d984d	0.013525081
180	0xbcafbc0c	-0.021451972
181	0x3ccba8d8	0.024860784
182	0xbc6106f4	-0.013734568
183	0x3c3864fb	0.011254544
184	0xbcee1d3d	-0.029066676
185	0xbb8d1207	-0.0043051275
186	0x3b43dc14	0.0029885815
187	0xbcbf9983	-0.02338863
188	0xbb23e559	-0.0025008528
189	0xbc8c23ea	-0.017106969
190	0x3cd4eb91	0.025991233
191	0xbcacbe54	-0.02108685
192	0xbb988ebb	-0.0046556867
193	0xbc123ce4	-0.00892565
194	0x3c89a365	0.016801545
195	0xbbc024c1	-0.0058637564
196	0x3a6d29b1	0.0009047045
197	0x3d2f5053	0.042801213
198	0x3ca3a9ae	0.01997837
199	0xbbe2c6ee	-0.006920687
200	0xbcde146d	-0.02710935
201	0x3bd41345	0.0064720237
202	0xbadfa8c0	-0.0017063841
203	0x3c1d5f91	0.009605304
204	0x3d0490b7	0.032364573
205	0xbb8de165	-0.0043298476
206	0xbce20e0e	-0.027594592
207	0xbc96b00b	-0.01839449
208	0xbc08c167	-0.008346892
209	0x3bfb4b1e	0.007668867
210	0xbb829eee	-0.003986231
211	0x3cd82f02	0.026389603
212	0x3b6a6d80	0.0035770833
213	0xbb85ea50	-0.00408677
214	0x3c62550e	0.013814224
215	0x3c74fe7a	0.01495325
216	0x3bd8bf0c	0.0066145714
217	0xbcb22954	-0.021748222
218	0xbca3dc69	-0.02000256
219	0xbcd88772	-0.026431773
220	0xbc1f6894	-0.009729523
221	0xbc2f1451	-0.010685996
222	0x3c5d5dc7	0.013511128
223	0xbbc875b0	-0.006117545
224	0xbc820d79	-0.015875565
225	0x3be2b03a	0.0069179805
226	0xbcf331c3	-0.029686814
227	0x3bf7ab0d	0.0075582326
228	0xbc2491f9	-0.010044568
229	0x3cc68622	0.024233881
230	0x3c2aee87	0.010432846
231	0x3caed309	0.021340864
232	0xbcbdf471	-0.023187848
233	0xbb96f3b5	-0.004606689
234	0x3ce49b7f	0.027906178
235	0x3bc9c523	0.0061575337
236	0x3b237078	0.0024938863
237	0x3b4cdd96	0.0031260005
238	0x3cc056be	0.023478862
239	0x3ce7415b	0.028229406
240	0xbc0dec38	-0.008662276
241	0x3ce79b3e	0.028272267
242	0x3c9786a3	0.018496817
243	0xbc288a89	-0.010286936
244	0x39676664	0.0002206802
245	0x3ca34bc3	0.019933587
246	0x3c543e1a	0.012954259
247	0x39be936c	0.00036349462
248	0x3c251328	0.010075368
249	0xbc2f8f6d	-0.010715348
250	0x3c219836	0.00986295
251	0x3cc1e19d	0.023667151
252	0xbcad458b	-0.021151325
253	0x3b1cf77c	0.0023951223
254	0x3b5b2462	0.0033438434
255	0x3c741c74	0.014899362

bias f4 [3]
0	0x3caa6ddd	0.02080434
1	0x3c9e10b0	0.019295067
2	0x3ca578cc	0.020199202
