mi/Algorithm/impl/eegnet_model/model_3_4.pkl (torch, 44628 bytes, 18 tensors)

weight f4 [8, 1, 1, 64]
-0.07140131 -0.056779552 0.0555434 -0.012916747 -0.07223005 -0.04317142 -0.063242674 -0.098165214
0.080916144 0.084769234 0.01013492 -0.008464907 -0.10915008 0.058460664 0.104994096 0.10981191
0.07486478 0.11574896 0.032294516 0.040775977 -0.072379254 0.026928363 -0.07067362 -0.090422824
0.116255306 -0.0033298605 -0.015319031 0.06030564 -0.047066096 0.06119222 -0.051956505 0.0372841
0.08688492 -0.05079001 0.008092439 0.035945106 0.07644189 -0.0112573225 -0.06774068 -0.084860936
-0.06299893 -0.06018306 0.087013006 0.09510377 -0.047115177 -0.00924935 0.01289608 -0.047991846
0.024997618 0.108807534 0.067999646 0.059442427 -0.08756773 -0.009495534 -0.05768741 -0.007129185
0.036010068 -0.11846507 0.03499473 -0.08102639 -0.024298934 0.08215192 0.09741441 -0.060952567
0.10297408 -0.114683256 0.067123316 0.076557 0.09622416 -0.056569498 -0.028392576 0.11108059
-0.030436143 -0.0684964 -0.07590069 0.06781884 0.12195768 -0.020552449 -0.066746995 -0.08350064
-0.10924438 -0.06620589 0.108320646 -0.10813594 -0.099934086 0.10518563 -0.051841266 0.014075533
-0.0139111765 -0.08721465 -0.064052336 -0.10622687 0.028779788 -0.0062723975 -0.06667765 -0.0828609
0.015316968 -0.09093238 0.021516806 -0.10775844 -0.046003103 -0.031390812 -0.035412602 0.06610436
0.11495925 -0.025770063 0.0669289 0.041539587 -0.06395508 -0.07055331 -0.08878651 -0.08761898
0.06277876 -0.0766471 0.11570812 0.04925557 -0.06644679 0.014990827 -0.09501462 0.03140823
0.03298943 -0.069268666 -0.06351786 0.08927362 -0.072505295 0.03263391 0.054152977 0.110674836
0.012262843 0.00960557 0.11133826 -0.04209561 -0.10514172 0.08251646 0.039883226 0.019744236
0.09429116 0.012036242 0.02099262 0.07400712 -0.041449446 0.07493083 -0.05570003 -0.049040727
0.06798109 0.026231078 0.036028035 -0.12228921 -0.070050836 -0.047755573 -0.025783759 -0.034821093
0.032209594 -0.054051563 0.0040528644 -0.087475635 -0.10261135 -0.09405091 0.124985054 -0.055530578
0.06003926 0.07982466 0.05626779 0.09580907 0.021160915 -0.07305549 -0.06252053 0.027153319
-0.004956101 -0.123528585 -0.065884806 -0.08847251 0.04847064 -0.01103712 0.07813157 0.03476587
-0.050811518 0.0020408751 0.07137878 -0.056020603 -0.08308513 0.016109651 -0.11467307 0.112818345
0.01005692 -0.09757198 0.04313345 0.117141895 0.00025656295 -0.0049478197 0.08394891 -0.11855522
-0.10551196 0.06990209 0.05129184 -0.043327957 -0.04961052 -0.05768014 -0.07571145 -0.0061804247
-0.045777816 -0.008236727 0.085257426 -0.00076285924 -0.0032608549 0.062004022 0.02611772 -0.037540387
0.12266259 -0.025218375 -0.039497156 0.08296842 0.011246393 -0.06227322 0.02680281 0.090448864
0.092896745 -0.05929989 -0.020851519 -0.069745496 -0.06315585 -0.12182378 0.053175252 -0.074120305
0.08662568 -0.05751687 0.02269781 -0.017166436 -0.06485324 -0.09507178 -0.010749778 -0.026629407
-0.023904355 -0.014399288 -0.075950965 -0.10830206 -0.094401225 -0.057822682 0.038028136 -0.039339602
-0.039793205 0.10037151 -0.012260059 0.038998798 0.07937376 0.06403488 -0.057387594 -0.01501497
0.12738265 0.12545002 -0.05285267 -0.043612886 0.008456346 -0.07308813 -0.110827476 0.018352786
00000000: da3a 92bd ad91 68bd 7a81 633d c3a0 53bc
00000010: 59ed 93bd 84d4 30bd 6085 81bd d80a c9bd
00000020: 5db7 a53d 7e9b ad3d ef0c 263c 65b0 0abc
00000030: 148a dfbd 7374 6f3d 2507 d73d 11e5 e03d
00000040: b552 993d ca0d ed3d 4147 043d b604 273d
00000050: 933b 94bd df98 dc3c 55bd 90bd 9a2f b9bd
00000060: 4317 ee3d ca39 5abb acfc 7abc 0c03 773d
00000070: 61c8 40bd b1a4 7a3d 58d0 54bd 36b7 183d
00000080: b9f0 b13d 2f09 50bd 2696 043c 2d3b 133d
00000090: 918d 9c3d a270 38bc a0bb 8abd 92cb adbd
000000a0: 9505 81bd 8382 76bd e033 b23d c4c5 c23d
000000b0: d8fb 40bd 968a 17bc 144a 533c 1993 44bd
000000c0: cec7 cc3c 7cd6 de3d 6643 8b3d e779 733d
000000d0: b656 b3bd 2893 1bbc a249 6cbd f09b e9bb
000000e0: 4b7f 133d d19d f2bd a256 0f3d 2af1 a5bd
000000f0: 8f0e c7bc 443f a83d 3581 c73d 66a9 79bd
00000100: 13e4 d23d 0edf eabd f377 893d ebc9 9c3d
00000110: 2c11 c53d 6bb5 67bd 8c97 e8bc 387e e33d
00000120: 3855 f9bc d747 8cbd d271 9bbd 9be4 8a3d
00000130: f3c4 f93d 9c5d a8bc a6b2 88bd 6202 abbd
00000140: 84bb dfbd f496 87bd 37d7 dd3d 6076 ddbd
00000150: 3eaa ccbd 906b d73d 8257 54bd 109d 663c
00000160: b4eb 63bc 989d b2bd df2d 83bd 798d d9bd
00000170: 97c3 eb3c af88 cdbb 4b8e 88bd fab2 a9bd
00000180: 05f4 7a3c c13a babd 0344 b03c 75b0 dcbd
00000190: c06d 3cbd a793 00bd ce0c 11bd b961 873d
000001a0: c16f eb3d bd1b d3bc 0512 893d 6a25 2a3d
000001b0: e2fa 82bd 417e 90bd b4d5 b5bd 9471 b3bd
000001c0: 2792 803d 28f9 9cbd 61f8 ec3d 35c0 493d
000001d0: 4115 88bd 169c 753c 0697 c2bd eba5 003d
000001e0: ed1f 073d bbdc 8dbd a715 82bd 16d5 b63d
000001f0: a87d 94bd 23ab 053d 83cf 5d3d 7da9 e23d
00000200: 17ea 483c ae60 1d3c 5005 e43d 726c 2cbd
00000210: 8b54 d7bd 64fe a83d 985c 233d aabe a13c
00000220: b91b c13d a833 453c b7f8 ab3c 0c91 973d
00000230: e5c6 29bd 5675 993d b725 64bd eede 48bd
00000240: ab39 8b3d 8fe2 d63c 2292 133d c472 fabd
00000250: d076 8fbd 599b 43bd 7638 d3bc 90a0 0ebd
00000260: 35ee 033d 2c65 5dbd e4cd 843b 6d26 b3bd
00000270: e625 d2bd c39d c0bd 2af8 ff3d 0874 63bd
00000280: baeb 753d 1d7b a33d 0e79 663d 8c37 c43d
00000290: a859 ad3c 1e9e 95bd c30a 80bd a370 de3c
000002a0: ca66 a2bb 8efc fcbd 9dee 86bd 1331 b5bd
000002b0: 2689 463d 09d5 34bc 7203 a03d a866 0e3d
000002c0: bd1f 50bd 34c0 053b 0a2f 923d dc75 65bd
000002d0: 8928 aabd 63f8 833c b7d9 eabd 4e0d e73d
000002e0: c8c5 243c d1d3 c7bd b3ac 303d 17e8 ef3d
000002f0: 4c83 8639 5221 a2bb 68ed ab3d 14cd f2bd
00000300: a816 d8bd d428 8f3d 6417 523d a878 31bd
00000310: 6734 4bbd 0342 6cbd 9b0e 9bbd 2985 cabb
00000320: 8581 3bbd 56f3 06bc 729b ae3d 9efa 47ba
00000330: 11b4 55bb eef7 7d3d d4f4 d53c f3c3 19bd
00000340: 8636 fb3d c496 cebc c5c7 21bd 59eb a93d
00000350: cb42 383c 3412 7fbd 9191 db3c 413d b93d
00000360: a640 be3d 71e4 72bd ced0 aabc bad6 8ebd
00000370: db57 81bd bf7e f9bd 4bce 593d 63cc 97bd
00000380: ce68 b13d cf96 6bbd c2f0 b93c a0a0 8cbc
00000390: c7d1 84bd feb4 c2bd d61f 30bc ea25 dabc
000003a0: 11d3 c3bc feea 6bbc 2e8c 9bbd 78cd ddbd
000003b0: 6e55 c1bd 7ad7 6cbd 64c3 1b3d 9022 21bd
000003c0: 33fe 22bd 948f cd3d 6ade 48bc 34bd 1f3d
000003d0: b68e a23d b824 833d 410f 6bbd 5901 76bc
000003e0: 9970 023e f875 003e 0b7c 58bd 6da3 32bd
000003f0: 7c8c 0a3c 3baf 95bd 84f9 e2bd 9558 963c

weight f4 [8]
0.9999994 0.9999816 1.0000021 0.9999999 0.99999934 0.9999988 1.000043 0.9999845
00000000: f6ff 7f3f cbfe 7f3f 1200 803f feff 7f3f
00000010: f5ff 7f3f ecff 7f3f 6901 803f fcfe 7f3f

bias f4 [8]
-7.908093e-09 -9.4526925e-08 3.5004923e-08 -1.1480007e-08 1.3810063e-08 1.2022208e-07 4.9825477e-10 -4.977922e-09
00000000: 29dc 07b2 bafe cab3 5258 1633 9b39 45b2
00000010: 4d41 6d32 6516 0134 90f5 0830 440a abb1

running_mean f4 [8]
-0.000375037 0.0013286417 0.00020903612 0.001205312 0.00030962593 -0.0016090821 0.0012646199 -0.0013305559
00000000: 9da0 c4b9 d125 ae3a b530 5b39 8ffb 9d3a
00000010: 4a55 a239 d6e7 d2ba 9ac1 a53a 0c66 aeba

running_var f4 [8]
8.4388594e-05 0.0006237792 5.3004867e-05 0.00053124095 7.576515e-05 0.000891167 0.00056152995 0.0006395712
00000000: c8f9 b038 1d85 233a 8b51 5e38 fa42 0b3a
00000010: 1be4 9e38 349d 693a a333 133a e6a8 273a

weight f4 [16, 1, 64, 1]
-0.070593186 0.10140857 -0.08283955 0.015197015 -0.03110422 -0.009319841 -0.0020690802 -0.10802438
0.076855175 -0.11022079 0.11803554 0.06324002 0.004580278 0.032118164 -0.052972496 -0.1115133
-0.031432558 0.0697835 -0.0875823 -0.00048340426 -0.029174207 -0.083560854 0.014364378 0.10020059
0.07607431 -0.05382143 -0.047487054 0.035750214 -0.02841092 0.12202467 -0.030120812 -0.047515187
-0.11562448 0.11499009 0.08209964 -0.07973043 0.07613 -0.04949019 0.10201851 0.04740934
0.012586042 0.09928984 -0.055880744 -0.02817745 0.029266566 0.030321851 -0.08263944 -0.016942162
-0.06642534 -0.018442672 0.08400435 -0.08079166 -0.08321539 0.031713188 -0.08148623 0.10643907
0.08089115 0.007927209 -0.025566662 0.01851363 0.03933639 0.011170091 0.041115437 0.05145216
-0.108073525 -0.0014528282 -0.05275035 0.037897702 0.015386265 -0.07424999 -0.091297954 0.02486403
-0.089608625 0.03243312 -0.097335525 -0.01063382 -0.0022597143 0.11875666 -0.09353742 0.036579836
-0.0105438195 -0.12239717 0.1210411 0.037602372 0.09278963 -0.09806459 -0.119674265 -0.024961365
0.056036517 0.09597212 -0.054900397 0.06300817 -0.07808831 -0.04680538 -0.03743195 0.09451972
0.052519187 -0.037805457 0.08495414 0.12303988 0.01019593 0.11325013 -0.09923611 0.11245447
-0.06725539 0.1177998 -0.05347633 0.10880072 -0.030195054 0.046701837 -0.0017422364 0.014058479
-0.014646435 -0.05909635 0.09516418 0.048832603 0.09214565 -0.067828394 0.09054959 0.05267073
0.0006345598 -0.0929745 0.035241656 -0.10442689 -0.015978465 0.084977046 -0.09649023 0.109489456
0.02135708 -0.021096878 -0.07692602 -0.09159609 0.07311901 -0.08501268 0.017653251 -0.11058821
0.10327434 0.023654638 0.010630967 0.004097279 -0.056646314 -0.055022836 0.03826971 -0.05158364
-0.0038750286 0.0004714333 -0.06889933 -0.06591058 -0.085525505 -0.08285741 -0.07857164 -0.02295355
0.07974368 -0.07562559 0.1199983 -0.008846106 0.014891684 -0.10465788 -0.11995505 -0.082989715
-0.04733286 -0.114639394 -0.009633594 0.034551445 0.042410176 -0.0682696 -0.090866655 -0.03065725
-0.010688385 -0.07813881 0.10838261 -0.06864085 0.07653926 -0.045586944 0.089934446 0.122161664
-0.039417993 -0.033950053 -0.0037884472 0.05593651 -0.0808078 -0.08433643 -0.12121016 -0.10000837
0.048192494 0.07529916 -0.113516144 -0.1151986 0.06714446 0.007563457 -0.06162121 0.012084541
-0.045789037 0.06417135 0.03721027 0.06644656 -0.051308133 0.010544232 0.12426917 -0.033110853
-0.043687236 0.098410666 -0.068795875 0.11057447 -0.06931615 0.015593898 -0.09738095 0.06408517
0.08055633 0.0052980995 0.09687172 0.11718338 -0.10641517 0.0057605756 -0.080170825 0.046890907
0.09109202 0.037520867 0.08579089 0.10449169 -0.08705678 0.050534315 -0.102285005 -0.023613961
0.09350805 -0.00081051124 0.039513424 0.061053913 -0.035047274 -0.12146971 -0.05525019 -0.045421492
-0.12278541 0.118117526 0.09319449 0.041921 0.110690966 0.09060829 -0.11448751 0.09869094
0.007885402 0.076756015 0.05119404 0.115372024 -0.070420824 0.111928806 -0.052894786 -0.01740886
0.017560786 0.0020167758 -0.06012692 -0.07333214 -0.013308089 -0.013676125 -0.04834294 0.119711444
00000000: 2993 90bd 4caf cf3d c8a7 a9bd e7fc 783c
00000010: 47ce febc 3fb2 18bc 6899 07bb e33b ddbd
00000020: 3f66 9d3d 70bb e1bd 9ebc f13d fc83 813d
00000030: 2816 963b 568e 033d b0f9 58bd 1661 e4bd
00000040: 6dbf 00bd a7ea 8e3d 595e b3bd 6c71 fdb9
00000050: bffe eebc f421 abbd 9158 6b3c f835 cd3d
00000060: d9cc 9b3d dc73 5cbd c981 42bd d16e 123d
00000070: 05be e8bc 12e8 f93d ecbf f6bc 499f 42bd
00000080: 87cc ecbd ed7f eb3d db23 a83d b549 a3bd
00000090: 0cea 9b3d 3ab6 4abd 15ef d03d 4c30 423d
000000a0: b035 4e3c 7958 cb3d 35e3 64bd 65d4 e6bc
000000b0: 70c0 ef3c 8865 f83c de3e a9bd 4aca 8abc
000000c0: 020a 88bd 1615 97bc 790a ac3d 1976 a5bd
000000d0: d56c aabd b0e5 013d 41e2 a6bd bafc d93d
000000e0: 42aa a53d 20e1 013c 2d71 d1bc e5a9 973c
000000f0: 321f 213d c202 373c a968 283d 80bf 523d
00000100: a755 ddbd d36c beba c010 58bd 9f3a 1b3d
00000110: ac16 7c3c 6110 98bd 6cfa babd a6af cb3c
00000120: ba84 b7bd 97d8 043d d957 c7bd 7939 2ebc
00000130: b717 14bb b136 f33d 8c90 bfbd bdd4 153d
00000140: fcbf 2cbc 5eab fabd 65e4 f73d f204 1a3d
00000150: 7d08 be3d 16d6 c8bd c817 f5bd c77b ccbc
00000160: 8c86 653d 088d c43d 3ddf 60bd 6d0a 813d
00000170: c4ec 9fbd 00b7 3fbd 3f52 19bd 8e93 c13d
00000180: 5c1e 573d e5d9 1abd 70fc ad3d 55fc fb3d
00000190: d40c 273c afef e73d 4d3c cbbd 874e e63d
000001a0: 32bd 89bd 0641 f13d ff09 5bbd e9d2 de3d
000001b0: 9e5b f7bc 6d4a 3f3d c15b e4ba 8955 663c
000001c0: 9af7 6fbc 040f 72bd 70e5 c23d b204 483d
000001d0: dcb6 bc3d 9de9 8abd 1072 b93d 43bd 573d
000001e0: 9658 263a 6a69 bebd 8e59 103d c4dd d5bd
000001f0: 45e5 82bc 7208 ae3d ab9c c5bd 023c e03d
00000200: 0bf5 ae3c 5cd3 acbc 648b 9dbd bb96 bbbd
00000210: 6bbf 953d 211b aebd 8d9d 903c 127c e2bd
00000220: 7f81 d33d 5fc7 c13c 822d 2e3c 7842 863b
00000230: f705 68bd a05f 61bd b3c0 1c3d 5e49 53bd
00000240: 31f4 7dbb b52a f739 181b 8dbd 20fc 86bd
00000250: ff27 afbd 25b1 a9bd 2bea a0bd 1509 bcbc
00000260: a850 a33d 97e1 9abd abc1 f53d 42ef 10bc
00000270: 40fc 733c df56 d6bd feaa f5bd 83f6 a9bd
00000280: 1ae0 41bd 0fc8 eabd 39d6 1dbc d185 0d3d
00000290: 4bb6 2d3d efd0 8bbd 4c18 babd ea24 fbbc
000002a0: 561e 2fbc 3e07 a0bd b4f7 dd3d 9393 8cbd
000002b0: 9ec0 9c3d 60b9 3abd 8d2f b83d e52f fa3d
000002c0: c374 21bd 360f 0bbd 9947 78bb af1d 653d
000002d0: 8f7e a5bd 94b8 acbd 083d f8bd 30d1 ccbd
000002e0: 7e65 453d 7236 9a3d 277b e8bd 3eed ebbd
000002f0: 0983 893d e0d6 f73b 8666 7cbd 3dfe 453c
00000300: 498d 3bbd 456c 833d cc69 183d 2215 883d
00000310: 7a28 52bd b7c1 2c3c d680 fe3d 3f9f 07bd
00000320: 63f1 32bd 888b c93d dae4 8cbd de74 e23d
00000330: a0f5 8dbd 8c7d 7f3c aa6f c7bd 163f 833d
00000340: b8fa a43d ae9b ad3b ae64 c63d d7fd ef3d
00000350: 32f0 d9bd 36c3 bc3b 9a30 a4bd ae10 403d
00000360: 748e ba3d 7baf 193d 22b3 af3d bdff d53d
00000370: d34a b2bd 12fd 4e3d cd7a d1bd 1172 c1bc
00000380: 2681 bf3d 7d78 54ba d4d8 213d ab13 7a3d
00000390: bb8d 0fbd 1cc5 f8bd 064e 62bd e30b 3abd
000003a0: eb76 fbbd 9ae7 f13d c1dc be3d 5bb5 2b3d
000003b0: f2b1 e23d d790 b93d 6d78 eabd 7a1e ca3d
000003c0: c631 013c 4232 9d3d d7b0 513d 2b48 ec3d
000003d0: cb38 90bd ee3a e53d 34a8 58bd 079d 8ebc
000003e0: a3db 8f3c e22b 043b a547 76bd 292f 96bd
000003f0: 2c0a 5abc d311 60bc 3f03 46bd 462b f53d

weight f4 [16]
1.0012715 0.99951476 0.9989393 1.000515 1.0019101 1.0030984 0.999424 1.0010055
0.9979417 0.9982809 0.9997555 1.0006932 0.9984696 1.0041496 0.99912333 0.99283737
00000000: aa29 803f 33e0 7f3f 7cba 7f3f e010 803f
00000010: 973e 803f 8765 803f 40da 7f3f f320 803f
00000020: 1b79 7f3f 568f 7f3f faef 7f3f b716 803f
00000030: b49b 7f3f f987 803f 8cc6 7f3f 972a 7e3f

bias f4 [16]
0.00079331803 0.001257004 -0.001520851 0.0004172213 0.00035468434 0.004024881 -0.00069629156 -0.0011954184
8.039672e-05 -0.000508555 -0.000117707365 -0.0015893971 0.00012508898 0.0017502782 -0.0005041708 0.0009347073
00000000: acf6 4f3a 0ec2 a43a 4b57 c7ba 7fbe da39
00000010: edf4 b939 26e3 833b 5687 36ba 96af 9cba
00000020: a99a a838 8c50 05ba a9d9 f6b8 5153 d0ba
00000030: 512a 0339 9769 e53a 542a 04ba 2507 753a

running_mean f4 [16]
-0.22108217 0.39299074 -0.30879802 -0.4782254 0.15419641 -0.19028561 0.39598885 0.88257486
0.16888557 -0.34187797 -0.06714398 0.24560829 -0.9126228 -0.1657666 0.3203188 -0.30494583
00000000: 5d63 62be 1536 c93e c61a 9ebe f6d9 f4be
00000010: aae5 1d3e 3bda 42be 0dbf ca3e 6df0 613f
00000020: 57f0 2c3e a10a afbe c882 89bd bd80 7b3e
00000030: a6a1 69bf b8be 29be d300 a43e dc21 9cbe

running_var f4 [16]
0.05615709 0.02876532 0.0010898225 0.0033128404 0.047049742 0.03997224 0.025948422 0.047499385
0.050971482 0.056818914 0.00064592157 0.003245887 0.0035180168 0.0013931516 0.005243216 0.014310977
00000000: fa04 663d 40a5 eb3c 60d8 8e3a 3d1c 593b
00000010: 3bb7 403d eeb9 233d c991 d43c b78e 423d
00000020: 79c7 503d f3ba 683d 1053 293a f3b8 543b
00000030: 878e 663b 699a b63a 49cf ab3b 9778 6a3c

weight f4 [16, 1, 1, 16]
-0.1268742 -0.13230778 -0.042421605 0.16775046 -0.022395913 -0.23950449 0.17344686 0.19782259
-0.15155558 -0.09719552 -0.2218924 0.025216198 -0.037311792 0.08147703 -0.21973091 0.2194242
0.1608178 0.19855033 0.0735543 0.074423544 0.20986392 -0.10525415 0.07826992 -0.15190968
-0.019716958 -0.09742772 0.12517847 0.15882888 0.012298171 -0.13256182 -0.03234614 0.081828184
0.0056840875 -0.2043104 0.2036354 0.22121355 -0.12667497 0.18224199 -0.094995335 -0.039469723
-0.006462483 -0.12771608 -0.035571612 0.07097473 -0.08371182 -0.14642435 0.056474358 -0.044347864
-0.023921778 -0.1880854 -0.06944183 0.08296565 0.033925984 0.071209446 0.10947605 -0.11534738
0.14295134 -0.060824767 -0.011014598 0.013575736 -0.15126556 0.07516134 0.20592655 0.048381668
0.23509757 -0.25265232 0.15765761 -0.1751035 -0.046918318 0.22008151 0.10551116 -0.16172478
-0.22957905 0.21295911 0.1652484 -0.10720037 0.027127165 0.06698138 0.057073582 0.073420286
-0.20515102 0.24855357 -0.122626886 -0.2367031 -0.2040942 0.022004774 0.09803597 0.10469381
0.19962953 0.21139772 0.21910758 0.17202815 0.15311931 0.16279949 -0.07512193 -0.23979366
-0.19744772 -0.12905619 -0.059729945 -0.07234266 0.13262862 -0.21613848 0.19250016 0.059105825
0.21850604 0.009421133 0.07383743 -0.055348027 -0.17997184 0.038033985 0.0525692 -0.1354833
0.06340432 0.055537704 -0.09139143 0.22437218 0.0068230256 -0.12630509 -0.11432871 0.08122291
-0.07228952 0.16190217 0.21478269 -0.008446431 -0.1231019 0.12995043 -0.06853036 0.14947459
-0.23610675 0.17075087 -0.020622078 -0.037642423 0.16592231 -0.24732514 0.14140725 0.06868254
-0.15668283 -0.09906267 0.09077491 0.047128737 -0.0756048 -0.07084149 -0.1681124 -0.23684412
0.03655963 0.21156774 -0.12759073 0.022996599 -0.13974135 0.06792095 -0.20228286 0.037123125
0.16693799 0.19111675 0.0908134 -0.03322703 0.16613406 0.18651275 0.015172965 -0.21079706
0.04689007 -0.15408815 0.14561835 -0.15478292 0.069365464 -0.22446527 0.005940635 -0.16002902
0.21606603 0.045803133 -0.08947898 -0.1812266 0.049025964 -0.06573878 0.18025923 -0.08410743
-0.08432832 -0.18511792 -0.028748142 -0.16896197 -0.09357749 0.16314434 -0.1506614 0.21379785
0.21309611 0.0032845687 -0.2378645 -0.040237915 0.17557593 -0.037534967 0.17748371 0.19909583
0.10557842 -0.0019425703 -0.1706534 -0.06621663 0.099722244 0.011935796 -0.081756 -0.13315578
-0.21872906 0.013818842 0.11260551 -0.13136722 -0.054754686 0.15099707 0.24036552 0.036845893
0.06860821 -0.1072938 -0.12119776 -0.05128724 0.19727895 -0.17185885 0.18065201 0.18788107
0.044787847 -0.06556718 -0.18262313 -0.0412608 0.060810156 -0.19981788 0.23388875 -0.03813983
0.10358684 -0.10910838 -0.1555864 -0.22639439 0.20110926 0.1297883 -0.0760968 -0.14590581
0.24207804 -0.1664115 -0.1682724 -0.17507328 -0.2132022 0.13468783 -0.08818029 0.12354995
-0.19778492 0.16827294 -0.105413 0.057879236 0.07969311 0.10587421 0.18251568 0.07506192
0.17481135 -0.0932387 0.07922714 0.21385744 -0.240103 0.019056736 0.071086764 0.19851497
00000000: 4feb 01be b17b 07be 47c2 2dbd c7c6 2b3e
00000010: a277 b7bc aa40 75be 0e9c 313e 0192 4a3e
00000020: 6331 1bbe 720e c7bd c337 63be 3392 ce3c
00000030: 40d4 18bd 6edd a63d 2401 61be bdb0 603e
00000040: 6cad 243e c750 4b3e a3a3 963d 5f6b 983d
00000050: 91e6 563e 7d8f d7bd fb4b a03d 368e 1bbe
00000060: 7585 a1bc 2f88 c7bd c92e 003e 0aa4 223e
00000070: 457e 493c 49be 07be 637d 04bd 8995 a73d
00000080: 9541 ba3b bf36 51be cc85 503e ce85 623e
00000090: 15b7 01be a59d 3a3e ea8c c2bd 01ab 21bd
000000a0: 3dc3 d3bb 01c8 02be 8ab3 11bd 335b 913d
000000b0: 1a71 abbd 44f0 15be a851 673d 1ba6 35bd
000000c0: 9bf7 c3bc 7699 40be 8537 8ebd e5e9 a93d
000000d0: f9f5 0a3d 42d6 913d fb34 e03d 3f3b ecbd
000000e0: d661 123e 6423 79bd 9376 34bc c46c 5e3c
000000f0: 5ce5 1abe 30ee 993d 69de 523e db2b 463d
00000100: 6bbd 703e a55b 81be ff70 213e 554e 33be
00000110: 6c2d 40bd 0c5d 613e 3c16 d83d 2e9b 25be
00000120: c516 6bbe f411 5a3e e036 293e de8b dbbd
00000130: ca39 de3c 892d 893d fdc5 693d 605d 963d
00000140: 1c13 52be d484 7e3e ce23 fbbd 4c62 72be
00000150: 12fe 50be 5b43 b43c 15c7 c83d b569 d63d
00000160: af6b 4c3e a578 583e bd5d 603e 2628 303e
00000170: 4fcb 1c3e e9b4 263e 87d9 99bd 788c 75be
00000180: bc2f 4abe 4e27 04be 63a7 74bd 6328 94bd
00000190: cccf 073e 6853 5dbe c31e 453e f318 723d
000001a0: 0cc0 5f3e 195b 1a3c 1438 973d 9db4 62bd
000001b0: 8a4a 38be 86c9 1b3d cd52 573d 22bc 0abe
000001c0: 20da 813d 817b 633d 6e2b bbbd d2c1 653e
000001d0: b093 df3b 1f56 01be 2c25 eabd 3258 a63d
000001e0: 870c 94bd afc9 253e feef 5b3e e662 0abc
000001f0: d91c fcbd ba11 053e a559 8cbd de0f 193e
00000200: f8c5 71be 51d9 2e3e a2ef a8bc f12e 1abd
00000210: 8ae7 293e cd42 7dbe 10cd 103e 6ea9 8c3d
00000220: 7771 20be 5ee1 cabd 32e8 b93d 100a 413d
00000230: b0d6 9abd 5815 91bd a825 2cbe 4487 72be
00000240: 8dbf 153d 37a5 583e 25a7 02be 5d63 bc3c
00000250: 5b18 0fbe 241a 8b3d 3d23 4fbe 6b0e 183d
00000260: cbf1 2a3e 1cb4 433e 60fc b93d 1119 08bd
00000270: 0c1f 2a3e 33fd 3e3e 0798 783c 2fdb 57be
00000280: cd0f 403d 49c9 1dbe fa1c 153e 6a7f 1ebe
00000290: 7b0f 8e3d 39da 65be a9a9 c23b a6de 23be
000002a0: 6a40 5d3e 119c 3b3d c140 b7bd 7793 39be
000002b0: 73cf 483d 0ea2 86bd e095 383e 8440 acbd
000002c0: 54b4 acbd 8d8f 3dbe 3981 ebbc 5e04 2dbe
000002d0: 8ea5 bfbd 4f0f 273e fb46 1abe d3ed 5a3e
000002e0: de35 5a3e eb41 573b c092 73be 83d0 24bd
000002f0: 2dca 333e 44be 19bd 4abe 353e c7df 4b3e
00000300: 8039 d83d d89d feba c4bf 2ebe 969c 87bd
00000310: 2d3b cc3d 5b8e 433c b16f a7bd fd59 08be
00000320: 83fa 5fbe 6d68 623c b89d e63d 2185 06be
00000330: 7346 60bd fa9e 1a3e 6122 763e b8eb 163d
00000340: 7682 8c3d dabc dbbd 8836 f8bd 9212 52bd
00000350: 7e03 4a3e c4fb 2fbe d7fc 383e e563 403e
00000360: 7673 373d 1648 86bd 8f01 3bbe 1601 29bd
00000370: 1214 793d 0f9d 4cbe 8880 6f3e 8338 1cbd
00000380: 5625 d43d 3774 dfbd 0b52 1fbe eed3 67be
00000390: 96ef 4d3e 39e7 043e a4d8 9bbd 5568 15be
000003a0: 4ee3 773e c767 2abe 9a4f 2cbe 6946 33be
000003b0: ad51 5abe 9beb 093e de97 b4bd c207 fd3d
000003c0: 2188 4abe be4f 2c3e c5e2 d7bd c712 6d3d
000003d0: 2436 a33d 94d4 d83d 64e5 3a3e 10ba 993d
000003e0: bf01 333e eef3 bebd d741 a23d 72fd 5a3e
000003f0: 90dd 75be df1c 9c3c f095 913d 8247 4b3e

weight f4 [16, 16, 1, 1]
0.20217685 0.13096896 -0.16024464 0.112237364 0.09293406 0.00081759924 0.20342521 -0.074295
-0.1904883 0.11869679 0.24226528 0.027409155 -0.14058596 0.19145116 -0.22585447 -0.17298272
0.030663386 0.1120368 -0.23673214 0.00037384283 0.24654205 0.099400446 0.17725927 -0.23982874
-0.14570163 -0.09849505 -0.20178345 0.18803605 -0.18698637 -0.020791605 -0.094175115 -0.09373097
0.20674728 0.14371149 -0.0870309 -0.04114907 -0.21638036 0.09134722 0.2103575 0.024246551
-0.23907548 -0.04832094 0.21494167 -0.1944766 0.11219741 -0.2363866 0.07848857 0.22010869
-0.113644615 0.12877919 0.1670867 -0.048011716 0.019368093 -0.10473786 0.08995334 0.22368175
-0.21725309 0.057466008 -0.17115688 0.18547559 0.1852 -0.15159638 0.14415789 0.10517274
-0.13954586 0.19970746 0.22264172 0.05842135 -0.13869011 -0.06776569 -0.20164587 0.15125097
0.13152549 0.19741215 -0.16952303 0.018877827 0.21990895 0.22944234 -0.23729144 -0.011844725
-0.06256083 -0.1464209 -0.14655933 0.2164676 0.22886436 0.14060861 0.007945481 -0.24060142
-0.12318452 0.117363214 -0.08383382 -0.14775322 -0.0049985386 -0.1517522 0.14439379 0.18891154
0.0936301 -0.005414256 0.037045278 0.09854226 -0.024126872 -0.14316934 -0.13454145 0.22668463
0.0530108 -0.10989002 -0.2096347 -0.14098664 0.07108728 -0.06847538 0.22579606 -0.10972697
0.17172556 0.014557798 0.07237542 -0.03860414 0.099478826 0.2225788 0.07059673 -0.020461014
0.16464745 0.029874688 0.03095351 -0.036106534 -0.04797856 0.21424459 -0.24377887 0.026447272
0.19230284 0.08345183 -0.1288155 0.24204151 -0.16838318 0.16456942 -0.08123125 -0.18218268
-0.0009726517 -0.005738947 0.13445397 -0.20673878 0.029217407 -0.17796396 0.15530515 0.18789563
-0.1667508 -0.1398219 -0.09553187 -0.24429418 -0.1709971 0.2389812 0.0094458135 0.117283486
0.09029956 0.24369243 -0.24367628 -0.20623347 -0.09695698 0.008585728 -0.09813747 -0.05700442
0.19624203 -0.20789564 -0.21577458 -0.14271736 0.04800884 0.07216157 0.047284637 0.08395911
0.24429938 0.06021444 -0.09769833 0.1366545 -0.055207223 -0.01764345 -0.19210668 -0.13536306
-0.23560295 -0.14924605 -0.08420109 0.030068293 0.23826866 0.22621493 -0.02394207 -0.24423565
-0.009866858 -0.1842928 0.24652746 -0.021143511 0.027263856 -0.009490873 -0.17592977 0.04082299
-0.12123244 -0.12997632 0.00853537 0.20817584 0.123195074 0.07889799 0.1897555 0.1606253
-0.056132592 0.0949431 -0.030196588 -0.16898465 -0.04543858 -0.2330142 -0.1397563 -0.14801237
0.12265227 0.14888616 -0.023752725 0.21825011 -0.001888945 0.06938936 0.11440014 0.14191228
0.102425136 0.061189383 -0.08795285 -0.15477067 0.2055047 0.17370735 0.14796703 0.13397393
0.25119784 -0.20872323 -0.05985444 -0.14293909 -0.12058623 0.03269943 -0.138056 0.13814937
0.16149199 -0.10700454 -0.11067338 0.22278331 0.012031776 0.14902039 -0.115382254 0.21049727
-0.17197475 -0.19284111 0.009834572 -0.24753293 0.13018827 0.1412324 0.09416101 -0.011005184
-0.06179607 -0.07916367 0.09374215 0.096128635 0.16237313 0.16509944 0.22532932 -0.11086932
00000000: 7307 4f3e ba1c 063e 2c17 24be b4dc e53d
00000010: 3654 be3d 2854 563a b34e 503e fa27 98bd
00000020: 5d0f 43be 4d17 f33d 6414 783e 2a89 e03c
00000030: c4f5 0fbe c60b 443e 6546 67be 6222 31be
00000040: c831 fb3c 8d73 e53d e969 72be 5600 c439
00000050: 8575 7c3e 7692 cb3d 7483 353e aa95 75be
00000060: cf32 15be c6b7 c9bd 52a0 4ebe 868c 403e
00000070: 5b79 3fbe 2853 aabc e2de c0bd 06f6 bfbd
00000080: 8fb5 533e 1b29 133e 423d b2bd ed8b 28bd
00000090: d092 5dbe 4014 bb3d f567 573e b4a0 c63c
000000a0: 34d0 74be 2eec 45bd ab19 5c3e e024 47be
000000b0: c1c7 e53d 540f 72be 9ebe a03d 2c64 613e
000000c0: 82be e8bd b1de 033e c718 2b3e efa7 44bd
000000d0: d6a9 9e3c ce80 d6bd 7539 b83d d40c 653e
000000e0: 9877 5ebe 7a61 6b3d c043 2fbe 50ed 3d3e
000000f0: 12a5 3d3e 153c 1bbe 209e 133e ce64 d73d
00000100: 1ce5 0ebe 1d80 4c3e 31fc 633e 3a4b 6f3d
00000110: c804 0ebe bdc8 8abd 417c 4ebe 89e1 1a3e
00000120: 9eae 063e 6926 4a3e 7297 2dbe aca5 9a3c
00000130: d02f 613e eff2 6a3e 87fc 72be 6110 42bc
00000140: e41f 80bd 5cef 15be a613 16be afa9 5d3e
00000150: 6b5b 6a3e b4fb 0f3e c32d 023c 3860 76be
00000160: 2a48 fcbd 205c f03d 11b1 abbd 9f4c 17be
00000170: c8ca a3bb ee64 1bbe f7db 133e 0772 413e
00000180: 23c1 bf3d 126a b1bb cabc 173d 86d0 c93d
00000190: b8a5 c5bc fc9a 12be 3cc5 09be 0420 683e
000001a0: da21 593d 050e e1bd 7baa 56be cd5e 10be
000001b0: 3596 913d d23c 8cbd 1537 673e 89b8 e0bd
000001c0: d3d8 2f3e d583 6e3c 9039 943d 601f 1ebd
000001d0: 8ebb cb3d b2eb 633e 0595 903d db9d a7bc
000001e0: 5799 283e c3bb f43c 3792 fd3c 72e4 13bd
000001f0: 2b85 44bd ef62 5b3e 2ba1 79be f3a7 d83c
00000200: 09eb 443e cbe8 aa3d 36e8 03be bbd9 773e
00000210: a46c 2cbe e384 283e 925c a6bd 198e 3abe
00000220: 8df9 7eba c70d bcbb 4dae 093e 55b3 53be
00000230: 5859 ef3c 2f3c 36be 5008 1f3e b667 403e
00000240: b9c0 2abe 792d 0fbe 37a6 c3bd 4128 7abe
00000250: dd19 2fbe 7db7 743e 9dc2 1a3c 5332 f03d
00000260: faee b83d 828a 793e 4686 79be de2e 53be
00000270: 6291 c6bd 27ab 0c3c 4cfc c8bd 777d 69bd
00000280: acf3 483e 98e2 54be 03f4 5cbe 8024 12be
00000290: eba4 443d 72c9 933d 89ad 413d c1f2 ab3d
000002a0: 9e29 7a3e 6ba3 763d 1016 c8bd 28ef 0b3e
000002b0: f820 62bd ff88 90bc 9db7 44be 9d9c 0abe
000002c0: e641 71be f5d3 18be 9f71 acbd c851 f63c
000002d0: b3fc 733e e3a4 673e 2922 c4bc e918 7abe
000002e0: 9aa8 21bc 40b7 3cbe b271 7c3e 2835 adbc
000002f0: 7358 df3c 9b7f 1bbc ef26 34be 0236 273d
00000300: b748 f8bd 8318 05be f0d7 0b3c 0c2c 553e
00000310: b34d fc3d 4595 a13d 444f 423e f57a 243e
00000320: 4aeb 65bd 8771 c23d d65e f7bc 500a 2dbe
00000330: ce1d 3abd 469b 6ebe 471c 0fbe 8e90 17be
00000340: 1d31 fb3d 9d75 183e 1395 c2bc f57c 5f3e
00000350: 7a96 f7ba 021c 8e3d 9f4a ea3d 7451 113e
00000360: 45c4 d13d b8a1 7a3d a020 b4bd 347c 1ebe
00000370: d36f 523e 57e0 313e ab84 173e 7630 093e
00000380: 019d 803e 8bbb 55be ee29 75bd a05e 12be
00000390: eaf5 f6bd d6ef 053d 8d5e 0dbe 0777 0d3e
000003a0: 285e 253e 3225 dbbd baa8 e2bd 4f21 643e
000003b0: ed20 453c cd98 183e 884d ecbd 998c 573e
000003c0: 261a 30be 2478 45be 2f21 213c 4679 7dbe
000003d0: 1350 053e 3a9f 103e 7dd7 c03d 164f 34bc
000003e0: e01d 7dbd 9020 a2bd e2fb bf3d 17df c43d
000003f0: 2445 263e d40f 293e bbbc 663e 740f e3bd

weight f4 [16]
0.99826163 0.99418133 0.9954237 0.99599373 0.9982471 0.99164873 0.9961347 0.9927104
0.9966279 0.9991322 0.9948555 0.99964446 0.99394673 0.99284285 0.9906093 0.9985999
00000000: 138e 7f3f ab82 7e3f 16d4 7e3f 72f9 7e3f
00000010: 1f8d 7f3f b1dc 7d3f af02 7f3f 4522 7e3f
00000020: 0223 7f3f 21c7 7f3f daae 7e3f b3e8 7f3f
00000030: 4b73 7e3f f32a 7e3f 9298 7d3f 3ea4 7f3f

bias f4 [16]
-0.00316452 -0.0082859015 -0.009209905 -0.0045212023 -0.006423842 -0.009426177 -0.007402961 -0.014658193
-0.008445578 -0.0016546265 -0.016460111 -0.0022696722 -0.0120088775 -0.013225259 -0.011728755 -0.0008205858
00000000: d663 4fbb 97c1 07bc 24e5 16bc 9826 94bb
00000010: 187f d2bb 4070 1abc 8a94 f2bb eb28 70bc
00000020: 525f 0abc 0de0 d8ba 5bd7 86bc c8be 14bb
00000030: e2c0 44bc c2ae 58bc f729 40bc 951c 57ba

running_mean f4 [16]
0.012078535 0.038839247 0.012883967 0.058302306 0.0579867 0.036734693 -0.033935085 0.016436089
-0.0072800717 0.03323245 -0.033639036 0.019837389 0.02661865 0.018245282 -0.005103667 -0.039327245
00000000: 0ce5 453c e715 1f3d 4617 533c 66ce 6e3d
00000010: 7683 6d3d 1e77 163d 84ff 0abd faa4 863c
00000020: ab8d eebb c01e 083d 16c9 09bd 0582 a23c
00000030: 5b0f da3c 2177 953c a93c a7bb 9b15 21bd

running_var f4 [16]
0.114137664 0.16938008 0.1558582 0.084690064 0.24951051 0.119913876 0.1358397 0.064318
0.122124895 0.10028123 0.08553971 0.19907951 0.08648696 0.054489918 0.07834636 0.2078709
00000000: 02c1 e93d f971 2d3e 4b99 1f3e fc71 ad3d
00000010: af7f 7f3e 6895 f53d 9019 0b3e 28b9 833d
00000020: 9e1c fa3d 3f60 cd3d 722f af3d 80db 4b3e
00000030: 1320 b13d d230 5f3d 0e74 a03d 1cdc 543e

weight f4 [3, 2016]
-0.014324265 -0.004202144 -0.013195953 -0.0051321425 0.009433445 -0.0056615234 -0.0017068255 0.0059708133
-0.010708743 -0.021387357 -0.028166018 0.0065518953 0.004523411 0.0021992093 0.016306018 -0.0017557845
-0.011822686 0.0057553547 -0.020523157 -0.019790206 0.017708493 0.019335976 -0.012042133 0.01442362
0.0045936606 -0.0073428224 -0.022890449 0.01694944 0.024471723 0.00050020544 0.0075611975 0.028253995
0.019753182 -0.0005508669 -0.028916953 0.016977035 0.010881782 -0.0073399357 -0.002807636 -0.019150088
-0.012861973 -0.015900511 0.016197005 -0.00483223 0.01176157 0.0033954196 0.006860929 0.004928385
0.013068729 0.013003309 -0.0027547928 0.016169583 -0.018250212 0.009117827 -0.00039532554 0.024084233
-0.002096315 0.020104125 0.0030424779 -0.021088192 -0.011541506 -0.018666567 -0.0114717735 0.011849483
-0.0015608547 -0.024222143 -0.013866366 0.020193297 -0.015591743 0.000808156 -0.014859814 0.0006118187
-0.013422778 -0.0026398282 -0.021958511 -0.0086633405 -0.011319248 -0.001952953 -0.0056471606 -0.013627571
-0.011244573 0.0068654153 -0.019182796 -0.014898965 -0.007992587 0.009080928 -0.0037316806 -0.0019471397
0.0044351122 -0.029759489 0.023573646 -0.008411802 -0.003043504 0.019174963 -0.027165856 0.004464465
-0.018647257 -0.010338977 -0.0006985888 -0.018602962 0.012933584 0.0078399815 -0.0041592335 -0.012361053
0.0070029176 -0.016688935 0.0024683597 -0.019079525 0.012157327 -0.005320578 -0.0015648472 0.017105421
-0.012703603 0.016096255 -0.0139155965 0.005138908 0.003924257 -0.004581122 0.012863632 -0.005437361
-0.021357527 -0.0065838965 0.01175846 0.0035986956 0.0041927537 -0.0046775644 -0.0071663605 -0.007093902
0.009985162 0.020069899 0.017552191 0.0023963233 -0.012645076 0.0042433804 0.01071835 0.009214842
0.024428548 0.009154033 -0.00097392604 0.0021849843 -0.003440649 -0.018582057 0.0134979095 0.002037674
-0.018583339 0.012255481 -0.024560712 -0.013390134 -0.0064157313 0.012973197 -0.010827499 -0.0021520657
0.016380902 0.009237621 -0.010615371 -0.011647385 0.02052701 -0.0066003776 4.3275184e-05 0.0030495091
-0.008133686 -0.014769488 -0.006732397 0.025499683 0.017493496 -0.0024957394 0.026986772 -0.022986798
0.01642562 -0.020503448 -0.012200418 0.022790736 0.011659875 0.022030596 0.017942285 0.017535567
0.018901862 -0.009669006 0.018085677 -0.013716902 0.012303368 0.0022147212 0.00904388 -0.0131030595
-0.005709264 -0.0054638702 -0.009106608 0.011075733 -0.007618246 0.0056848424 -0.016108446 0.011682843
-0.010694806 -0.0016121075 0.0133589925 0.02412016 -0.0074932207 -0.008217219 0.0019873565 0.020752406
0.0012176887 0.008178464 -0.005121226 -0.0067355093 0.000201307 -0.0065763034 0.015300732 0.009477266
0.00078681856 0.0041027493 -0.0059844004 0.020333814 0.022645658 0.0022249417 -0.008563832 0.023877798
0.0048763286 0.020994555 -0.018791819 0.024049634 -0.018468406 -0.011894956 -0.007048277 -0.00018892312
0.003499534 -0.0042352797 0.0011515605 0.008802249 -0.019284556 -0.0032178196 -0.015813233 0.021666162
0.0110735055 -0.0017120411 -0.0036796832 -0.0097664045 0.016071154 0.010829303 0.01884533 -0.0109525155
-0.012688676 0.012862115 0.017232368 0.017541254 0.019139886 0.0045478907 -0.0044722813 0.012148641
-5.619286e-05 -0.01689621 0.004830297 0.0068829386 0.0053839423 -0.016122198 0.007272016 -0.013972655
00000000: 52b0 6abc 24b2 89bb d733 58bc 882b a8bb
00000010: bc8e 1a3c 4d84 b9bb 8fb7 dfba d0a6 c33b
00000020: b973 2fbc 8a34 afbc 6cbc e6bc 48b1 d63b
00000030: 1f39 943b 9c20 103b 3394 853c 5a22 e6ba
00000040: f0b3 41bc 6a97 bc3b 2e20 a8bc 121f a2bc
00000050: 6711 913c 7b66 9e3c 5e4c 45bc 0c51 6c3c
00000060: 6b86 963b 0f9c f0bb c084 bbbc 8dd9 8a3c
00000070: ec78 c83c 3820 033a ecc3 f73b ec74 e73c
00000080: 6dd1 a13c 0d68 10ba 3fe3 ecbc 6c13 8b3c
00000090: 8049 323c d883 f0bb 5100 38bb a5e0 9cbc
000000a0: 06bb 52bc ca41 82bc 95af 843c af57 9ebb
000000b0: 9ab3 403c b085 5e3b a5d1 e03b 4a7e a13b
000000c0: 391e 563c d50b 553c c189 34bb 1376 843c
000000d0: 7881 95bc f062 153c b243 cfb9 4c4c c53c
000000e0: 5462 09bb 68b1 a43c 4f64 473b 25c1 acbc
000000f0: 9618 3dbc a1ea 98bc 1bf4 3bbc 5524 423c
00000100: 9895 ccba 846d c6bc c12f 63bc 6a6c a53c
00000110: 8374 7fbc 6eda 533a 9476 73bc 7562 203a
00000120: 36eb 5bbc f800 2dbb 56e2 b3bc aff0 0dbc
00000130: 5e74 39bc 3bfa ffba d10b b9bb 2d46 5fbc
00000140: 283b 38bc 47f7 e03b 3d25 9dbc ca1a 74bc
00000150: 57f3 02bc 2cc8 143c 368f 74bb 2b37 ffba
00000160: 6b54 913b 2cca f3bc 851d c13c a8d1 09bc
00000170: 8675 47bb d014 9d3c ee8a debc a64a 923b
00000180: 22c2 98bc d064 29bc 8021 37ba 3d65 98bc
00000190: 62e7 533c 4473 003c 2e4a 88bb 0486 4abc
000001a0: bb78 e53b 3cb7 88bc 34c4 213b aa4c 9cbc
000001b0: 862f 473c 3e58 aebb 8f1b cdba ab20 8c3c
000001c0: c622 50bc 4bdc 833c 3efe 63bc 4964 a83b
000001d0: 0e97 803b 3d1d 96bb fcc1 523c e42b b2bb
000001e0: fbf5 aebc babd d7bb 8ea6 403c 18d8 6b3b
000001f0: 5e63 893b 4146 99bb cad3 eabb f773 e8bb
00000200: ce98 233c a169 a43c 9dc9 8f3c a20b 1d3b
00000210: 4b2d 4fbc 0e0c 8b3b 059c 2f3c d9f9 163c
00000220: 611e c83c ccfa 153c 124f 7fba f431 0f3b
00000230: 837c 61bb 6639 98bc 5626 5d3c 7f8a 053b
00000240: 163c 98bc 37cb 483c 8c33 c9bc 4b62 5bbc
00000250: 0e3b d2bb 888d 543c d365 31bc ac09 0dbb
00000260: 3e31 863c 6459 173c 18ec 2dbc acd4 3ebc
00000270: 4328 a83c fb47 d8bb 6082 3538 46da 473b
00000280: 2743 05bc b9fb 71bc 709b dcbb b6e4 d03c
00000290: 854e 8f3c 8f8f 23bb 5d13 dd3c cf4e bcbc
000002a0: 068f 863c d9f6 a7bc 43e4 47bc a3b3 ba3c
000002b0: 0f09 3f3c 8279 b43c b3fb 923c c0a6 8f3c
000002c0: 14d8 9a3c c06a 1ebc 6a28 943c dbbc 60bc
000002d0: 1194 493c db24 113b c82c 143c 37ae 56bc
000002e0: c714 bbbb 440a b3bb e233 15bc fe76 353c
000002f0: 7ba2 f9bb ea47 ba3b dcf5 83bc 6569 3f3c
00000300: 4539 2fbc 5a4d d3ba addf 5a3c a497 c53c
00000310: b189 f5bb 84a1 06bc 4f3e 023b f300 aa3c
00000320: da9a 9f3a f7fe 053c f5cf a7bb 8cb5 dcbb
00000330: f015 5339 087e d7bb ecaf 7a3c 8946 1b3c
00000340: 8042 4e3a 5b70 863b ca18 c4bb 1993 a63c
00000350: 6383 b93c 54d0 113b 514f 0cbc 5f9b c33c
00000360: 9cc9 9f3b c6fc ab3c 4df1 99bc bd03 c53c
00000370: 0e4b 97bc 10e3 42bc 3cf5 e6bb aa19 46b9
00000380: 7058 653b 1ac8 8abb f5ef 963a 4f37 103c
00000390: a5fa 9dbc 0ee2 52bb c18a 81bc 3c7d b13c
000003a0: a66d 353c 9166 e0ba d726 71bb 4503 20bc
000003b0: a7a7 833c 646d 313c 8661 9a3c 2e72 33bc
000003c0: 2ae4 4fbc 9fbb 523c e52a 8d3c adb2 8f3c
000003d0: 40cb 9c3c 7906 953b 378c 92bb 180b 473c
000003e0: a0b0 6bb8 ec69 8abc 7847 9e3b 468a e13b
000003f0: c86b b03b b312 84bc 174a ee3b 90ed 64bc

bias f4 [3]
0.018378599 0.00064029946 -0.013665823
00000000: b78e 963c c5d9 273a 9ee6 5fbc
