mi/Algorithm/impl/eegnet_model/model_2_4.pkl (torch, 44628 bytes, 18 tensors)

weight f4 [8, 1, 1, 64]
0.061411 0.06679211 -0.020253826 -0.022743076 0.0048846547 -0.02530122 -0.058591858 0.112163894
0.120355554 -0.02180408 0.048246354 -0.017809523 0.014284755 0.07958855 0.08273762 -0.048294332
-0.114606105 0.06484766 -0.114842534 0.06400904 0.023736278 0.097719386 0.1005052 -0.07339679
0.12103895 -0.054702945 0.12503347 0.004596103 0.11287468 -0.09598437 -0.10617938 -0.097224884
-0.036921803 -0.043199483 -0.028285237 -0.099550284 0.10673695 0.0689606 -0.030431114 0.035190184
-0.10381193 -0.115366295 0.057076864 -0.049589112 0.031686116 0.10130025 -0.03185194 0.034957282
0.06304926 0.06765318 0.06932879 0.021471437 -0.121265605 -0.075297244 -0.10687754 0.09825611
-0.08692643 0.007670509 -0.009948083 -0.017625142 -0.09081201 -0.09926465 0.028307628 0.08626709
0.05651816 0.046756264 0.09538731 -0.041010093 -0.103389315 0.016509904 0.051200923 0.06000378
-0.12029467 -0.010185972 -0.0621428 0.00019971735 -0.111597255 0.10116088 0.10600716 0.07463443
-0.04803566 -0.043041024 0.06830313 -0.010266279 0.11832471 -0.01674397 0.079345115 0.123347044
0.042552385 0.023832865 0.07750312 -0.10080541 0.094302565 0.0006771693 -0.004013516 0.03302229
0.02551007 0.031258147 -0.01908401 -0.05071168 -0.046118524 -0.12698929 -0.06346845 0.06827623
0.049910508 -0.03006861 -0.055559967 -0.042571176 0.014049925 -0.017673686 0.09305068 0.08068709
0.009230191 0.03679592 0.037772942 0.025644127 0.087987065 -0.03906931 0.09330383 0.10144737
-0.12688969 0.09656813 -0.07906576 0.074904524 0.030370926 0.12469251 0.02723955 -0.0032209344
0.02539003 0.06473061 0.010848189 0.11218246 0.051941596 0.05405482 -0.032720856 -0.030593852
0.016526943 -0.03371086 0.08683924 -0.04284264 -0.08137218 -0.046975672 0.11792672 0.09333994
0.030634847 0.06986054 0.11117795 -0.044892266 -0.04146544 0.123345114 -0.07154799 -0.020520631
-0.057283487 0.061152738 -0.071362205 -0.076341406 0.08609443 -0.0765237 0.04010059 0.0401357
0.068220705 -0.004144072 0.06349803 -0.043540582 0.0750686 -0.03146173 0.007362336 0.0038447042
0.00053142 0.095194094 0.0150748165 -0.121494845 -0.002878449 0.011370438 -0.067101054 -0.041556265
-0.086521685 -0.042650193 -0.01342271 0.066970006 -0.11002954 0.082508706 -0.012313614 0.025659854
-0.0073671285 0.038351282 0.0013374931 0.06617841 -0.047930855 -0.054445002 -0.07310193 -0.054103054
0.017861603 0.12675777 0.024269158 0.072596565 0.056321368 -0.08951805 -0.08980118 -0.053121585
-0.09199728 -0.077335835 0.05217955 0.07830701 0.039400302 0.12881571 0.025701664 0.042065434
-0.060398 -0.030613918 0.10200998 -0.115059935 0.059765767 0.032803796 0.121340804 -0.059677266
-0.10714714 0.052165862 -0.019335046 -0.10862395 -0.05374066 -0.01435479 0.036157306 -0.016033141
0.0008978842 -0.09530178 -0.09226541 -0.0090812305 -0.06674741 -0.05630782 0.100835115 0.009580701
0.015569829 0.12460818 -0.03803087 -0.1021802 0.026306171 0.022699263 -0.019319583 0.11066477
0.11581992 0.080915086 0.004090013 -0.049534116 -0.0050130486 0.02871143 -0.116642535 -0.032827422
0.07945542 -0.048505306 0.08853125 0.09929071 0.053738564 -0.08726995 0.014978533 -0.07081665
00000000: 1a8a 7b3d 4dca 883d 5aeb a5bc b04f babc
00000010: 740f a03b 8144 cfbc 04fe 6fbd 2fb6 e53d
00000020: f97c f63d 789e b2bc f89d 453d 47e5 91bc
00000030: 9b0a 6a3c 52ff a23d 5772 a93d 47d0 45bd
00000040: 9bb6 eabd dace 843d 9032 ebbd 2c17 833d
00000050: 9572 c23c 1a21 c83d acd5 cd3d 0e51 96bd
00000060: 45e3 f73d 3210 60bd c608 003e e89a 963b
00000070: d72a e73d 7493 c4bd 9374 d9bd d71d c7bd
00000080: 513b 17bd f1f1 30bd 71b6 e7bc 05e1 cbbd
00000090: e798 da3d 373b 8d3d ac4a f9bc 9523 103d
000000a0: 599b d4bd 2a45 ecbd 6ec9 693d f41d 4bbd
000000b0: 4dc9 013d 8176 cf3d 2e77 02bd 5e2f 0f3d
000000c0: f81f 813d c08d 8a3d 41fc 8d3d dee4 af3c
000000d0: 1a5a f8bd 7135 9abd 9de2 dabd 803a c93d
000000e0: 7c06 b2bd e558 fb3b 49fd 22bc 9a62 90bc
000000f0: a6fb b9bd 444b cbbd 66e5 e73c cdac b03d
00000100: 967f 673d 7f83 3f3d 6c5a c33d 33fa 27bd
00000110: c7bd d3bd c73f 873c 0fb8 513d 86c6 753d
00000120: 0d5d f6bd 10e3 26bc 7389 7ebd 386b 5139
00000130: 1a8d e4bd 6f2d cf3d 481a d93d f0d9 983d
00000140: 0ac1 44bd c94b 30bd 83e2 8b3d e533 28bc
00000150: 3a54 f23d a62a 89bc b17f a23d 609d fc3d
00000160: 694b 2e3d 243d c33c f5b9 9e3d 1173 cebd
00000170: b421 c13d 1084 313a d083 83bb 6142 073d
00000180: 7ffa d03c 8b08 003d 1256 9cbc 0db7 4fbd
00000190: c7e6 3cbd 7b09 02be bffb 81bd 68d4 8b3d
000001a0: f66e 4c3d 7252 f6bc d992 63bd 1d5f 2ebd
000001b0: a831 663c 68c8 90bc 5b91 be3d 463f a53d
000001c0: 3a3a 173c 52b7 163d cdb7 1a3d a213 d23c
000001d0: 9032 b43d 2407 20bd 1416 bf3d a4c3 cf3d
000001e0: 5fef 01be 83c5 c53d 3bed a1bd 8b67 993d
000001f0: 73cc f83c c95e ff3d 7a25 df3c 5016 53bb
00000200: c1fe cf3c 7b91 843d 9abc 313c ebbf e53d
00000210: b6c0 543d 9668 5d3d 4e06 06bd f59f fabc
00000220: 8363 873c 6614 0abd c5d8 b13d c47b 2fbd
00000230: 75a6 a6bd 9069 40bd 9083 f13d 0329 bf3d
00000240: eef5 fa3c 0b13 8f3d 44b1 e33d f4e0 37bd
00000250: aad7 29bd 5d9c fc3d c187 92bd e21a a8bc
00000260: 17a2 6abd 4b7b 7a3d 5926 92bd e258 9cbd
00000270: 4752 b03d 75b8 9cbd 8440 243d 5565 243d
00000280: 4cb7 8b3d ffca 87bb 410b 823d 9c57 32bd
00000290: 91bd 993d 04de 00bd c03f f13b 6ff7 7b3b
000002a0: fe4e 0b3a 1ff5 c23d 5dfc 763c 4ad2 f8bd
000002b0: 5ca4 3cbb 134b 3a3c 476c 89bd e736 2abd
000002c0: 4832 b1bd f8b1 2ebd edea 5bbc 9227 893d
000002d0: 2b57 e1bd 53fa a83d 0abf 49bc 9d34 d23c
000002e0: f467 f1bb 3c16 1d3d d24e af3a 8c88 873d
000002f0: 2553 44bd b901 5fbd 77b6 95bd 2a9b 5dbd
00000300: 7f52 923c cacc 013e 1dd0 c63c 82ad 943d
00000310: 3cb1 663d 3d55 b7bd aee9 b7bd 0596 59bd
00000320: 1269 bcbd 4062 9ebd 39ba 553d 6d5f a03d
00000330: 3662 213d 44e8 033e 4c8c d23c ce4c 2c3d
00000340: e563 77bd 0aca fabc 9cea d03d 8ba4 ebbd
00000350: f3cc 743d 465d 063d 8781 f83d 2670 74bd
00000360: f66f dbbd dfab 553d 8864 9ebc 3c76 debd
00000370: 2b1f 5cbd 5a30 6bbc af19 143d ef57 83bc
00000380: fd5f 6b3a 942d c3bd a6f5 bcbd 71c9 14bc
00000390: deb2 88bd 07a3 66bd a482 ce3d 5ff8 1c3c
000003a0: 9918 7f3c 9332 ff3d 42c6 1bbd da43 d1bd
000003b0: 0a80 d73c cef3 b93c 1a44 9ebc 36a4 e23d
000003c0: ff32 ed3d cfb6 a53d 8405 863b 49e4 4abd
000003d0: 8044 a4bb 3c34 eb3c 48e2 eebd 0c76 06bd
000003e0: 86b9 a23d 80ad 46bd df4f b53d ee58 cb3d
000003f0: f81c 5c3d 96ba b2bd 8568 753c 5208 91bd

weight f4 [8]
1.0 0.9999884 0.9999999 0.9999999 0.99998826 0.9999993 0.9999998 1.0000226
00000000: 0000 803f 3dff 7f3f feff 7f3f feff 7f3f
00000010: 3bff 7f3f f4ff 7f3f fdff 7f3f be00 803f

bias f4 [8]
1.0314759e-09 -6.5407963e-09 -3.790309e-08 1.5120749e-08 -5.6067943e-08 -4.608214e-08 5.095906e-08 4.1556785e-08
00000000: d5c3 8d30 74bd e0b1 e3ca 22b3 e1e2 8132
00000010: 5bcf 70b3 d9eb 45b3 14de 5a33 2b7c 3233

running_mean f4 [8]
-0.002175673 -0.0106872665 -0.0029227692 -0.0017111268 -0.018683666 -0.004843292 0.0042390972 -0.0069151917
00000000: bc95 0ebb a519 2fbc ee8b 3fbb e347 e0ba
00000010: 7d0e 99bc 7ab4 9ebb 20e8 8a3b d598 e2bb

running_var f4 [8]
0.00020162237 0.0026940492 0.0002978947 0.000119852026 0.008162852 0.0006000117 0.00047059372 0.0011870479
00000000: 986a 5339 a58e 303b c02e 9c39 1159 fb38
00000010: 7cbd 053c 1b4a 1d3a 05ba f639 b896 9b3a

weight f4 [16, 1, 64, 1]
0.036082283 0.0108835455 -0.042989258 -0.054127548 0.113920115 0.11912806 0.12406181 0.0048589236
-0.088601105 -0.017003242 0.05577776 -0.11356065 0.012346051 -0.070137605 0.037573364 0.07289636
-0.0018196647 0.055606984 -0.10199847 -0.0011495476 0.1211525 -0.109260485 0.011439754 0.073981926
-0.08265138 0.11712765 0.0931526 -0.10482993 0.10593823 0.08964828 -0.04412557 -0.10363261
0.06252843 0.09701131 0.0804312 0.11872641 -0.04431729 -0.016028125 -0.118581064 0.029724061
-0.03995319 0.12487723 -0.07163105 0.096246794 -0.111402944 0.05475514 0.028412472 -0.08786066
-0.0138949305 0.031418 -0.099426776 -0.053576097 -0.066361725 0.10821214 -0.028268069 -0.020788742
-0.04689676 0.043173123 0.091185234 -0.123461425 0.027088678 -0.0019685067 -0.05731551 -0.11842801
0.07192643 0.031983662 -0.028299911 -0.081850715 0.11014031 -0.0027117457 -0.03888113 -0.031447582
-0.09983549 -0.05985611 -0.0563687 0.09681984 -0.06974732 0.06949027 0.081702396 0.04686541
0.05514191 0.118948616 -0.10212795 -0.0040332456 0.090742104 -0.10039098 -0.12375774 -0.030531788
-0.0060769203 -0.039951127 0.09838981 0.043556157 -0.037056018 0.0001863895 0.087222785 -0.016304974
-0.09155416 -0.09207453 0.12152207 0.011787257 -0.036543522 0.11774682 0.032788396 -0.039860554
0.011409293 0.11127041 -0.0371107 -0.09252763 0.06846897 0.026968865 0.008132923 -0.06675177
-0.076503836 0.12212819 -0.0035361804 -0.009445946 0.020597924 0.03879518 -0.010308015 -0.060397737
-0.101270095 0.072038256 0.11778917 0.04973662 -0.08162216 0.05220449 -0.1137986 -0.12004007
-0.066793956 0.039475784 -0.016111976 0.006812882 0.03434501 0.019998066 0.11880535 -0.111155964
0.026842834 0.04412112 0.09807143 0.0060783424 0.052965444 0.08374282 -0.11100039 0.090077356
-0.06712561 0.09082229 -0.0068340437 -0.10201456 -0.08947157 0.08926943 0.11628941 0.086685784
0.071490385 -0.09268543 -0.013054975 0.034804028 0.08539788 -0.01834149 -0.11182682 -0.024033299
0.07931034 0.06152658 0.04510274 0.021997422 -0.02238477 -0.04346438 -0.0036314481 0.050051335
-0.10921833 0.061920315 0.034796536 -0.11542566 -0.08161762 -0.010449856 -0.12143317 -0.017670725
-0.09794175 0.02564919 0.013747926 -0.07474753 0.043859437 -0.09689357 -0.059841394 -0.013052253
-0.09661455 -0.04498446 -0.07412332 0.0061895223 0.0028582907 0.0521292 -0.11596829 -0.05252839
-0.034739744 -0.054700315 0.039123606 0.03642906 0.05040373 0.07336747 0.074467234 0.011097364
0.08126227 0.011591481 0.070651956 0.084300704 -0.08496771 -0.09009971 0.021346558 0.013396621
-0.027078075 0.030100228 0.020106208 -0.05557774 -0.08321856 -0.06280481 0.055669274 0.096679285
-0.042765748 0.08327805 0.093829244 -0.038548008 -0.074796565 0.054042 -0.050711107 -0.036969077
-0.04523502 -0.056135677 0.022178449 -0.111671954 -0.0502746 -0.039789144 0.10298249 0.1055668
-0.03174642 -0.01062516 0.03146714 0.034822073 0.057174064 -0.030028336 0.08092481 -0.09657941
0.005633546 -0.0019207167 -0.03878332 -0.11125169 -0.003413529 0.043083027 -0.08750251 -0.10694961
-0.06514973 0.045188535 -0.08902978 0.11741068 -0.03704788 0.05507134 0.031623803 -0.018781554
00000000: 04cb 133d e650 323c 8115 30bd d9b4 5dbd
00000010: f34e e93d 6af9 f33d 1e14 fe3d 9b37 9f3b
00000020: 7f74 b5bd 624a 8bbc 3877 643d 7c92 e8bd
00000030: 1747 4a3c 4ea4 8fbd 87e6 193d b04a 953d
00000040: d181 eeba 26c4 633d 93e4 d0bd 6bac 96ba
00000050: cd1e f83d f6c3 dfbd ce6d 3b3c d683 973d
00000060: 2045 a9bd 9fe0 ef3d cac6 be3d 13b1 d6bd
00000070: 25f6 d83d 8499 b73d 04bd 34bd 553d d4bd
00000080: e80e 803d dead c63d 1db9 a43d d526 f33d
00000090: 0c86 35bd 6a4d 83bc a1da f2bd e07f f33c
000000a0: f5a5 23bd a2bf ff3d 4db3 92bd 0a1d c53d
000000b0: 3a27 e4bd ed46 603d 46c1 e83c 4af0 b3bd
000000c0: 90a7 63bc 29b0 003d 44a0 cbbd 9c72 5bbd
000000d0: a8e8 87bd 549e dd3d 7092 e7bc 274d aabc
000000e0: d116 40bd 4dd6 303d 53bf ba3d 58d9 fcbd
000000f0: 13e9 dd3c 1002 01bb abc3 6abd 628a f2bd
00000100: 2a4e 933d 4d01 033d 37d5 e7bc 59a1 a7bd
00000110: 3e91 e13d 8bb7 31bb d241 1fbd 2ecf 00bd
00000120: 8d76 ccbd ae2b 75bd dee2 66bd 7b49 c63d
00000130: afd7 8ebd ea50 8e3d 9653 a73d f2f5 3f3d
00000140: 7cdc 613d 559b f33d 7528 d1bd 5129 84bb
00000150: ffd6 b93d c999 cdbd b374 fdbd cd1d fabc
00000160: e720 c7bb cba3 23bd 9980 c93d f167 323d
00000170: 0dc8 17bd 8d71 4339 dca1 b23d 0292 85bc
00000180: bf80 bbbd 9291 bcbd 90e0 f83d 571f 413c
00000190: a9ae 15bd 3f25 f13d 204d 063d d244 23bd
000001a0: 0bee 3a3c bee1 e33d 6401 18bd 207f bdbd
000001b0: 7639 8c3d cfed dc3c f43f 053c 27b5 88bd
000001c0: 0bae 9cbd 581e fa3d 43bf 67bb 2bc3 1abc
000001d0: fabc a83c b2e7 1e3d f3e2 28bc 9e63 77bd
000001e0: b266 cfbd cb88 933d 733b f13d a0b8 4b3d
000001f0: 8529 a7bd 60d4 553d 3e0f e9bd 91d7 f5bd
00000200: 45cb 88bd 5cb1 213d 43fd 83bc 993e df3b
00000210: 5aad 0c3d fcd2 a33c 3850 f33d bda5 e3bd
00000220: 81e5 db3c 59b8 343d add9 c83d d52c c73b
00000230: 4bf2 583d 5b81 ab3d 2c54 e3bd 7a7a b83d
00000240: 2779 89bd 0901 ba3d 1df0 dfbb 02ed d0bd
00000250: df3c b7bd e4d2 b63d 2429 ee3d 5188 b13d
00000260: 8d69 923d dcd1 bdbd 89e4 55bc ab8e 0e3d
00000270: 15e5 ae3d e440 96bc 7605 e5bd 7be1 c4bc
00000280: 766d a23d 4c03 7c3d a7bd 383d f033 b43c
00000290: 4460 b7bc b507 32bd 97fd 6dbb a102 4d3d
000002a0: dcad dfbd 28a0 7d3d d086 0e3d 4a64 ecbd
000002b0: 2427 a7bd df35 2bbc f4b1 f8bd 32c2 90bc
000002c0: af95 c8bd 401e d23c fb3e 613c 3c15 99bd
000002d0: f4a5 333d 2370 c6bd 401c 75bd 1ed9 55bc
000002e0: d9dd c5bd a041 38bd f8cd 97bd 7ad1 ca3b
000002f0: 2952 3b3b 6e85 553d c880 edbd 0228 57bd
00000300: 434b 0ebd 700d 60bd 1340 203d a336 153d
00000310: 2474 4e3d af41 963d 4782 983d b8d1 353c
00000320: d56c a63d 32ea 3d3c f9b1 903d d9a5 ac3d
00000330: 8d03 aebd 3286 b8bd fade ae3c 807d 5b3c
00000340: d7d2 ddbc c194 f63c c6b5 a43c 7ca5 63bd
00000350: 7e6e aabd cf9f 80bd 7705 643d caff c53d
00000360: 232b 2fbd af8d aa3d 8c29 c03d 84e4 1dbd
00000370: f12e 99bd 255b 5d3d 73b6 4fbd e36c 17bd
00000380: 5b48 39bd 86ee 65bd 94af b53c 44b4 e4bd
00000390: bdec 4dbd f1f9 22bd 7ce8 d23d 6833 d83d
000003a0: 8908 02bd 2715 2ebc b0e3 003d 97a1 0e3d
000003b0: 5a2f 6a3d fcfd f5bc e8bb a53d 6dcb c5bd
000003c0: 9c99 b83b 8fc0 fbba 42db 1ebd edd7 e3bd
000003d0: 83b5 5fbb d477 303d 8434 b3bd 6608 dbbd
000003e0: 396d 85bd 9d17 393d 3f55 b6bd 0375 f03d
000003f0: 85bf 17bd 7c92 613d f687 013d c6db 99bc

weight f4 [16]
0.99992687 1.0004218 0.9980085 0.9965474 0.99690276 1.0018089 1.0003582 0.9993223
1.0009379 0.9959427 0.9979987 1.0013783 1.0007131 1.0001911 1.008689 1.0032259
00000000: 35fb 7f3f d20d 803f 7c7d 7f3f bb1d 7f3f
00000010: 0535 7f3f 463b 803f bd0b 803f 96d3 7f3f
00000020: bc1e 803f 1af6 7e3f d87c 7f3f 2a2d 803f
00000030: 5e17 803f 4306 803f b91c 813f b569 803f

bias f4 [16]
-0.0010031181 -0.0023033277 -0.00015100764 -0.0038027815 -0.0009088032 0.0007710244 0.0011887245 0.002623298
-0.00014150701 -0.001254104 0.0011387911 0.0021274248 0.0006139967 0.0011085828 0.0053929826 -0.0007172383
00000000: 0f7b 83ba 6df3 16bb ce57 1eb9 1638 79bb
00000010: c03c 6eba 921e 4a3a face 9b3a a3eb 2b3b
00000020: 8061 14b9 bf60 a4ba 7d43 953a 446c 0b3b
00000030: 9ff4 203a de4d 913a 9eb7 b03b 0c05 3cba

running_mean f4 [16]
0.91734195 0.88357735 0.75000715 -0.38189754 -0.0420689 0.118559584 -0.28087437 -0.13852969
-0.1890735 0.09928645 0.8136383 0.066783115 1.3003672 0.80789614 0.5985042 -0.033100694
00000000: ecd6 6a3f 2032 623f 7800 403f 1388 c3be
00000010: 7050 2cbd 5ecf f23d c4ce 8fbe bada 0dbe
00000020: 7c9c 41be b256 cb3d 9a4a 503f 96c5 883d
00000030: 6f72 a63f 48d2 4e3f 9237 193f 9894 07bd

running_var f4 [16]
0.6589302 0.26051375 0.011099772 0.005279822 0.15572393 0.13455391 0.028235944 0.023783097
0.00545913 0.0032911832 0.04367478 0.04007635 0.15055741 0.014037392 0.008797512 0.006930357
00000000: a6af 283f 0f62 853e d1db 353c 5b02 ad3b
00000010: 1876 1f3e 80c8 093e 114f e73c c5d4 c23c
00000020: 80e2 b23b e4b0 573b 53e4 323d 1927 243d
00000030: b92b 1a3e 17fd 653c 7123 103c 0c18 e33b

weight f4 [16, 1, 1, 16]
-0.21655113 -0.10096797 -0.18732959 -0.14189386 0.054775853 0.16711693 -0.022646442 -0.15776509
0.1506968 -0.06795034 0.13169563 0.18254508 0.10642398 -0.17054388 -0.08590622 -0.19968453
-0.13383 0.06319623 0.22437598 -0.05087268 0.009345139 0.19968016 0.027895536 0.065365806
0.13394338 -0.14918704 -0.13076547 0.013714337 -0.21673438 0.11536495 -0.13051769 -0.13998133
-0.19868764 -0.13259146 -0.053112842 -0.14775294 0.2078971 0.116582476 0.24054968 -0.16787621
0.20059985 0.12674013 -0.070686825 -0.05737797 -0.14863396 0.12353034 -0.034967814 -0.20427537
-0.12722585 0.12440977 -0.21563259 -0.18803023 -0.12500437 -0.029554524 -0.07553173 0.11195566
0.11640847 -0.12365397 0.236345 -0.12075904 -0.100175634 -0.095071435 0.23491922 0.068961345
-0.03254138 0.22801778 -0.15859328 0.1131908 -0.1228459 -0.22919202 0.0015599326 0.19780874
0.23173662 0.15467723 0.035915498 0.020486254 -0.11378357 0.01257536 0.24466981 0.1925932
-0.2109776 -0.21525317 -0.02301854 0.17427416 0.17787793 -0.18998782 -0.058965683 0.013673471
0.09847625 -0.07365363 -0.16338758 -0.23461692 -0.073046304 -0.17580317 -0.11160983 -0.08598676
-0.06109811 0.18558012 0.11694525 0.10955406 0.1814184 -0.1028435 -0.21090648 0.01363117
-0.14245448 -0.13706562 0.14732508 -0.07749868 -0.17161508 0.09336478 -0.19447444 -0.209421
0.24449626 0.23384133 -0.010154266 0.17156273 0.12345087 -0.050172694 -0.08133116 -0.21728073
0.096692495 -0.08789415 -0.15589535 -0.20289375 -0.0031319393 0.14729431 -0.17486542 -0.0093435
-0.0022261718 0.09757016 -0.21907836 -0.133831 -0.04464647 0.20912296 -0.047737043 0.16070819
0.0826398 0.12010502 0.014325192 -0.119233966 0.09119038 -0.015641754 -0.12050852 0.03796888
-0.07868605 -0.22820306 0.16788545 0.19929637 -0.07979098 -0.1973138 0.13378336 0.109242156
0.14301041 0.22569151 0.14207149 -0.20565596 0.16231868 -0.08498691 0.15065157 -0.21876591
0.022017408 -0.20944574 -0.16429041 -0.15271664 0.21822762 -0.15750274 -0.16571707 -0.018120617
0.17908312 0.23220281 -0.15413786 -0.1408681 0.0038685014 -0.11595993 -0.13321202 0.24135618
0.12561174 0.09838396 -0.06654824 -0.07837701 -0.14042968 -0.22538741 -0.03495608 0.10463426
-0.17819442 0.19653037 -0.016773157 -0.20674911 0.08371975 0.08874415 0.07935216 0.17530829
0.07608109 -0.18588214 -0.20062684 0.040879183 0.20631221 -0.07494004 -0.13468805 0.015773723
0.005975423 0.09873596 0.101094216 -0.19686776 0.17914304 -0.1480642 -0.026323898 -0.22044384
0.20223242 0.15785667 0.23907791 -0.24822275 0.20824715 -0.1541026 0.012901074 -0.22929509
-0.09282351 -0.15420896 -0.18026015 -0.2300495 -0.003926797 -0.010642677 0.11106723 -0.136742
0.06406082 -0.12946707 -0.0964362 -0.14701994 0.045620278 -0.082457244 -0.19519472 -0.22785355
-0.1831971 0.1780683 0.19919604 0.016079128 0.202438 0.06144173 0.23420522 0.09623162
0.16884573 0.22313936 0.19108999 0.053669672 -0.068679 0.07398368 -0.17211145 0.09495566
0.13922238 -0.2253083 -0.16042858 0.16272357 0.17558843 -0.22406933 -0.25082916 0.1305502
00000000: 94bf 5dbe 4cc8 cebd 54d3 3fbe a04c 11be
00000010: a55c 603d b320 2b3e 0885 b9bc 2c8d 21be
00000020: 4350 1a3e 8c29 8bbd 38db 063e 19ed 3a3e
00000030: d1f4 d93d 0ea3 2ebe 9aef afbd 1a7a 4cbe
00000040: bb0a 09be 066d 813d d1c2 653e df5f 50bd
00000050: 5b1c 193c f578 4c3e 2e85 e43c 82de 853d
00000060: 7428 093e 7dc4 18be 62e7 05be 19b2 603c
00000070: 9eef 5dbe 7544 ec3d 6ea6 05be 4457 0fbe
00000080: c674 4bbe 0ec6 07be da8c 59bd 8c4c 17be
00000090: fae2 543e cbc2 ee3d a852 763e bee7 2bbe
000000a0: 0c6a 4d3e 2ac8 013e 41c4 90bd 2a05 6bbd
000000b0: 8033 18be 7afd fc3d 693a 0fbd 902d 51be
000000c0: 7e47 02be 8dca fe3d cace 5cbe ff8a 40be
000000d0: 2501 00be 541c f2bc 61b0 9abd 0249 e53d
000000e0: 9067 ee3d 4b3e fdbd 6c04 723e 8450 f7bd
000000f0: e228 cdbd d0b4 c2bd aa8e 703e 9b3b 8d3d
00000100: 1c4a 05bd 7e7d 693e 4766 22be 94d0 e73d
00000110: a296 fbbd 50b1 6abe a776 cc3a 608e 4a3e
00000120: 5d4c 6d3e b563 1e3e 211c 133d cad2 a73c
00000130: 5c07 e9bd e208 4e3c b98a 7a3e 2737 453e
00000140: 830a 58be 546b 5cbe 6191 bcbc ed74 323e
00000150: a225 363e 2b8c 42be 0086 71bd b206 603c
00000160: ebad c93d b7d7 96bd 134f 27be 6b3f 70be
00000170: 4d99 95bd bf05 34be b293 e4bd d419 b0bd
00000180: 0342 7abd b708 3e3e fe80 ef3d e15d e03d
00000190: bfc5 393e 9d9f d2bd def7 57be 4555 5f3c
000001a0: 96df 11be ee5a 0cbe 63dc 163e a1b7 9ebd
000001b0: ddbb 2fbe 0936 bf3d 4f24 47be 7572 56be
000001c0: 3a5d 7a3e 1a74 6f3e 145e 26bc 24ae 2f3e
000001d0: cfd3 fc3d e281 4dbd f490 a6bd d77e 5ebe
000001e0: b706 c63d d901 b4bd 08a3 1fbe 61c3 4fbe
000001f0: 3941 4dbb 52d4 163e ec0f 33be 7b15 19bc
00000200: f7e4 11bb ddd2 c73d 1456 60be fe0a 09be
00000210: 38df 36bd 5424 563e eb87 43bd b090 243e
00000220: 0e3f a93d 9ff9 f53d 36b4 6a3c f030 f4bd
00000230: 06c2 ba3d 2323 80bc 2ccd f6bd 4285 1b3d
00000240: 2726 a1bd 10ae 69be 2aea 2b3e 5914 4c3e
00000250: 7469 a3bd a10c 4abe 81fe 083e 5aba df3d
00000260: 5271 123e ad1b 673e 307b 113e 7a97 52be
00000270: de36 263e 9e0d aebd 6844 1a3e 2c04 60be
00000280: da5d b43c f278 56be bf3b 28be c061 1cbe
00000290: 1077 5f3e 6648 21be bcb1 29be b071 94bc
000002a0: 9161 373e 93c6 6d3e 51d6 1dbe ba3f 10be
000002b0: af86 7d3b 667c edbd bb68 08be 1326 773e
000002c0: 5da0 003e 887d c93d 724a 88bd 2084 a0bd
000002d0: cccc 0fbe f5cb 66be 1b2e 0fbd 7d4a d63d
000002e0: 9978 36be 423f 493e dc67 89bc 0ab6 53be
000002f0: 4375 ab3d 7ebf b53d 6383 a23d 0484 333e
00000300: 67d0 9b3d e357 3ebe 1f71 4dbe ee70 273d
00000310: 8243 533e 2a7a 99bd aaeb 09be e537 813c
00000320: 7bcd c33b 1436 ca3d 7c0a cf3d b497 49be
00000330: 4671 373e 249e 17be 37a5 d7bc 08bc 61be
00000340: 0416 4f3e 2ea5 213e d7d0 743e 1b2e 7ebe
00000350: be3e 553e 12cd 1dbe 075f 533c 55cc 6abe
00000360: 411a bebd f4e8 1dbe 1e96 38be 1992 6bbe
00000370: 5cac 80bb 9f5e 2ebc 3777 e33d 1806 0cbe
00000380: 5232 833d 0493 04be 5880 c5bd 658c 16be
00000390: 54dc 3a3d 58df a8bd 20e1 47be 7152 69be
000003a0: 0598 3bbe 8957 363e 0cfa 4b3e 60b8 833c
000003b0: e84b 4f3e 53aa 7b3d 7ed3 6f3e 1515 c53d
000003c0: e5e5 2c3e a57e 643e 18ad 433e bbd4 5b3d
000003d0: 93a7 8cbd c184 973d fc3d 30be 1d78 c23d
000003e0: 5090 0e3e 38b7 66be 6447 24be 02a1 263e
000003f0: 74cd 333e 6e72 65be ae6c 80be f4ae 053e

weight f4 [16, 16, 1, 1]
0.19128418 -0.03113606 -0.0058723553 0.023486396 -0.17912698 -0.18666697 0.095620684 0.1027989
-0.07131074 -0.18752365 -0.12055988 -0.21927968 -0.12513922 0.073647656 0.20854618 -0.11312445
-0.2252871 -0.0684962 0.02804545 0.14682896 0.08664448 -0.14487556 0.22245651 0.19340044
0.039389372 -0.18255585 -0.17068227 0.15907529 -0.23091786 0.18781792 0.12264872 0.22721379
0.009108587 0.16376571 -0.15085724 -0.13797419 0.24167597 -0.0917148 0.06725637 0.19741091
-0.2172867 -0.04448331 -0.04120495 0.12685063 0.121308915 -0.14951845 -0.187157 0.06301071
-0.19565131 0.0991627 -0.12492663 0.01259386 0.17985015 0.12950484 -0.02172279 0.010642432
0.000689838 0.064164564 0.05848671 0.1827061 -0.028033245 0.07762287 0.18706276 0.16571726
-0.098450154 -0.090967506 0.07665019 0.19506556 -0.16995376 0.16924186 0.24555783 0.08511654
-0.2228399 -0.13600464 -0.16535275 0.21143396 -0.120023265 -0.07287416 -0.006505872 0.22983554
0.07448917 0.19602667 -0.19784234 0.1554586 -0.05371179 0.18970661 0.105015635 0.1063484
0.13843535 -0.008279355 -0.1344869 0.17591308 -0.04143239 0.03282384 -0.2592239 -0.10737031
-0.1758856 -0.009825229 0.08337212 -0.18532076 -0.14071928 -0.16361332 0.18991344 -0.16704157
-0.08218337 -0.11943366 -0.023699358 -0.023376597 0.15558118 -0.1271671 0.19907601 0.04814666
0.04371765 0.11738888 0.22526251 -0.026701875 0.039270595 0.21777278 0.008882279 0.09401542
0.024624338 0.117596075 -0.106998384 0.24878454 -0.24022235 0.002209059 -0.13570009 -0.01956599
-0.03093699 -0.055516683 -0.09316014 0.16263342 -0.16046375 0.11426823 -0.24444754 0.11210098
-0.22770225 0.21539357 0.16142783 -0.050707698 -0.07567742 0.19220093 0.16713527 0.05636238
0.18954037 0.1500065 -0.011037981 0.027241284 0.090930276 0.18050043 -0.21961373 0.10877547
0.016287636 -0.025479747 0.078534 -0.12619147 -0.14121446 -0.11312519 -0.17981699 -0.06306835
0.05725999 -0.09609902 -0.2065926 0.060747493 0.061897364 0.19035627 0.040230215 -0.12630427
-0.1594366 0.14566487 -0.013170739 -0.11277903 0.0018902885 0.0422091 0.19663253 0.105887435
-0.025132481 -0.13526592 0.030328048 -0.18607813 0.0999105 -0.0011717563 -0.118818305 -0.1618353
0.18469007 -0.013590481 -0.15338953 0.11723559 -0.021089671 -0.22265795 -0.16477054 -0.13505228
0.18191327 0.18517593 0.20862715 0.016662516 0.025904644 0.05127366 -0.23735069 -0.16765551
-0.17661321 -0.109179355 0.20413844 -0.21391146 -0.20592709 0.050722074 -0.13374579 -0.13772435
0.018357575 0.22316203 -0.01831354 0.058646988 -0.21510318 -0.23795883 -0.01359263 -0.24660392
-0.2346859 0.04804244 0.21225974 0.13202716 0.1326144 0.18797454 -0.070226975 -0.054848872
-0.07970177 -0.21655549 -0.10767272 0.14068273 -0.09614474 0.15136003 -0.09897797 0.08468007
0.07422686 0.21419312 0.049585972 0.14806499 -0.20480631 -0.011474792 0.20147897 0.21079108
-0.10566381 -0.22753878 0.12679984 -0.19767278 0.08743224 0.017060773 0.034723215 -0.19351077
0.19302237 0.11122483 0.17729081 0.034256473 -0.08402462 0.2437254 -0.23465444 -0.24153581
00000000: 00e0 433e 0d11 ffbc e36c c0bb 8b66 c03c
00000010: 106d 37be a025 3fbe c7d4 c33d 3b88 d23d
00000020: 5e0b 92bd 3306 40be 19e8 f6bd da8a 60be
00000030: 7f24 00be 95d4 963d 218d 553e cbad e7bd
00000040: a9b1 66be bc47 8cbd 92bf e53c 555a 163e
00000050: a972 b13d 425a 14be a4cb 633e c40a 463e
00000060: c056 213d ecef 3abe 55c7 2ebe a2e4 223e
00000070: bb75 6cbe 5753 403e 412f fb3d bbaa 683e
00000080: 2f3c 153c 33b2 273e 527a 1abe 1b49 0dbe
00000090: e879 773e f8d4 bbbd b5bd 893d 1626 4a3e
000000a0: 6880 5ebe 2234 36bd 86c6 28bd 22e5 013e
000000b0: cf70 f83d 5d1b 19be 16a6 3fbe c20b 813d
000000c0: d158 48be d015 cb3d 88d9 ffbd 7a56 4e3c
000000d0: a32a 383e eb9c 043e fef3 b1bc 985d 2e3c
000000e0: 3fd6 343a b668 833d c38f 6f3d 4f17 3b3e
000000f0: faa5 e5bc bdf8 9e3d 618d 3f3e c9b1 293e
00000100: 3ca0 c9bd 2c4d babd c6fa 9c3d 44bf 473e
00000110: 5c08 2ebe bd4d 2d3e 8373 7b3e 9551 ae3d
00000120: 2530 64be cd44 0bbe 3b52 29be 2582 583e
00000130: c2ce f5bd 0c3f 95bd 362f d5bb 025a 6b3e
00000140: c78d 983d 37bb 483e 2f97 4abe 8a30 1f3e
00000150: e500 5cbd 7342 423e 7012 d73d 31cd d93d
00000160: ffc1 0d3e 22a6 07bc efb6 09be 8f22 343e
00000170: 03b5 29bd 4a72 063d ffb8 84be f7e4 dbbd
00000180: 5b1b 34be fff9 20bc 01bf aa3d bac4 3dbe
00000190: b718 10be 408a 27be ab78 423e f20c 2bbe
000001a0: c14f a8bd a299 f4bd 2825 c2bc 4780 bfbc
000001b0: ac50 1f3e 1838 02be 95da 4b3e 6f35 453d
000001c0: 4711 333d 9569 f03d 37ab 663e e4bd dabc
000001d0: 34da 203d d4ff 5e3e fa86 113c 288b c03d
000001e0: fbb8 c93c 36d6 f03d f821 dbbd 60c1 7e3e
000001f0: d9fc 75be dcc5 103b f7f4 0abe db48 a0bc
00000200: 926f fdbc 7665 63bd beca bebd 6089 263e
00000210: 9c50 24be 7605 ea3d 7550 7abe 3395 e53d
00000220: c72a 69be 2290 5c3e 564d 253e e0b2 4fbd
00000230: c3fc 9abd 52d0 443e 8225 2b3e 3ddc 663d
00000240: df16 423e 4e9b 193e a6d8 34bc 1d29 df3c
00000250: a739 ba3d 1bd5 383e 6ce2 60be acc5 de3d
00000260: a66d 853c e7ba d0bc 6fd6 a03d 5638 01be
00000270: 869a 10be 2eae e7bd f221 38be fb29 81bd
00000280: 7489 6a3d 90cf c4bd 038d 53be 5dd2 783d
00000290: 1788 7d3d c1ec 423e 70c8 243d e855 01be
000002a0: 5943 23be 2c29 153e 15ca 57bc b1f8 e6bd
000002b0: 8fc3 f73a 73e3 2c3d 0a5a 493e 83db d83d
000002c0: a2e2 cdbc 2683 0abe 8772 f83c 448b 3ebe
000002d0: e09d cc3d 9e95 99ba 0357 f3bd 27b8 25be
000002e0: 651f 3d3e 9caa 5ebc 2512 1dbe 3719 f03d
000002f0: 3fc4 acbc 7200 64be 9cb9 28be 254b 0abe
00000300: 7947 3a3e c29e 3d3e 5ba2 553e d47f 883c
00000310: fa35 d43c 5404 523d 0f0c 73be e3ad 2bbe
00000320: 18da 34be 6d99 dfbd ab09 513e 9b0b 5bbe
00000330: 8dde 52be f3c1 4f3d a8f4 08be 9d07 0dbe
00000340: a062 963c 9684 643e 4706 96bc d337 703d
00000350: 0244 5cbe 7bab 73be 9fb3 5ebc bd85 7cbe
00000360: 8051 70be 26c8 443d 9e5a 593e 2132 073e
00000370: 12cc 073e 667c 403e 29d3 8fbd 36a9 60bd
00000380: ae3a a3bd b9c0 5dbe 8483 dcbd 220f 103e
00000390: 89e7 c4bd 20fe 1a3e f6b4 cabd bf6c ad3d
000003a0: 4104 983d 7155 5b3e a91a 4b3d 599e 173e
000003b0: bfb8 51be c400 3cbc 8150 4e3e 9ed9 573e
000003c0: 4566 d8bd edff 68be d1d7 013e bc6a 4abe
000003d0: ad0f b33d 09c3 8b3c ee39 0e3d b027 46be
000003e0: a8a7 453e d8c9 e33d b98b 353e 8450 0c3d
000003f0: 1a15 acbd 2793 793e 4149 70be 2a55 77be

weight f4 [16]
0.9974178 0.995922 0.99869627 0.9945069 0.9949665 0.99217856 0.992064 0.99376386
0.9908812 0.9953492 0.9922769 0.99541837 0.9960218 0.9947741 0.99249035 0.99742913
00000000: c656 7f3f bff4 7e3f 8faa 7f3f 0198 7e3f
00000010: 20b6 7e3f 6aff 7d3f e8f7 7d3f 4f67 7e3f
00000020: 64aa 7d3f 35cf 7e3f dc05 7e3f bdd3 7e3f
00000030: 49fb 7e3f 84a9 7e3f d913 7e3f 8457 7f3f

bias f4 [16]
-0.0025815195 -0.00935553 0.0011474425 -0.009865914 -0.012919274 -0.011137461 -0.0089899665 -0.010521665
-0.010634965 -0.006541709 -0.01133732 -0.0073169763 -0.0032830548 -0.008795845 -0.0087894 -0.0052308203
00000000: b62e 29bb f047 19bc c865 963a a4a4 21bc
00000010: 5dab 53bc e679 36bc a74a 13bc 1063 2cbc
00000020: 473e 2ebc d55b d6bb 2bc0 39bc 3fc3 efbb
00000030: 8528 57bb 731c 10bc 6a01 10bc 4d67 abbb

running_mean f4 [16]
-0.01243199 0.05741512 0.054171126 0.024396166 -0.049316335 -0.05931752 0.016459806 -0.020714816
-0.03665912 -0.018765308 -0.024288803 0.06469446 -0.039284274 -0.037918694 0.01161948 -0.012207981
00000000: 8caf 4bbc 1e2c 6b3d 8be2 5d3d 78da c73c
00000010: edff 49bd eef6 72bd b7d6 863c 1eb2 a9bc
00000020: e027 16bd b4b9 99bc 50f9 c6bc 877e 843d
00000030: 8ce8 20bd a250 1bbd a25f 3e3c fc03 48bc

running_var f4 [16]
0.074372515 0.14299 0.11720386 0.10697857 0.100385465 0.13482602 0.09846813 0.11693762
0.17650175 0.1157799 0.1195424 0.10559339 0.21375611 0.13111997 0.1935212 0.14784591
00000000: 9e50 983d f86b 123e 9408 f03d 9517 db3d
00000010: e596 cd3d d50f 0a3e a9a9 c93d fe7c ef3d
00000020: e0bc 343e 031e ed3d a5d2 f43d 5941 d83d
00000030: e2e2 5a3e 5044 063e 6c2a 463e eb64 173e

weight f4 [3, 2016]
0.012943308 0.0013575898 0.014053712 -0.008903434 0.003599551 -0.02686477 -0.021693418 0.00075178116
0.022132708 -0.0019762248 -0.002495992 0.0030776453 -0.025225593 -0.0033010684 0.00019569616 0.008273506
-0.014774796 -0.014101757 0.008922032 -0.01181205 0.0009853779 0.015628964 -0.009819668 0.006047276
0.019184817 0.02385452 -0.0021294653 -0.012868116 0.015018146 0.018578207 -0.005687639 -0.0116653815
0.014713184 -0.016059078 -0.02148927 -0.02350415 -0.0013656764 0.021754269 -0.010220599 0.010100835
0.0026008545 -0.012494853 -0.0002863992 -0.014413052 -0.021246653 -0.010569789 0.027649239 -0.0040770634
-0.015156879 0.0071103466 -0.017612444 0.014913568 -0.016917184 0.020386323 -0.010475427 0.0016848536
0.014328095 0.015632631 0.0007424393 -0.008325681 -0.018284 0.0013133545 -0.02942336 -0.016114179
0.0035692584 -0.027830977 -0.011480176 -0.015869685 0.008367389 -0.016535182 0.01882248 -0.012310263
-0.013040686 0.030694377 -0.02048586 0.00934772 -0.013923179 0.017406374 -0.0247225 0.0044629793
-0.016026214 -0.009396426 0.008706255 -0.0011100268 0.020641001 0.027667891 0.015253173 -0.0055313357
0.009344747 0.018654954 -0.012725358 -0.014670544 -0.0071417615 0.01308775 -0.002585771 0.0063528535
0.012091905 0.022090498 0.003508857 0.006060301 -0.023897484 -0.022112345 -0.007381846 0.0065279035
-0.02326471 -0.00895126 -0.010186047 0.0035015051 0.011836142 -0.008420023 -0.008851119 -0.004024669
0.00946864 0.027041301 0.0059478474 -0.018535715 -0.005059375 0.0028557533 -0.016680239 0.01887331
0.00445244 0.022039741 -0.007418072 0.015922882 -0.011557825 0.008842189 -0.0021970503 0.007151754
-0.011972527 -0.027816497 -0.011206355 -0.010394385 0.023033975 -0.020656275 0.0016421578 0.024178563
-0.0093462095 0.020841273 -0.020849336 -0.0016798339 0.0072104023 -0.0021476857 -0.011514112 0.026194667
-0.0015404967 -0.009803072 0.00032413437 -0.01172893 -0.005514451 0.013740647 0.0022729302 0.021851305
0.017840058 -0.0029779638 -0.018545737 -0.0035751092 0.012116719 -0.008961674 0.011676299 0.0010244575
0.021682093 -0.0031969957 -0.009559124 0.0069719166 0.002781664 0.0014827142 0.015198414 0.010178355
0.0025581755 -0.021056956 -0.025892174 0.010670136 0.008505024 0.0033933534 -0.009573542 -0.0028301715
-0.0041666282 0.006455159 0.0003244319 0.008963592 0.00065418705 -0.0069047096 -0.0041037695 0.0049330867
-0.0050644516 -0.017622378 -0.018739002 0.010401235 -0.010341994 -0.014535338 -0.0054685627 0.007652309
-0.023341546 -0.023985583 -0.00904638 0.0058430354 -0.006868569 -0.009115022 -0.01096283 -4.0240164e-05
0.026516149 0.00596222 0.009354135 0.022154244 -0.021851588 -0.019988265 -0.004549521 -0.0005180972
0.011850423 -0.009261831 -0.026965592 0.026721003 0.012855334 0.01079504 0.015457421 0.0012055616
-0.013661106 -0.02236523 0.0051908977 0.0037891902 0.0016937314 0.01232119 -0.008706019 0.0068028644
-0.007022606 -0.012196433 0.010391298 -0.024917778 0.023552874 -0.009834916 -0.011215121 -0.018282246
-0.006720386 0.0072760256 -0.015454899 -0.020162176 -0.017388077 -0.00501111 0.005408139 0.0075941873
-0.016502604 -0.0014972545 -0.016088858 -0.006422381 -0.010689367 0.0048119463 -8.8142115e-05 0.016251316
-0.007946772 0.0034453468 -0.0067385724 0.011185522 0.0018143998 0.007712713 0.0037648845 0.0164878
00000000: 2b10 543c 28f1 b13a 8a41 663c b5df 11bc
00000010: 72e6 6b3b 8213 dcbc 65b6 b1bc 2e13 453a
00000020: a74f b53c 8d83 01bb cc93 23bb 52b2 493b
00000030: e7a5 cebc bd56 58bb ca33 4d39 998d 073c
00000040: fc11 72bc 0e0b 67bc b72d 123c 5487 41bc
00000050: cc27 813a 5008 803c ace2 20bc 3a28 c63b
00000060: 7a29 9d3c 8e6a c33c 808e 0bbb cad4 52bc
00000070: ab0e 763c 5331 983c 605f babb 2820 3fbc
00000080: 910f 713c 548e 83bc 440a b0bc c68b c0bc
00000090: 7f00 b3ba 0236 b23c 4d74 27bc f97d 253c
000000a0: 1973 2a3b 36b7 4cbc da27 96b9 b924 6cbc
000000b0: 760d aebc e92c 2dbc a880 e23c e398 85bb
000000c0: 8f54 78bc e9fd e83b f947 90bc 0a58 743c
000000d0: e895 8abc 3801 a73c 20a1 2bbc 4ed6 dc3a
000000e0: 63c0 6a3c 0110 803c 42a0 423a 7068 08bc
000000f0: 54c8 95bc dd24 ac3a 4209 f1bc e201 84bc
00000100: 38ea 693b cafd e3bc 5917 3cbc 2401 82bc
00000110: 6017 093c ca74 87bc 9a31 9a3c fcb0 49bc
00000120: 9aa8 55bc c672 fb3c f6d1 a7bc 2e27 193c
00000130: 0c1e 64bc d097 8e3c d786 cabc 2f3e 923b
00000140: 6849 83bc 78f3 19bc aea4 0e3c 527e 91ba
00000150: 5117 a93c c6a7 e23c 72e8 793c 3540 b5bb
00000160: b61a 193c 46d2 983c 057e 50bc b95c 70bc
00000170: 7005 eabb 016e 563c 0a76 29bb 992b d03b
00000180: 201d 463c 22f7 b43c daf4 653b 7d95 c63b
00000190: a8c4 c3bc f324 b5bc 6ae3 f1bb 06e8 d53b
000001a0: a295 bebc 4ea8 12bc 61e3 26bc 8279 653b
000001b0: 61ec 413c 23f4 09bc 4904 11bc 5fe1 83bb
000001c0: 5b22 1b3c b885 dd3c 29e6 c23b 36d8 97bc
000001d0: 1dc9 a5bb 9727 3b3b ffa4 88bc 339c 9a3c
000001e0: c6e5 913b b08c b43c 4c13 f3bb b470 823c
000001f0: 085d 3dbc d4de 103c 63fc 0fbb 4359 ea3b
00000200: 6b28 44bc 6cdf e3bc dc9a 37bc 364d 2abc
00000210: bfb1 bc3c 5937 a9bc ac3d d73a 1f12 c63c
00000220: d820 19bc 51bb aa3c 3acc aabc df2d dcba
00000230: 3d45 ec3b 30c0 0cbb b0a5 3cbc 3396 d63c
00000240: 7eea c9ba 109d 20bc 94f0 a939 b32a 40bc
00000250: 91b2 b4bb 7320 613c 71f5 143b 8201 b33c
00000260: 5025 923c f129 43bb 3bed 97bc 614c 6abb
00000270: 3485 463c fcd3 12bc f34d 3f3c 1747 863a
00000280: a59e b13c b084 51bb df9d 1cbc ad74 e43b
00000290: 944c 363b a257 c23a c502 793c 1dc3 263c
000002a0: 10a7 273b a37f acbc d31b d4bc cbd1 2e3c
000002b0: a858 0b3c 0663 5e3b 58da 1cbc 667a 39bb
000002c0: 3688 88bb cc85 d33b 8318 aa39 08dc 123c
000002d0: c07d 2b3a e740 e2bb ea78 86bb bba5 a13b
000002e0: b3f3 a5bb ce5c 90bc 8982 99bc f169 2a3c
000002f0: 7871 29bc a025 6ebc a131 b3bb 38c0 fa3b
00000300: c536 bfbc 6a7d c4bc 4537 14bc ef76 bf3b
00000310: bc11 e1bb 2c57 15bc 719d 33bc 8cc7 28b8
00000320: 6538 d93c ba5e c33b 1642 193c d17c b53c
00000330: 1a02 b3bc 6ebe a3bc 2614 95bb ead0 07ba
00000340: 4728 423c efbe 17bc f2e6 dcbc 01e6 da3c
00000350: 2e9f 523c aedd 303c 1f41 7d3c ef03 9e3a
00000360: d5d2 5fbc 4937 b7bc 6818 aa3b 1054 783b
00000370: 3200 de3a d1de 493c b1a3 0ebc 90ea de3b
00000380: e41d e6bb 8cd3 47bc 4340 2a3c 5e20 ccbc
00000390: f5f1 c03c a122 21bc a0bf 37bc a6c4 95bc
000003a0: af36 dcbb ba6b ee3b 8b36 7dbc 262b a5bc
000003b0: 7171 8ebc 3d34 a4bb c236 b13b a9d8 f83b
000003c0: 7830 87bc 863f c4ba c8cc 83bc d672 d2bb
000003d0: 7422 2fbc 88ad 9d3b f0d8 b8b8 7b21 853c
000003e0: 2d33 02bc 54cb 613b 3ecf dcbb 7b43 373c
000003f0: 28d1 ed3a edba fc3b 48bc 763b 6c11 873c

bias f4 [3]
-0.013795368 0.0072313356 0.0025794352
00000000: f805 62bc d7f4 ec3b be0b 293b
