mi/Algorithm/impl/eegnet_model/model_2_3.pkl (torch, 38676 bytes, 18 tensors)

weight f4 [8, 1, 1, 64]
000000 ee de d3 3b 7c 93 c2 bc 53 a1 da bd 4e eb a2 3b
       0.0064657843 -0.023751967 -0.106753014 0.004971898
000010 c0 63 0a 3d 37 64 96 3c 45 e0 98 3c e5 0b 2f bd
       0.033786535 0.018358333 0.018661628 -0.042735953
000020 13 8c 9c 3b 9f 68 dc bc fc 4d d6 bd 0e 7f d3 3d
       0.0047774403 -0.026905356 -0.10464093 0.10326968
000030 36 f9 7a bd 9f a8 a2 3d bb 0c 60 bd 7c 02 cb bc
       -0.061272822 0.07942318 -0.05469964 -0.024781458
000040 bc cf 92 bd 11 34 c5 3c fc 41 db bd a0 83 b0 bd
       -0.071685284 0.024072679 -0.10705945 -0.086188555
000050 76 24 85 3d 57 e3 9c bc 46 3a 02 3d 21 a7 58 3d
       0.06501095 -0.019151373 0.031793855 0.05289376
000060 28 8b 4a bd be 5e 21 bc 93 af c3 3d 79 cc da bc
       -0.049449116 -0.009849248 0.095549725 -0.026708828
000070 ed 3c 18 3d dd 92 1c 3d cf 6d f9 3c 59 20 af bd
       0.03716748 0.038225997 0.030447869 -0.08551092
000080 2c 21 d0 bd ee 37 07 3e 21 83 d3 3d 22 43 1a 3d
       -0.10162577 0.13204929 0.10327745 0.03766168
000090 e5 f0 f2 3d 0c 14 a9 3d 65 d1 c4 bc 95 77 00 3e
       0.11862353 0.08255777 -0.024025628 0.12545617
0000a0 f7 71 74 3c 08 cf 1b 3c ff 67 bf bd 88 3b c5 3d
       0.014919749 0.009509809 -0.093460076 0.09630495
0000b0 29 42 39 3d c5 54 89 bc e4 f9 2e bc 19 d2 b4 bd
       0.04522911 -0.016764054 -0.010679696 -0.088291354
0000c0 d9 c2 3c 3c 12 d4 84 bd 8c 18 c2 3d ff b0 f3 3d
       0.011521065 -0.06485762 0.09477338 0.11898994
0000d0 ed 1c 1d bc b2 a1 a4 ba b6 c4 87 bc 4f 61 68 3d
       -0.009589416 -0.0012560396 -0.016573291 0.056733426
0000e0 3f 2a fa 3d a5 ca 27 3c cb 61 4a 3a 70 b1 2d 3d
       0.12215089 0.010241185 0.0007720261 0.042405546
0000f0 c9 e5 37 bc a3 72 cc bd a4 3c 88 bd 81 d4 ce 3d
       -0.011224219 -0.09982803 -0.06652191 0.10099126
000100 d3 70 b3 bd 39 cc a3 bd 4c 7b f3 bd 1b 00 41 3c
       -0.08761754 -0.07997937 -0.118887514 0.01177981
000110 1a 1d 17 3d 3d 74 d5 bd 78 63 b7 bd d9 da d1 bd
       0.036892988 -0.10422561 -0.08954519 -0.1024682
000120 e7 92 ba bd 5e 01 88 bd 5f e6 ba 3d 1f db 8f 3d
       -0.09110051 -0.06640886 0.09125971 0.07024216
000130 dd 45 9f 3d 5b de 12 bd f7 71 0b 3d d9 94 96 bd
       0.07776997 -0.035856586 0.034044232 -0.07352609
000140 b4 54 e2 3d a0 7d e7 3b a8 35 2c 3d be 68 54 3d
       0.11051312 0.007064536 0.042043358 0.051857702
000150 7c f5 96 bd ad a1 f1 bd 78 07 f4 bd ad 2d c2 3d
       -0.07371041 -0.11798415 -0.11915487 0.09481368
000160 b6 19 df bd 1a 6c b0 bd 61 4a aa bd 55 1a 82 bd
       -0.10893576 -0.08614369 -0.08314968 -0.06352679
000170 33 c5 e9 bc 4f 7c 8c 3d c5 c0 78 3d 42 28 57 3c
       -0.028536415 0.068596475 0.060730714 0.013132157
000180 af 95 c1 3d d2 5e 0a bd af 0b ec 3d ce 11 f5 3d
       0.09452378 -0.033781834 0.11525666 0.119662866
000190 41 92 9d 3d a7 af f7 3d 8f 52 be bd e0 e2 dd 3d
       0.07693911 0.1209405 -0.092930906 0.108342886
0001a0 2a 56 03 3d 42 6b cc 3b 50 5e f5 3d 9b 6e 5b bd
       0.032064594 0.006238372 0.11980879 -0.05357228
0001b0 87 18 c7 bd ec b7 a6 bd 71 86 c8 bd 38 ad 8e bd
       -0.09721475 -0.08140549 -0.09791268 -0.069666326
0001c0 82 88 0a 3d 8c c8 19 3d e4 4c f6 3d 4c 9b bd 3d
       0.03382159 0.037544772 0.120263845 0.09258136
0001d0 62 d9 20 bb 20 b7 1d 3d 72 9d 23 bd 1e 2d 85 bd
       -0.0024543633 0.03850472 -0.039945073 -0.06502746
0001e0 5f 10 d9 3d ac d6 d9 3d 4c c7 5b 3d 71 77 e8 3b
       0.10598826 0.106366485 0.05365686 0.0070943167
0001f0 d0 55 06 bb ae 43 99 bd 6a 3e 27 3d c0 52 0e bd
       -0.0020497926 -0.07483612 0.040831007 -0.034746885
000200 6e 33 f3 bd e6 32 97 bd 2a b9 a5 bd 50 96 82 bd
       -0.11875044 -0.07382755 -0.08091958 -0.06376326
000210 f9 1f b3 3d 5b 8c f6 bd 8d 8b f9 bd 14 8e f4 bd
       0.08746333 -0.120384894 -0.1218482 -0.11941162
000220 a0 ad 6c bd 78 40 24 bd 86 8c 67 3d b1 8e 16 bc
       -0.05778277 -0.040100545 0.056530498 -0.009189294
000230 f8 75 9c bd d7 c1 e0 bd 84 94 43 3d 59 a8 f7 bd
       -0.07639688 -0.10974472 0.047749057 -0.12092657
000240 70 e0 87 3d 47 e8 9c bd 6b 75 21 bd 34 60 81 3d
       0.06634605 -0.07661491 -0.03941862 0.063171774
000250 1c 91 da 3d 7d ca da bd 9a 96 ec bd ae 69 71 3d
       0.10672209 -0.10683153 -0.115521625 0.058938675
000260 00 c8 00 3e 47 38 ac 3d 6b 0a 69 3d 4e 2c c3 bd
       0.12576294 0.084091716 0.0568947 -0.09529935
000270 8b 2c 96 3d 5d 80 63 bd 89 cf b8 bc 17 42 df bd
       0.07332715 -0.05554234 -0.022559898 -0.109012775
000280 30 87 db bd 52 6b 25 3c fa 1a 95 bd 0b 04 9e bd
       -0.10719144 0.010096388 -0.07280536 -0.07715615
000290 31 6b 91 3d ae 1a 1e bc 0a c5 95 bd 99 2e b5 3c
       0.07100523 -0.009649916 -0.07312973 0.022116946
0002a0 0a d9 3f 3d 5f 29 1d 3d 62 18 b3 bd fe f3 9a 3b
       0.046837844 0.038369533 -0.08744885 0.004728793
0002b0 73 89 dd bc fb fd ae bd 88 a6 2f bd cd 22 76 3d
       -0.02704308 -0.08544537 -0.042883426 0.060091782
0002c0 04 cc 8a bc 38 c8 99 3d e0 ce 27 3b 97 81 a0 3d
       -0.016942985 0.07508892 0.0025605485 0.07837217
0002d0 7a 68 e7 3c f6 4a ab 3d c2 7c 83 bd b5 0c b9 bd
       0.02824806 0.08363907 -0.0642028 -0.09035627
0002e0 27 0b e7 bd 78 1c a9 3d 23 af bd 3d 6d 91 3a bd
       -0.11281424 0.08257383 0.0926192 -0.045548845
0002f0 46 ec c5 3d aa a8 f3 3d 2a 61 85 bd 05 f7 84 3d
       0.09664206 0.118974045 -0.06512673 0.06492428
000300 27 05 c3 3d f5 e5 da 3d f5 33 3d 3d 49 20 c2 3d
       0.09522467 0.10688392 0.04619213 0.09478814
000310 c4 b2 c3 3d bc fa 87 3d 41 16 3f 3d 65 47 04 bd
       0.09555581 0.06639621 0.046652082 -0.03229465
000320 5b 48 cf bb c3 58 d1 bd f2 51 b4 3c 0c 41 86 3c
       -0.006325764 -0.10222008 0.02201173 0.016388439
000330 5f fb d3 bd 06 a1 bb bc 3e 55 6e 3c d6 87 84 3d
       -0.103506796 -0.02290393 0.0145466905 0.06471221
000340 ba 8c 94 3d d7 6f b5 3d 73 d9 10 bd 6d 15 ef bd
       0.07253404 0.088592224 -0.035363626 -0.116740085
000350 51 15 95 bd 7a bc bb bd a1 27 e9 bd 08 36 67 3d
       -0.072794564 -0.091668084 -0.11384512 0.056448013
000360 70 f7 d5 3c 34 92 88 3c de ee c8 3d 54 9b 46 bd
       0.026118964 0.016671278 0.09811185 -0.048487976
000370 3e 65 bc bd 7a 75 6e 3c d6 a9 69 3d cd 40 d7 bc
       -0.09198998 0.014554376 0.057046734 -0.026276017
000380 77 ed 6c bc e7 94 19 bd aa 01 3a 3c 63 b4 01 3d
       -0.014460913 -0.03749552 0.011352936 0.03166617
000390 eb bf 65 bd 1c 52 e2 bd f6 ef 53 3c 4b 8d c3 bd
       -0.05609123 -0.11050817 0.012935629 -0.09548434
0003a0 77 48 e0 bd a0 b8 b2 3d 5d 68 c8 3d 53 d1 92 bd
       -0.109513216 0.08726621 0.09785531 -0.07168832
0003b0 a5 7e f4 3c bf 0d b2 bd 2e 76 7e bc d5 b1 a7 3d
       0.029845545 -0.08694028 -0.015531106 0.08188216
0003c0 e9 23 f1 bc 63 e5 e5 3d fd b8 7a 3d 13 72 d4 bc
       -0.029436069 0.11225393 0.061211575 -0.025933301
0003d0 e3 fc 8f 3d 2d f3 f9 3c ca d3 97 3d 5b e3 a1 3d
       0.07030656 0.030511463 0.074134424 0.07904693
0003e0 d1 de aa bd 47 c1 c8 bd a0 a1 05 bd d0 51 6c 3c
       -0.0834328 -0.0980249 -0.03262484 0.0144238025
0003f0 8d 5a bf bd d8 9b d6 bd 8a 0f 84 3c 27 bc 20 3d
       -0.09343443 -0.104789436 0.01612069 0.039241936

weight f4 [8]
000000 ff ff 7f 3f 07 00 80 3f d4 ff 7f 3f fb ff 7f 3f
       0.99999994 1.0000008 0.9999974 0.9999997
000010 44 ff 7f 3f 06 00 80 3f 11 00 80 3f 76 00 80 3f
       0.9999888 1.0000007 1.000002 1.0000141

bias f4 [8]
000000 7c eb 7d 30 9a 09 eb 32 c2 85 f3 32 a3 4e 84 b2
       9.237551e-10 2.7361967e-08 2.834975e-08 -1.5402582e-08
000010 38 0a 7e b1 32 33 0d 32 cf a3 28 31 f7 e8 6b b3
       -3.6967673e-09 8.218921e-09 2.4540332e-09 -5.492708e-08

running_mean f4 [8]
000000 dc 05 7e bb b4 a9 7a 3a 87 d2 1f 3c 6f b3 1f ba
       -0.0038760817 0.0009562031 0.0097547835 -0.00060921063
000010 8d 58 19 bc 6e 4c 30 bc 72 f6 06 3c 62 e4 ed bb
       -0.009359491 -0.01076041 0.008237468 -0.0072598914

running_var f4 [8]
000000 9a ab db 39 90 27 bd 39 73 08 14 3b 85 60 94 38
       0.00041898788 0.00036078366 0.0022588044 7.075168e-05
000010 7c 70 0a 3b 5c b0 33 3b 1a 6f d9 3a 43 55 a8 3a
       0.0021124175 0.002741835 0.0016588897 0.0012842793

weight f4 [16, 1, 64, 1]
000000 1b da 34 3c 54 76 61 3c 12 bc bc bd 07 5f 9f 3c
       0.0110383285 0.013761122 -0.09215559 0.019454492
000010 b1 83 3b 3d 80 7a a7 bd 03 35 9b bb 44 dc 11 3d
       0.045779888 -0.08177662 -0.004736544 0.035610452
000020 d4 1c f8 3d 98 c7 95 bd f9 58 e6 bd e7 99 bd 3d
       0.121148735 -0.0731346 -0.11247439 0.0925787
000030 e6 1b 63 3c d1 59 29 bd 5e 9c a9 bd cb d9 c3 bd
       0.013861632 -0.04134542 -0.08281778 -0.09563025
000040 b4 3a f8 3d 0f 0e 25 bd 7f 01 ed bd 67 14 e7 3d
       0.12120572 -0.04029661 -0.11572551 0.11283188
000050 89 67 48 bd a8 49 a2 3d 28 a0 f5 3c 3f 75 cc 3c
       -0.048926864 0.07924205 0.029983595 0.024958251
000060 0a b0 14 3d cd 53 31 bd 72 c4 95 bb 9a cb 8f bd
       0.036300696 -0.04329281 -0.0045705372 -0.07021256
000070 4f 66 1d 3d 7d 68 aa bc a4 d4 19 bd 4e 02 b8 3d
       0.038427647 -0.020801777 -0.037556306 0.089848146
000080 96 15 b6 3d 5f b6 d7 bd 05 6a df 3d 35 e9 97 3d
       0.08890836 -0.105328314 0.109088935 0.074175276
000090 e2 b4 eb bc 17 fe d2 bd e9 37 10 3d 63 79 c1 bd
       -0.028772775 -0.1030237 0.03520957 -0.09446981
0000a0 22 9b dd bd f8 6f b3 3d 62 cd b5 bd 9a fc d7 3d
       -0.10820605 0.08761591 -0.08877064 0.10546227
0000b0 22 64 96 bb 0c 0c 77 bd 09 a1 be 3d 0b a6 ac 3d
       -0.0045895735 -0.060314223 0.09308059 0.08430108
0000c0 fc a5 45 3d 3f c2 22 3d 2f ee f2 3d d5 41 c0 3d
       0.048254 0.03973603 0.11861836 0.093875565
0000d0 47 f3 a7 3d b3 ba dd bd f5 6e a4 bd 04 91 ea 3d
       0.08200698 -0.10826626 -0.08028976 0.11453441
0000e0 64 51 8f 3d 98 66 4a bd b8 8a 32 bd 4f cd d4 3c
       0.06997946 -0.049414247 -0.043589324 0.025976805
0000f0 e2 17 f7 bd 7d bc 90 bd 2e 45 ac 3d af 38 ad 3d
       -0.12065102 -0.07067201 0.084116325 0.08458077
000100 78 bb b5 3d d9 19 b7 3c 30 6e 8b 3c e5 21 87 3d
       0.088736475 0.022351192 0.017020315 0.06598262
000110 a9 d5 86 3d 35 b0 93 3d 04 ce d4 bd 3b 51 d7 3d
       0.06583721 0.07211343 -0.10390857 0.1051354
000120 e1 f7 b2 3d 89 5c f6 3d 26 5d af bd 5e 37 d3 3d
       0.087386854 0.120293684 -0.085626885 0.10313295
000130 c5 cb 90 bd 42 3d ca 3d 8c ad 87 bd 2d ad 51 bd
       -0.07070116 0.09874965 -0.06624898 -0.051190544
000140 dd 0e c9 bd a8 10 8c 3d d2 ea e3 3d 41 b4 8d 3d
       -0.09817288 0.068391144 0.11128773 0.06919146
000150 9f f1 d4 3d a3 c3 b9 bd bd f5 d4 bd d7 44 73 bc
       0.10397648 -0.09070518 -0.10398433 -0.014847956
000160 7b f3 84 bd e5 19 9c 3d 0f b2 32 3c cc 13 41 3d
       -0.06491753 0.076221265 0.01090671 0.04713802
000170 10 c0 c6 3c 7b 2a c3 bd 89 e7 e3 bd 56 ad fd 3c
       0.024261504 -0.09529587 -0.11128146 0.030966442
000180 06 15 7c 3d 14 b0 1a 3d 65 c2 c1 3c 1f 13 f3 bd
       0.061543487 0.037765577 0.023652265 -0.118688814
000190 7d 9d 0c bd 4a 92 1e bd 04 c8 ff bd ae cf c5 bd
       -0.03432988 -0.03871373 -0.12489322 -0.096587524
0001a0 69 0a e6 ba 12 4c 61 3d a0 ab d0 3d b0 d1 11 3d
       -0.001755071 0.055004187 0.10188985 0.035600364
0001b0 cb e1 2d 3d c4 64 a0 3d d3 2a 51 3d e2 3f 5d bd
       0.04245166 0.078317195 0.05106623 -0.054016
0001c0 f6 e9 a6 bc da 14 db 3d 2b ae 3a bd 06 ce a4 bd
       -0.020375233 0.106973365 -0.045576256 -0.08047108
0001d0 0f 10 89 3d 63 9f d1 bd e3 de be bd cb 32 0e bd
       0.06692516 -0.10235479 -0.09319856 -0.03471641
0001e0 4b 6e 7a 3d 03 8c fc 3d d4 2a 72 3d 96 81 a3 3d
       0.06114034 0.123313926 0.059122875 0.07983701
0001f0 fe 1d db 3d 6f f7 c9 bb 1e f3 c3 3d 29 a3 25 bd
       0.1069908 -0.0061635296 0.09567855 -0.040438805
000200 b0 24 ad bd 93 25 c0 bd dc 26 c9 3d 11 16 a6 bd
       -0.08454263 -0.09382167 0.09821865 -0.081096776
000210 6d 17 45 bd 52 5d 78 3d 45 06 67 bd 29 56 90 bd
       -0.048118044 0.060635872 -0.056402463 -0.07047684
000220 f5 97 0a bd 6d c8 90 bd 7b 7b c3 3d e9 da 60 bd
       -0.033836324 -0.07069478 0.095450364 -0.05489627
000230 5d 35 ed bd ee 29 4d bc 08 ff 3c bc 0d f5 fa 3b
       -0.11582444 -0.012522204 -0.011535414 0.007658607
000240 c9 88 a8 bc ca f2 db 3c d1 e8 a7 3d 2d 2a 5c bd
       -0.020573037 0.02684917 0.08198703 -0.05375116
000250 8b 15 02 3d 2d fb 62 3d f9 ef d7 bd c5 4a fb 3d
       0.031758826 0.05541532 -0.10543818 0.122701205
000260 2d 73 40 bd 6b 26 dc 3b 27 fd b5 bd b5 68 5a bd
       -0.04698484 0.006718447 -0.088861756 -0.053322513
000270 3c 3e 6a 3d 1a 0a e9 bd de 31 c6 bd 2c 49 ae 3d
       0.057188258 -0.1137888 -0.0967748 0.0851005
000280 d6 fa 82 bd 7f f4 b0 3d ff a8 c9 bd 62 69 92 bd
       -0.063954994 0.08640384 -0.098466866 -0.071490064
000290 73 7a cf bc 25 1b b2 3b 70 4e a6 bc 5e 69 d3 bd
       -0.025326943 0.005435365 -0.020301074 -0.103228316
0002a0 c9 48 c0 bd a5 7b 46 3c 8d c3 49 bd dc b0 fe bc
       -0.09388883 0.01211444 -0.049258757 -0.031090192
0002b0 4e 93 d2 3d 20 c8 2c 3d bb 92 da 3c d1 0a 6c 3d
       0.102820024 0.04218304 0.026681295 0.057627503
0002c0 c9 91 34 3d 11 d3 e7 3d e3 e9 00 3c e1 04 e8 3d
       0.044084344 0.113195546 0.007868263 0.113290556
0002d0 61 f9 d7 bd 1b 8e a5 bd 6c 8f 44 bd 46 89 1a 3d
       -0.10545612 -0.08083745 -0.04798834 0.03772857
0002e0 29 ce df 3c 99 92 14 3d f3 77 70 bd 8d 8b b2 bc
       0.027319985 0.03627262 -0.058708142 -0.021795059
0002f0 77 01 d0 bd 11 96 d2 3b c3 b1 86 3d 48 65 0b be
       -0.101565294 0.0064265807 0.06576874 -0.13612854
000300 c6 cf f5 3d 3f 52 33 bd 26 7c d3 3b e8 88 9f bd
       0.1200252 -0.043779608 0.0064540086 -0.07789785
000310 6d 8b a9 3c d0 d6 db bd d3 69 82 bd 5f 1e 90 bd
       0.020696366 -0.107343316 -0.063678406 -0.07037043
000320 c2 98 1d bd 1d a4 3a bc d4 fb 54 3c cf b3 a3 3c
       -0.03847576 -0.011391667 0.012999494 0.0199832
000330 14 9d 6b 3d c4 f7 d9 bc f9 ec 00 3e 26 d8 b5 3c
       0.05752285 -0.026607402 0.12590398 0.022197794
000340 09 78 f1 3d ea db 95 3d 31 3f f0 bc bf 41 dc bb
       0.11790473 0.07317336 -0.029327007 -0.0067217047
000350 ed 59 3c bd 70 78 dc bd 40 53 80 3d 20 51 de bb
       -0.045984197 -0.10765159 0.06265879 -0.006784573
000360 a3 0b 5a 3d fb 3f ca 39 9e 6f b7 3c 96 2a cd 3d
       0.053233754 0.00038576112 0.02239209 0.10017888
000370 94 81 d4 3d 0e 62 37 3d eb 65 9f 3d 3c ce 0c bd
       0.103762776 0.044771247 0.07783111 -0.034376368
000380 ee 2b aa bd 37 e9 3b bd 84 07 a1 bd 9e 9a dc bd
       -0.0830916 -0.045876708 -0.078627616 -0.107716784
000390 d5 ac f2 3d 09 fc cb bd ef 77 d9 bb b0 21 94 3d
       0.11849371 -0.09960181 -0.0066366117 0.07232988
0003a0 6f 09 bb 3d 5c 99 49 bc 27 12 73 bd 3f b0 b6 bd
       0.09132659 -0.01230463 -0.059343483 -0.08920335
0003b0 9e 04 65 3d b1 9d ad bd ba 9c ca bd 74 ab 35 3a
       0.055912606 -0.08477343 -0.098931745 0.00069301506
0003c0 8e c2 d2 bd 4e d5 c2 3d fd 52 bf bc df ac 8a bd
       -0.102910146 0.09513341 -0.023355002 -0.06771254
0003d0 68 cc 75 3d 29 c8 6e 3d 82 27 db 3c d4 57 ae 3d
       0.06000939 0.058296356 0.026752237 0.08512846
0003e0 4c 3e 81 3c de 05 91 3d e1 b4 b5 bd 40 b9 00 3d
       0.015776776 0.07081197 -0.088723905 0.03142667
0003f0 09 f3 d9 bc a5 21 cd bd 33 3e 5d bd 61 b9 71 bd
       -0.026605146 -0.10016183 -0.054014396 -0.05901468

weight f4 [16]
000000 b5 be 7f 3f 39 a2 7f 3f 74 06 80 3f db a1 80 3f
       0.9990037 0.9985691 1.0001969 1.0049394
000010 74 72 7f 3f 22 4b 80 3f 63 dd 7f 3f ed cc 7f 3f
       0.99784017 1.0022929 0.99947184 0.99922067
000020 66 44 7f 3f c7 ce 7e 3f be 23 80 3f 51 0f 80 3f
       0.9971374 0.9953427 1.0010908 1.0004674
000030 89 5c 80 3f 01 bf 7f 3f 49 30 80 3f 37 4b 80 3f
       1.002824 0.99900824 1.0014735 1.0022954

bias f4 [16]
000000 bd 5f 96 ba 3f aa 52 bb 48 d6 34 ba 81 49 4b 3b
       -0.0011472624 -0.0032144932 -0.00068983855 0.0031019154
000010 a2 ac 7c bb 9e cf 3f 3b 00 af dd b9 7b d5 2e ba
       -0.0038555046 0.0029268037 -0.0004228279 -0.00066693843
000020 96 c7 83 39 00 7a bc ba 12 67 8b 39 42 99 ae 3a
       0.0002513497 -0.001437962 0.0002658894 0.0013320821
000030 2c 0e 91 3a c1 a2 96 ba 6a 83 6a 3a 7d 3b ea 3a
       0.0011066846 -0.0011492596 0.0008945974 0.0017870512

running_mean f4 [16]
000000 18 92 16 bf e0 46 3e bf 0c 85 58 3d f2 46 83 bd
       -0.5881667 -0.74326897 0.05286126 -0.06410016
000010 a4 ee 09 bf c4 4c 75 3f 71 60 e5 be a4 39 29 be
       -0.5387976 0.9582026 -0.4480014 -0.16525894
000020 ab d9 72 bf bb 50 38 bf e1 6d a2 3e 62 e7 36 3f
       -0.94863385 -0.71998185 0.31724456 0.7144681
000030 69 37 85 be ce 1b 11 be de 7d 45 bf 67 6a ca 3e
       -0.26018837 -0.14170763 -0.77145183 0.39534304

running_var f4 [16]
000000 0d 2d 7e 3d 71 9b 35 3d 71 e7 44 3e 39 8e e3 3d
       0.062054683 0.044337694 0.19228913 0.11111111
000010 b0 51 7b 3b e7 5d 86 3c 9e fe 48 3f 1b a2 3b 3e
       0.003834825 0.016402198 0.78513515 0.18323557
000020 e4 3c 62 3c 63 5b e2 3b 1e 51 91 3c 47 81 11 3c
       0.013808463 0.006907867 0.017738875 0.00888092
000030 07 d9 48 3c 1e af 68 3c 7f 24 30 3c dc 37 6a 3b
       0.012258775 0.014201907 0.010750889 0.0035738861

weight f4 [16, 1, 1, 16]
000000 84 a8 c5 bd 73 96 be bd 56 8d 92 bd f4 b2 3c bd
       -0.096512824 -0.0930604 -0.07155864 -0.0460691
000010 08 9c 2b be 9b 21 42 be 9f 4c 4d 3e 2a d8 2a 3c
       -0.1675874 -0.18958132 0.2004876 0.010427514
000020 a9 75 ed bd 3a 0c c3 3d ae 1e e1 bd 8e 71 40 bd
       -0.115947075 0.095238164 -0.1099218 -0.046983294
000030 73 2f 2a 3c a1 ec 16 3c 8e 68 3a 3e b7 22 7e 3e
       0.010387289 0.00921169 0.18203947 0.2481793
000040 08 6a ea 3d 1c 76 1d 3e a8 9c 95 bd 7a 99 c8 bd
       0.11446005 0.15377086 -0.073052704 -0.09794898
000050 0f 7d b8 3b 19 e6 58 3e 61 a5 9e bb 93 80 bb bd
       0.0056301425 0.21181525 -0.004841492 -0.09155383
000060 7e 8a 77 be e6 8e f1 bd 4a 99 06 bc 2f 27 48 be
       -0.24173924 -0.11794834 -0.008215258 -0.19546197
000070 7c 65 47 be 0e 22 cc 3d 98 ee 9a bd 1a 59 e5 bd
       -0.19472307 0.09967433 -0.075650394 -0.111986354
000080 cb 1d c0 3c 79 0a ba 3c 46 0f b5 3d ad 8e e6 bc
       0.023451706 0.022710072 0.08840804 -0.028144205
000090 29 5f 6e 3e ca f9 c3 bc 5f ca bc 3c 46 56 34 3d
       0.23278488 -0.02392282 0.023045717 0.04402759
0000a0 a4 03 74 bd 19 69 37 3e 0c 2d 3f 3e a6 74 eb 3c
       -0.059573784 0.17911185 0.18669528 0.028742146
0000b0 3f 5f 61 be f6 77 7d 3e 3f a3 d4 bd f1 fb 13 be
       -0.2200899 0.24752793 -0.10382699 -0.14451577
0000c0 20 19 fd 3d 1e 6f 5a 3e 77 c2 6a 3e 76 62 6c be
       0.12358308 0.2133145 0.22925745 -0.23084435
0000d0 32 50 c8 3d 7c c2 08 be d5 52 5c 3e 1c 03 42 3d
       0.09780921 -0.1335544 0.21515973 0.047366247
0000e0 1a d9 c4 bd 46 4b 4f be ed 39 a1 3d cd c3 3c bd
       -0.09611721 -0.20243558 0.078723766 -0.046085168
0000f0 e6 70 77 3e 4b d6 54 3e 43 60 54 3e 1e 4c d6 bd
       0.24164161 0.20784871 0.20739846 -0.10463737
000100 8c b6 de 3d 1f f4 0f be eb 02 d5 3d 8c 98 21 be
       0.10874662 -0.14057969 0.10400947 -0.15780848
000110 6f 4d 18 be 13 6d 63 bd 00 26 f5 3d 77 1a d3 bd
       -0.14873289 -0.055523943 0.119701385 -0.10307782
000120 91 07 2b 3e df aa 39 be ba 3b 2a 3e c7 c5 3e be
       0.16702105 -0.18131588 0.16624346 -0.18630134
000130 16 bd 71 be 91 bb 9f bc 88 ff 66 be 32 76 6f 3e
       -0.23607287 -0.019498618 -0.22558415 0.23384932
000140 53 0c 5b be 93 d9 23 3e e5 43 a3 3d c9 1f 94 bd
       -0.2139142 0.16000967 0.07971934 -0.07232625
000150 13 a1 f0 bd 44 5a d2 bd 22 31 2e be df 90 73 be
       -0.117494725 -0.10271123 -0.1701093 -0.23785733
000160 d8 89 b4 3d 81 10 54 3e 36 89 c9 3d a9 42 53 be
       0.08815354 0.2070942 0.09840624 -0.20630898
000170 a8 e0 60 3e d7 bf 6d 3e 53 64 45 be bf bc c1 3d
       0.219607 0.23217712 -0.19276552 0.094598286
000180 92 40 89 3d 11 00 5c 3e 8a 99 a3 3d 2d 07 79 3e
       0.06701769 0.214844 0.079882696 0.24319144
000190 0c b4 02 3e d7 af 52 be ed 8b 9c bd a8 0f 13 3e
       0.12763995 -0.2057489 -0.07643876 0.14361441
0001a0 b6 55 12 bd 3d 28 3d 3e 18 bc 68 be ac 00 27 3e
       -0.03572627 0.18472381 -0.22728002 0.1630885
0001b0 e7 9d 79 3e a5 79 1e bd f1 f3 22 3c 7f ed ab bd
       0.24376641 -0.038690228 0.0099458555 -0.08394908
0001c0 73 9e 66 3e 6f 6e 19 3e fe c4 78 3d 62 c2 5d bc
       0.22521381 0.14983533 0.06073474 -0.013535114
0001d0 7c 46 4d be 93 82 33 be 5b 76 cb 3d d1 74 8b bd
       -0.20046419 -0.17530279 0.09934684 -0.0680939
0001e0 6d ff 44 3e 90 0d bc bd 21 52 7a 3e 9d b0 07 3e
       0.19238062 -0.09182274 0.24445392 0.13250966
0001f0 3f 8f 5c 3e b7 65 20 bd 8c 10 47 3e 04 5a 7b be
       0.21539019 -0.039159503 0.19439906 -0.24546057
000200 ed af 3c 3c b5 0b ed 3d 1e 2d 18 3d 38 76 4c 3e
       0.011516553 0.115744986 0.037152402 0.19966972
000210 82 4d 09 bd fd bd 98 3d e0 e0 1d 3e f2 fa a7 3a
       -0.033521183 0.074581124 0.15417814 0.0012815876
000220 a5 b4 1f 3e 93 33 6e be fd 46 48 be d0 08 8d bd
       0.15596254 -0.23261862 -0.1955833 -0.068864465
000230 af be 08 3b d1 15 19 3d 9c df 5f be 03 00 72 bd
       0.002086561 0.03737432 -0.21862644 -0.059082042
000240 f9 ba 1c be e7 9b 8f 3d 29 9d 8d bd 15 d7 3a be
       -0.153057 0.07012158 -0.069147415 -0.1824611
000250 5f 32 58 be 0e ab a4 bc 5c 4d 04 be 7f b9 09 3e
       -0.21112965 -0.020101096 -0.12920135 0.13449667
000260 4d c5 27 3e c2 7c a5 3d c7 d2 6c be bf 02 50 3e
       0.16383858 0.08080436 -0.2312728 0.20313548
000270 d4 0a f6 bd ac 27 7c bd 82 21 97 bd ca d3 21 bd
       -0.12013784 -0.06156127 -0.07379438 -0.03950862
000280 3a 93 33 3e 72 68 68 be 4e 01 46 be d6 fa 6f 3c
       0.17536631 -0.22696093 -0.19336435 0.014647206
000290 30 96 40 3d cf da 20 be ed ab 06 3e a3 d4 18 3e
       0.04701823 -0.15708469 0.13151522 0.14924864
0002a0 91 dd 77 bb 7a 6c 98 bd 16 06 04 be b0 3d 49 3d
       -0.0037821273 -0.07442565 -0.12892947 0.049131095
0002b0 a9 ea 80 3c 83 2d 68 3e 93 12 0b 3e 1c e3 27 bd
       0.015736895 0.22673611 0.13581304 -0.040988073
0002c0 24 82 bc bd 8d 8b 29 be cb 36 9a 3d b2 49 64 be
       -0.0920451 -0.1655714 0.07529982 -0.22293738
0002d0 f9 4e 49 3e 72 63 79 3d 59 21 a1 ba 68 20 d2 3d
       0.19659032 0.060885854 -0.0012293264 0.10260087
0002e0 06 68 64 be 45 56 a7 3d d6 dd 3e 3e 53 e9 25 3e
       -0.22305307 0.081707515 0.18639311 0.16202287
0002f0 14 52 3f 3e 57 ce 7b 3e 42 5f 3c be 1c f4 29 be
       0.18683654 0.24590431 -0.18395713 -0.16597027
000300 bd 1d 2e be f3 f4 ac bd 5e 3f 1a 3d 58 8c a2 3d
       -0.17003532 -0.08445158 0.037658088 0.07936925
000310 51 89 0b 3e 10 55 4c be e6 e3 6e bd b2 fd 20 3d
       0.13626601 -0.19954324 -0.05832281 0.039304443
000320 8e 63 35 3e 79 1a 75 3c cd 0c 70 be a0 c8 82 3e
       0.17713758 0.014959925 -0.23442383 0.2554369
000330 de 36 d7 3d e9 73 14 be dc 3d 2c be 2c 42 6b 3e
       0.10508512 -0.14497341 -0.16820472 0.22974461
000340 0a 0a eb 3d dd af 11 be 41 49 db 3b b9 d0 ff 3b
       0.11476524 -0.14227243 0.006692082 0.007806864
000350 16 0a 2d be 5d 39 37 be 7e 3a 83 3e e5 01 30 3d
       -0.16898379 -0.17892976 0.25630563 0.042970557
000360 a2 c3 67 3e 62 33 a6 bb 98 f3 e6 bc d4 74 10 bd
       0.22633222 -0.0050720433 -0.028192326 -0.035267666
000370 c7 aa 2e 3d 16 e3 1d be 6e c1 51 be c1 e3 58 be
       0.042643335 -0.15418658 -0.20483944 -0.21180631
000380 0c df 0a be 1c 92 17 3e 12 8b f3 3d b3 fb 20 3e
       -0.13561648 0.1480183 0.1189176 0.15721016
000390 23 c4 63 be 76 fc aa bc 6c 79 57 be 38 99 00 3d
       -0.22242789 -0.020872336 -0.21042413 0.03139612
0003a0 6c 3f 65 be 24 cf 2f 3e 03 1a fe bc 9f aa 56 bb
       -0.22387475 0.17168862 -0.031018263 -0.0032755507
0003b0 1a 8f b7 3d ab 13 80 3d ae 55 47 3c 62 d1 85 bb
       0.08962841 0.06253751 0.012166424 -0.0040837983
0003c0 49 97 6f 3e 9c a8 88 3c 07 bd 26 be 7d a4 08 3d
       0.23397554 0.016681962 -0.16283046 0.033359993
0003d0 fc ab 22 be c5 1e 3f 3e cf 8c 6d be 5f 1a 75 3d
       -0.1588592 0.18664081 -0.23198245 0.059839603
0003e0 2a 51 00 be 76 54 3c 3d 21 14 91 3d 73 62 68 bd
       -0.12530962 0.045978986 0.070839174 -0.056734513
0003f0 2b 04 c2 bd 3a 8d 56 be 9a 09 15 3e 63 f1 ee bd
       -0.09473451 -0.20952311 0.14554444 -0.116671346

weight f4 [16, 16, 1, 1]
000000 50 d6 65 3d ca 0c 71 be 73 98 27 3e 9b 1a 3e 3e
       0.056112587 -0.23540035 0.16366749 0.18564837
000010 1c 04 b8 bc 9e f9 77 be 20 8d 48 be 91 cd 22 3e
       -0.022462897 -0.24216315 -0.19585085 0.1589873
000020 33 51 95 bd 09 60 00 3e 5a 8b 42 be 6c 25 52 3e
       -0.07290878 0.12536635 -0.18998471 0.20522088
000030 73 b3 29 3e 2b 2a 91 3c 21 e1 b9 bd 94 8a 43 3e
       0.1657236 0.017720303 -0.09076143 0.19095832
000040 96 c9 5f 3e 93 22 1b be b7 74 2e be d9 b0 4b 3e
       0.21854243 -0.15149908 -0.1703671 0.19891681
000050 19 4f 7c 3e f9 68 98 bd 15 e2 fc 3d 5c 84 d5 bd
       0.24639548 -0.07441897 0.12347809 -0.10425636
000060 7b 63 d0 3d db cb 6b be 56 3a 21 3e 6a bf 69 3e
       0.101752244 -0.23026983 0.1574491 0.22826925
000070 38 4d 28 be ed 1f 26 be a5 ff 02 be dd 80 45 bd
       -0.16435707 -0.16223116 -0.12792833 -0.048218597
000080 20 e7 ec 3d ee 67 79 3e e1 54 2f 3d 95 24 37 bc
       0.11567521 0.24356052 0.042805556 -0.011178155
000090 21 eb 1e 3e 55 dc be 3d ef e5 dd bd 93 97 67 3e
       0.15519382 0.09319369 -0.10834872 0.22616415
0000a0 4b 6f 69 3e 55 cb 56 3e 29 78 6d 3d 08 24 2f be
       0.22796361 0.20976003 0.05797592 -0.17103589
0000b0 2e d6 3b 3e 43 6c 68 3e c0 ef 19 3d cf 18 ee bc
       0.18343422 0.22697549 0.03758216 -0.029064564
0000c0 b2 4e c7 ba fa 66 fa 3c 0a 5e d0 3d ce a7 42 bd
       -0.0015205948 0.030566681 0.101741865 -0.047523312
0000d0 6e a8 9f bc 72 16 41 be 37 f7 7c be 78 e8 6a 3e
       -0.019489493 -0.18856218 -0.2470368 0.22940242
0000e0 38 a8 03 be e9 32 09 3d c6 be 18 bd d8 ba 65 3e
       -0.12857139 0.033495817 -0.03729131 0.22434556
0000f0 31 4d 17 be 6b 8a 23 be 92 ca de bc 17 74 10 3e
       -0.1477554 -0.15970771 -0.027196202 0.14106785
000100 90 4b 38 3d c0 9c b5 bd b7 f2 53 be 61 33 1f 3e
       0.044993937 -0.08867788 -0.20698057 0.15546943
000110 08 82 78 3c 03 a3 fe bd 0f 11 54 bd 86 7e da 3d
       0.015167721 -0.12433436 -0.05177408 0.10668664
000120 ed e4 13 3d 24 9d 53 3a 59 31 18 be 49 35 19 3e
       0.036106993 0.0008072427 -0.14862575 0.14961733
000130 4c 2a fc 3d 2b 4d 0f be 60 d6 14 3e b5 5c 63 be
       0.12312755 -0.13994281 0.14534903 -0.22203334
000140 46 8c d7 bd bb 7f 77 be cd 34 fa 3a 60 5b 0f be
       -0.10524802 -0.24169819 0.0019089222 -0.139997
000150 f7 b8 b1 3d 02 da d0 3c d0 1d 17 be 87 f4 41 bc
       0.08677857 0.02549458 -0.14757466 -0.011838085
000160 f9 5e 74 be c3 42 62 3e fe ab 26 3e 32 37 67 bd
       -0.23864354 0.2209578 0.16276547 -0.056449123
000170 b5 26 61 3d a0 38 14 3e e6 fa 97 3d 09 2a 3a bc
       0.054968555 0.14474726 0.07420902 -0.011362561
000180 a9 7d 4d be d5 38 70 bc 48 cd 8b bc 4c aa f2 3d
       -0.20067467 -0.014661987 -0.01706566 0.11848888
000190 61 74 65 be 39 c6 82 3d ec 6f 48 be 42 08 c3 bd
       -0.22407676 0.06385464 -0.19573945 -0.095230594
0001a0 51 85 59 be d0 a2 0b 3e f0 c9 4d be 68 71 2a 3c
       -0.21242262 0.13636327 -0.20096564 0.010403015
0001b0 05 c5 a6 3d 9f cf 71 be 32 07 e7 3d 53 99 c3 3d
       0.08143047 -0.23614357 0.11280669 0.09550729
0001c0 7c 8e 8f bd f8 73 be ba 28 c4 3a be bf 02 d9 3d
       -0.070095986 -0.0014530411 -0.1823889 0.10596227
0001d0 76 b3 28 be e8 00 d5 bd 5a 97 eb 3d 62 e0 55 be
       -0.16474709 -0.104005635 0.115034774 -0.20886377
0001e0 e1 75 cc bd ee 8e d7 3d 12 15 47 3e fd 17 25 3e
       -0.09983421 0.105253085 0.19441631 0.16122432
0001f0 91 ad 16 3e 8d 33 06 3e a9 b1 ee 3d 2c b4 18 3d
       0.14714648 0.13105603 0.1165498 0.0372812
000200 ed 1c d9 bd 6c ff 53 bd 44 e9 3d be f6 5c 3d 3c
       -0.1060122 -0.05175726 -0.18546015 0.011557808
000210 3e 16 75 be 42 51 68 3e 24 30 73 bd 31 f5 37 3e
       -0.23934266 0.22687247 -0.059372082 0.17964627
000220 5f fd 00 3e 5e 8d 5e 3e 7a c8 1b 3e e5 2b 2e 3d
       0.12596653 0.21733615 0.15213194 0.04252233
000230 8b 9e 27 3e 54 bf f5 bd f9 53 57 3e f0 9d 02 be
       0.16369073 -0.119993836 0.21028127 -0.12755561
000240 81 d2 ef 3a 21 95 46 3e cb 94 4d 3d d5 76 3a 3d
       0.0018296988 0.19392826 0.05019073 0.045523483
000250 ff de b9 3c 4e 7d 3f be cd f9 5b be 59 a0 16 bc
       0.02268934 -0.18700144 -0.2148201 -0.009193503
000260 70 a2 4f 3e ca 18 1f be a1 0f be 3c ea c9 ab 3d
       0.20276809 -0.155368 0.023200812 0.083881214
000270 fb 08 95 bd dd 95 03 be f7 86 39 be 64 d4 c0 bd
       -0.072771035 -0.12850137 -0.18117891 -0.0941551
000280 58 bc ac 3d 25 2c 06 bc 89 c2 2b 3e 57 a1 52 be
       0.08434361 -0.008189236 0.16773428 -0.20569359
000290 96 24 65 bd 3b 80 16 3e 7a d2 5d 3e 09 a7 28 3e
       -0.055943094 0.14697354 0.21662322 0.16469969
0002a0 a4 be 31 3e f5 c8 1c 3e b6 7f 49 be d7 0f 53 be
       0.1735788 0.15311034 -0.19677624 -0.20611511
0002b0 e0 24 9a 3d b2 b9 fc bd 1e 84 47 be 7a 4a 31 be
       0.075265646 -0.12340106 -0.19483992 -0.17313567
0002c0 2c 8e a6 3c 04 41 21 3e b0 fe ba bc 03 d2 78 be
       0.020331465 0.15747458 -0.022826523 -0.24298863
0002d0 78 7c 50 3e 86 9b 5f 3e bc 52 8a bd 46 c5 70 3c
       0.20359981 0.21836671 -0.067540616 0.014695471
0002e0 da 60 20 bd 2a 60 08 be 8e 4d 39 bd a9 0f 60 be
       -0.039154865 -0.13317934 -0.045239978 -0.21880974
0002f0 b2 92 43 3e 13 98 0e 3e 8b 5f 4e 3d 38 bc f3 3c
       0.19098929 0.13925199 0.050384086 0.029752836
000300 73 5d 2d be 44 b5 f7 bd 8c bd 0b be f1 46 69 3e
       -0.1693018 -0.120951205 -0.13646525 0.22780968
000310 d1 02 04 3e 4f 58 a2 bb 6c 8c 61 bc a8 3c b2 bd
       0.128917 -0.004954375 -0.013766389 -0.087029755
000320 df 07 1e 3e f7 b3 1e be 1a 5c 1e 3e 6a 5a 3a be
       0.1543269 -0.15498339 0.15464821 -0.18198553
000330 1e 28 d8 3d 93 8b 16 be 2e c8 03 bd bc 39 4e 3e
       0.10554527 -0.14701681 -0.032173328 0.20139211
000340 7e 1e 0d 3e 44 67 23 bd 80 8a 7b be d1 c3 80 3c
       0.13781163 -0.039893404 -0.24564552 0.015718373
000350 0a 8a 17 3e b6 f4 56 be 84 9a 77 3d f7 63 d4 3d
       0.14798751 -0.20991787 0.060450092 0.10370629
000360 2e 57 e5 bd 1b b8 63 be 60 9f 36 be ef db da bd
       -0.11198269 -0.222382 -0.17834234 -0.1068648
000370 6c ff b4 3b 50 8d d3 3d 39 95 da 3d 14 aa 5d 3d
       0.0055236127 0.103296876 0.10672993 0.054117277
000380 f6 55 78 be 55 e9 64 be cc 62 0f be ca 9a 0a 3e
       -0.24251541 -0.22354634 -0.14002532 0.1353561
000390 0e 2b ec bc 8b 55 f4 3d c5 d7 2c 3e 07 ec c0 bd
       -0.028829124 0.119303785 0.16879185 -0.09420019
0003a0 90 5b 36 3e 42 73 fd 3d 08 f9 ce bc 91 b3 e5 3d
       0.17808366 0.12375499 -0.025265232 0.1121589
0003b0 a2 91 6f 3e d9 2c aa 3c fa b7 f1 3c b7 e5 19 3e
       0.23395398 0.020773338 0.029506672 0.15029036
0003c0 88 7f 72 3d f5 ce 30 be 4b 94 59 3e 27 18 42 be
       0.059203655 -0.17266448 0.21247976 -0.18954526
0003d0 58 4a e3 3d 77 f8 38 bd e4 3f 14 3e 8d e9 42 be
       0.11098164 -0.04515883 0.14477497 -0.19034405
0003e0 22 25 18 bc 38 45 31 3e ce 82 f9 3d 6a 5f 75 3d
       -0.009286197 0.17311561 0.12183152 0.059905447
0003f0 98 ee 2f 3e 15 08 5c 3d 51 44 62 3e 48 b5 2c 3d
       0.1718086 0.053718645 0.22096373 0.04216507

weight f4 [16]
000000 a5 fd 7e 3f e4 a8 7e 3f 36 68 7d 3f a8 db 7e 3f
       0.9960578 0.99476457 0.9898714 0.9955392
000010 70 87 7f 3f 6f 12 7e 3f af 1c 7f 3f 1b 38 7f 3f
       0.99816036 0.9924688 0.9965314 0.99694985
000020 6f 0c 7e 3f 48 f8 7d 3f ee 0f 7e 3f 66 87 7e 3f
       0.9923772 0.9920697 0.99243057 0.9942535
000030 19 34 7e 3f 79 57 7f 3f 49 1e 7e 3f fe d6 7d 3f
       0.99298245 0.9974285 0.9926496 0.9915618

bias f4 [16]
000000 7e d4 b1 bb 37 53 cd bb fb b8 3a bc 4a b1 d2 bb
       -0.0054269424 -0.0062660235 -0.011396642 -0.006429826
000010 f7 bf 8b bb af 5a 07 bc 9b 2d 35 bc 22 54 ab bb
       -0.0042648274 -0.008261367 -0.0110582365 -0.0052285353
000020 e3 7d 19 bc 6a 1b 29 bc 61 d3 de bb 9d 5b 10 bc
       -0.009368393 -0.010321477 -0.0068001007 -0.008810905
000030 1d a9 ba bb c9 8b 96 bb 9f 0a 30 bc cb b8 1f bc
       -0.0056964294 -0.0045943004 -0.01074472 -0.009748648

running_mean f4 [16]
000000 ea 70 4b 3d 2c 0b 7b 3d 5b 35 36 bd a5 8d 56 3c
       0.04966823 0.06128995 -0.044484477 0.013095294
000010 32 52 3c 3d 4b 0f 30 bd e7 c3 2b bc ac aa 95 bc
       0.045976825 -0.042983335 -0.0104837185 -0.01826986
000020 9c fb 9b 3c 00 f1 c2 3b 4a 7a eb 3c 1e c7 a8 bd
       0.019040875 0.0059491396 0.028744835 -0.082411036
000030 d0 4c d9 3c ab 04 05 bc 8c bb d2 3c 6c 46 b2 bc
       0.026525885 -0.008118789 0.025724195 -0.021762095

running_var f4 [16]
000000 23 46 81 3e 21 a1 04 3e e4 14 4e 3e fe 23 d0 3d
       0.25248823 0.12952091 0.20125157 0.10163115
000010 0f 4e 8b 3d a8 7b cb 3d 38 2d d5 3d c0 2b b8 3d
       0.06801998 0.09935695 0.104090154 0.0899272
000020 14 9c f0 3d 6b 96 81 3d d9 ba 28 3e 3f dd a5 3d
       0.117485195 0.06327518 0.16477527 0.0809884
000030 20 06 ee 3d e3 1e 8a 3d 23 77 26 3e 81 bc 97 3d
       0.11622262 0.067441724 0.16256385 0.07409001

weight f4 [3, 1520]
000000 b8 e3 87 bc 2f a6 c0 bc c3 0c ff 3a db d5 dc 3c
       -0.016588077 -0.023516743 0.0019458759 0.026957443
000010 79 49 94 bc 24 32 6e bc 76 3e 8a 3a d7 ad dc bb
       -0.01810144 -0.014538322 0.0010547179 -0.0067345905
000020 fd 09 85 ba 1c 02 93 bc d9 12 a4 3b 5a 73 bd bb
       -0.0010150071 -0.017945342 0.0050071296 -0.0057815732
000030 6c 04 d2 bb 49 33 86 3c b9 65 e0 bb dd 70 4d 3c
       -0.0064092185 0.016381877 -0.006848064 0.012539116
000040 27 1a aa bc 32 25 d3 bb 74 a9 32 3c 9d 0e 0d 3c
       -0.020764424 -0.006443643 0.010904659 0.008609441
000050 21 bc a5 3c af 53 b3 bb e0 86 7b bc 72 12 84 3c
       0.020231308 -0.0054726223 -0.015351981 0.016122077
000060 df 31 d5 bc ee 07 9f bb d9 69 de 3c 6c eb b3 3c
       -0.026024757 -0.00485324 0.027150081 0.021962844
000070 27 a4 a8 3c 97 74 83 bc 34 08 84 bb 74 fc 5e 3c
       0.020586086 -0.016046805 -0.004029298 0.013609994
000080 91 40 c2 bc c8 2c 7e 3b 44 25 bd 3c b0 b4 61 b8
       -0.023712428 0.0038784016 0.023089059 -5.381246e-05
000090 7e 70 a8 3c 1a a3 b1 bc 10 87 0c 3b 27 e2 91 bc
       0.020561453 -0.021684218 0.0021442808 -0.017808033
0000a0 0e d0 87 bb 65 f3 1d 3c d6 bd 9e bc b2 d6 17 bb
       -0.004144675 0.009640549 -0.01937763 -0.002316874
0000b0 51 02 b4 bc ba 84 4e bc 25 b3 88 bc 33 87 fb 3b
       -0.02197376 -0.012604887 -0.016686985 0.007676029
0000c0 13 e0 a0 bc 0c 33 dd 3b a4 6b af bc 51 a7 7c 3c
       -0.019638097 0.00675047 -0.021413632 0.015420751
0000d0 58 da 7a 3c 1e 6b bf 3c 35 32 02 bb 25 f1 bc 3b
       0.015310846 0.023366507 -0.0019866352 0.0057660514
0000e0 77 41 3b bc 03 5c 63 bc 66 2a da 3c 3f f4 18 bd
       -0.011429182 -0.013876918 0.026631545 -0.037342306
0000f0 2f af 99 bc 76 35 b7 bb fa 0b 24 bc ba 0f ad ba
       -0.018760292 -0.00559109 -0.010012621 -0.001320354
000100 ec fb 9b 3c af 80 29 bc 4f 08 74 3b 20 65 ff ba
       0.019041024 -0.010345622 0.0037236398 -0.0019485094
000110 2b 2e 67 bc c9 13 da 3b 0a 54 08 bc 66 91 90 3c
       -0.014110128 0.0066551906 -0.008320818 0.017647456
000120 20 2f 65 3c c1 be 86 3b ec bd df bb 63 55 9c 3c
       0.013988286 0.004112095 -0.0068280604 0.019083684
000130 e4 3f 06 39 a7 b0 17 3c db fa 89 bc 55 74 8e 3c
       0.00012803037 0.009258426 -0.01684325 0.017389456
000140 a8 f5 e9 ba 96 7b 03 b9 87 e9 04 3c 94 e4 4f bc
       -0.00178497 -0.00012539173 0.008112318 -0.012688775
000150 61 e9 24 3c d6 1a 3d 3b c2 91 51 bc 4e d3 ea 39
       0.0100654075 0.0028855107 -0.012791099 0.00044789392
000160 9c 7f a9 bc ce 90 da bc 1a 07 a4 bc 85 bc 96 bc
       -0.020690732 -0.026680376 -0.020022918 -0.01840044
000170 41 71 16 bc 97 5e d4 bb 41 b0 47 3c fa 1a fb 3c
       -0.009182275 -0.0064810026 0.012188018 0.030652512
000180 a3 18 bd bc f8 7f 80 bc 82 74 89 3c 3f f2 4e 3c
       -0.023083037 -0.01568602 0.016779188 0.012630998
000190 8b 06 5f 3c e0 f1 b8 3c 4a 33 cf 3c 3a c9 f0 bc
       0.0136124 0.022576272 0.025293011 -0.029392827
0001a0 de d0 25 3c 45 f1 91 bc 3c 8b 00 bd bd cd 5c 3c
       0.010120599 -0.017815242 -0.031382784 0.013476786
0001b0 cd ed a1 3c ee c0 2e 3c d5 7f 9c bc 2d c5 c0 bc
       0.019766713 0.010666115 -0.019103924 -0.02353152
0001c0 1b 47 c7 bc 22 31 a0 3c f3 12 96 bc ce 63 48 bb
       -0.024325898 0.019554678 -0.018319583 -0.0030577066
0001d0 16 c1 40 bc a6 29 14 3c 43 00 0a 3b 18 1c c8 bc
       -0.011764785 0.009043133 0.0021057285 -0.024427459
0001e0 44 cf 92 3c 04 db 12 3c da d4 23 3b 34 63 f4 bc
       0.017921098 0.00896335 0.0024998696 -0.02983246
0001f0 f7 a9 dd bc 31 f9 8a bc 75 e1 91 bc fb 9f bb bc
       -0.027058585 -0.016964527 -0.017807702 -0.022903433
000200 e8 01 ac 3c a4 aa 2d bc f4 4e 62 3c f4 8e a5 bc
       0.020997003 -0.010599766 0.013812769 -0.020209767
000210 26 ef 8d bb 58 5a 6e bc 26 be 30 bb 90 4f f8 3b
       -0.004331487 -0.014547907 -0.0026968806 0.007577844
000220 58 e2 1e bc d2 03 04 3c 03 78 73 bc 24 78 8b 3b
       -0.009697519 0.008057551 -0.014860156 0.0042562652
000230 a3 82 97 bc 56 a3 ae bc bb e2 67 bc a5 57 03 bc
       -0.01849491 -0.021318119 -0.014153178 -0.008016502
000240 6e d9 ee 3c fb 6b 80 3c 1e d4 8b 3c 15 3b 3c bc
       0.029156413 0.01567649 0.017068919 -0.011488696
000250 da af 2b bc 66 88 a2 bc d6 2d 8a 3a aa 2a 89 3c
       -0.010478938 -0.01984043 0.0010542225 0.016743977
000260 7e 24 27 bc 8e 84 c0 3b 65 2f 08 3c df 19 b9 bc
       -0.0102015715 0.0058751768 0.008312081 -0.022595344
000270 f8 dc 51 39 1a f1 44 3b 98 c9 a2 3a 7c 61 5e bc
       0.0002001411 0.0030050934 0.0012419699 -0.013573047
000280 46 05 66 3b c8 ba 7a 3c f3 1d 3e ba ea a0 a6 3c
       0.0035098358 0.015303321 -0.00072523876 0.020340402
000290 c5 43 5c bc dc 41 5a 3c e6 e9 8c 3b cd f2 84 bc
       -0.013443892 0.013321366 0.004300344 -0.016229058
0002a0 3b ab 82 bb d1 91 5e bb d6 63 82 3c 09 36 15 3c
       -0.0039876974 -0.0033961425 0.015916746 0.009107121
0002b0 91 d4 6e bc 12 85 d1 bb 59 1f 3b 3b e8 25 85 3c
       -0.014577047 -0.006394037 0.002855262 0.016253427
0002c0 6d 8d 9b bc ea cc 65 3b 4a e7 80 3b df 39 0a 3c
       -0.018988336 0.0035064765 0.003933822 0.008436649
0002d0 b1 0f d3 3b c8 86 46 3b 53 9a 1e bc 14 80 93 3c
       0.0064410795 0.0030292738 -0.009680348 0.018005408
0002e0 12 6a 33 3c 2a ee 31 bc 30 11 34 3c b0 d6 9a bc
       0.010950582 -0.010860005 0.010990426 -0.0189012
0002f0 1c d1 1f 3c 5c a5 90 3c 16 32 27 bc ad 0a 97 3c
       0.009754445 0.017656974 -0.0102048125 0.018437708
000300 9d 5f 82 bc a0 9c 8c 3c b8 e7 b3 bb 14 a3 dc bc
       -0.015914733 0.017164528 -0.0054902695 -0.02693323
000310 30 03 85 3c 2a 89 9b bc b1 c3 12 3c 27 66 01 3c
       0.016236871 -0.018986303 0.008957789 0.00789789
000320 35 10 4d ba 5b 0a 4c bb c3 79 36 3c 66 5b 97 3c
       -0.00078225444 -0.0031134102 0.011137429 0.0184762
000330 b3 57 3c 3c 35 73 b2 bc 9e 52 b3 ba b8 81 86 bc
       0.0114955185 -0.02178345 -0.0013681238 -0.016419277
000340 6c 98 94 bb c4 ea ea bc 7f ed 90 bc 92 12 89 3c
       -0.0045347717 -0.028676398 -0.017691372 0.016732488
000350 c8 46 6b bb 6f 35 50 bc 78 84 8e bc 2e 4e ed bb
       -0.0035900343 -0.012708052 -0.01739715 -0.0072419858
000360 c2 7b 82 bc 3c 1f f3 3b 4a 5c 91 bc 5b 90 05 bc
       -0.015928153 0.007419495 -0.017744202 -0.008152093
000370 3a 66 04 3c eb 09 5b 3c 62 1d 25 3c 2c 0b 07 3a
       0.008081013 0.013369064 0.010077806 0.0005151506
000380 52 6a 97 bc 90 ae e5 bb db aa fc b9 8f 31 8f 3c
       -0.018483315 -0.007009335 -0.00048192483 0.017479686
000390 8c 93 56 bc c0 06 f9 bb ea 4b 9a bc f4 f6 a8 bc
       -0.013096701 -0.0075996816 -0.018835027 -0.020625569
0003a0 09 88 23 bc 6d 4a 72 bb da f5 65 3c c8 dd b7 3c
       -0.009981164 -0.003697063 0.014035666 0.02244462
0003b0 90 da 31 3c de 42 42 3c 48 98 91 3c 69 d9 aa 3c
       0.010855332 0.011856763 0.017772809 0.020855622
0003c0 d0 d1 e6 3b 1a d7 67 3c ae f1 8a bc 5d d4 a8 3c
       0.0070440546 0.014150405 -0.016960945 0.020609075
0003d0 32 af b2 bb f1 c8 ba 3c dc a5 53 bc ed b1 e2 3b
       -0.005453014 0.022800894 -0.012917962 0.006918183
0003e0 57 b0 18 bc 76 94 83 bc 04 32 16 bd 2c 06 37 bc
       -0.009319386 -0.016062003 -0.036668792 -0.011170905
0003f0 c7 11 1c bc 8e 3d 85 bc 81 87 44 bc 23 57 6e bc
       -0.009525723 -0.016264703 -0.011995197 -0.014547142

bias f4 [3]
000000 4e 59 8f 3c 7c 11 88 3c e3 36 2b bc
       0.017498638 0.0166099 -0.010450098
