mi/Algorithm/impl/eegnet_model/model_1_3.pkl (torch, 38676 bytes, 18 tensors)

weight f4 [8, 1, 1, 64]
00000000: 3f36 d5bd ce8e be3d 2539 863d 4ee5 e0bd
00000010: 247c a8bd d079 95bd acb6 183d c492 c0bd
00000020: 3b32 afbd 1f02 193d 3959 bdbd ab03 cd3c
00000030: b8d5 b93d e404 40bd 3aca 69bd 675f df3d
00000040: 5f9b a0bd 36ab 803d 8b60 b43d 663d 313d
00000050: 5f1e 95bd cf7f bebc 932f e1bb 47e5 f93d
00000060: 53ab 393d 6a01 203d 340f c2bd b493 19bd
00000070: fea2 d43c 5ecb 2dbd d194 8bbd e46d e5bd
00000080: 2998 ed3d 556e aebc 86d3 a9bc e83d fbbc
00000090: 4d27 fe3d b027 283c 14e8 263d a8a6 a7bd
000000a0: b960 713d b9b6 68bd ce73 a9bd ae78 a4bd
000000b0: 67f6 b23d 0566 4fbd 2294 763d 81e1 b33c
000000c0: ec08 cabd 4a0a bcbd 1078 efbc 08b5 fa3c
000000d0: f96e ff3d cf5e 9fbd 1859 f03c cfaf b13d
000000e0: e661 e83a d6e6 5c39 6d59 823d e044 f83d
000000f0: 2f6e ae3d fda0 e4bd a05a 44bd 6a3c 11bd
00000100: 64b0 36bd 3618 3c3c ec81 e43d ba2c f83d
00000110: 13bd 9c3d f8c4 d83d 7d6b 35bc edf8 813b
00000120: 0a92 acbd 71ca 6bbd 3715 7f3d b8a5 ec3d
00000130: f976 a9bd 0011 453c 51dd 3e3d 5ad9 8a3d
00000140: a1dc d73d b37b e83d 5bca 91bc 763e d33d
00000150: c772 803c e56a f7bd 64a1 85bd 65f8 34bd
00000160: 4161 ed3d 7f31 65bd de17 0d3d 2f96 ce3d
00000170: fb51 9a3d 3440 dbbd fca1 d7bd 5e0f d0bd
00000180: ca04 ebbd 7b89 893d 6544 01bd 02d7 44ba
00000190: 3314 7b3d 4aa2 aabc 4d4c d13d 4150 4bbd
000001a0: 9fb0 083d bdf8 593b fe97 a73d 047e fabc
000001b0: df37 233d 5f72 2d3d b63d 603c 526c 2d3d
000001c0: 59b2 693d 39c5 b03d 09ad e43d bc57 4fbd
000001d0: 9575 31bc a647 a83d 7487 b2bd ead7 c8bd
000001e0: edb7 1c3a 8d3e ed3a e7db 90bd ef15 e0bb
000001f0: b8df c0bd c72f f93c a43a 7fbd 382d ff3d
00000200: c343 b23d 1cce 19bb 9ccb 55bd e928 02be
00000210: 4491 7cbd 81c3 23bd eea3 933d 3c8c b33d
00000220: 517d b03d f703 bcbd 1539 f9bd af12 6abc
00000230: d99c 18bd 2b7c e4bc f7a2 cd3d 6bed 053d
00000240: 83ef 9d3c 6719 883d 78fb e7bd 8435 273d
00000250: 62ec 0abd 64a6 1e3d d3c2 d43d 29c7 a83d
00000260: 5320 aa3d c56c 9a3d f7d7 5e3d 694f 6b3c
00000270: 30de 793c 8d98 4abd f763 babd d3e4 a93c
00000280: 129d 9c3d 3ecc d73c 88b3 ce3d 1965 f13d
00000290: 650e df3d 5346 5c3c fcbe 13bd 3c97 a1bb
000002a0: 79a1 8cbd 518c 41bd e51a 363d 1901 cd3c
000002b0: ffc3 083b cfb1 bb3d 1988 8f3c bec5 663c
000002c0: c7a4 bdbd a143 bebd e98f a0bc b709 d2bd
000002d0: 1645 f53d 2aaf cf3b cb79 e2bc 1df2 1abb
000002e0: f6d1 52bd fc10 96bc 3512 59bd f556 733c
000002f0: aec0 7d3d 06f1 6bbd 92fd 223c f189 9fbd
00000300: b86d e4bc eb47 a2bd ab3b d7bc 5082 0dbd
00000310: 62af b53d b202 6dbd b477 65bd 61c3 c53d
00000320: f6b7 783d 2fc9 d1bd bd72 b1bd e81c 61bd
00000330: 29e0 e33b 4a31 e6bd 3451 5abd ecc5 15b9
00000340: b196 debd 234c 283d 6c22 c3bb 5d6f 313d
00000350: acd9 ccbd 165d b53d 79ee d63d 9481 823d
00000360: 6f08 503d c599 16bd a3b7 90bd 43cc 0dbd
00000370: 37c9 5c3c 52d9 a33d 541e 6f3c 9e8e 5abd
00000380: c53c 38bd b3dc b63d 9594 cfbc 99ff b53d
00000390: 6c74 abbd 13b6 dabd f211 863c 5546 c1bd
000003a0: 559f 9cbd f02b acbd 15a9 cdbc a899 1d3d
000003b0: 9ad0 27bd 75cc e43d a99c f1bd d94e f13d
000003c0: 42e3 853d 6066 8f3d bf25 023e 76db 9fbd
000003d0: 7d79 20bd f200 d93d d92a 7c3d 80c7 65bd
000003e0: f618 debd 48bf 1c3d 33e4 d6bd 8c9c e73d
000003f0: a001 80bc fe9d a5bd 51bc 77bd b648 67bc
-0.10410737 0.093045816 0.06553868 -0.109812364 -0.08226803 -0.072986245 0.037283584 -0.09402993
-0.085545026 0.03735554 -0.092455335 0.025026163 0.09073967 -0.046879664 -0.057077624 0.109068684
-0.07842135 0.06282656 0.088074766 0.043271445 -0.072811835 -0.023254303 -0.0068721264 0.12201934
0.045329403 0.03906385 -0.09475556 -0.037494376 0.025956627 -0.042430274 -0.06815494 -0.112026006
0.11601288 -0.021292845 -0.020730745 -0.030669168 0.1240984 0.0102633685 0.04074867 -0.08186084
0.058930133 -0.056814883 -0.08274041 -0.0803083 0.08738404 -0.050634403 0.060199864 0.021958115
-0.09864983 -0.0918165 -0.029232055 0.0306039 0.12472338 -0.07781755 0.029339358 0.08676111
0.0017729371 0.00021066828 0.06364713 0.12122512 0.085171096 -0.111635186 -0.04793799 -0.035458006
-0.044601813 0.011480382 0.11157593 0.12117906 0.076532505 0.10584444 -0.0110729905 0.003966442
-0.08426292 -0.05756611 0.06227609 0.11555046 -0.08274645 0.012027979 0.046597783 0.06779738
0.105401285 0.11351719 -0.017796686 0.10314648 0.01567973 -0.120809354 -0.065249234 -0.0441822
0.11590815 -0.055955406 0.03444659 0.10087239 0.07535168 -0.10705605 -0.10528943 -0.10159181
-0.11475523 0.067156754 -0.031559367 -0.00075088453 0.06129856 -0.020829339 0.10219631 -0.049637083
0.033371564 0.0033259832 0.08183287 -0.030577667 0.039848205 0.0423454 0.013686588 0.04233963
0.05705485 0.08631367 0.11165816 -0.05062078 -0.010831256 0.08216791 -0.08717242 -0.09806807
0.0005978335 0.0018100307 -0.07073193 -0.006838552 -0.09417671 0.03041829 -0.062311783 0.12459797
0.08704331 -0.0023468798 -0.05219613 -0.12710918 -0.061661974 -0.03998137 0.072090015 0.08766982
0.08617652 -0.09180444 -0.12169091 -0.014286681 -0.037258957 -0.02789124 0.10040849 0.032697123
0.019279247 0.0664547 -0.11327261 0.04082252 -0.03391684 0.0387329 0.10388722 0.08241112
0.083069466 0.075402774 0.05440518 0.014362195 0.0152507275 -0.04946189 -0.09101098 0.020738995
0.07647146 0.026342507 0.100928366 0.11786861 0.108914174 0.013444501 -0.03607081 -0.0049313586
-0.06866736 -0.047252957 0.044459242 0.025024937 0.0020868776 0.09164774 0.017520951 0.014085231
-0.092599444 -0.09290243 -0.019599872 -0.10255759 0.11976068 0.00633802 -0.027645966 -0.0023642846
-0.051469766 -0.018318646 -0.05299588 0.014852275 0.06195133 -0.057602905 0.009948151 -0.07789982
-0.02788435 -0.079238735 -0.02627357 -0.034548104 0.08871342 -0.0578639 -0.05602236 0.09656406
0.060722314 -0.10243451 -0.08664463 -0.054959208 0.006954212 -0.1123987 -0.053300098 -0.00014283479
-0.10868586 0.041088235 -0.005955031 0.043319095 -0.10002455 0.08855645 0.10494704 0.06372371
0.050789293 -0.03676774 -0.07066276 -0.034618627 0.013475708 0.08000435 0.014594633 -0.053358667
-0.04497983 0.08928814 -0.025339404 0.08886642 -0.08371815 -0.10679259 0.016365979 -0.09437243
-0.07647578 -0.08406818 -0.025105039 0.038476616 -0.040970422 0.111718096 -0.11797459 0.11782617
0.065374866 0.07001948 0.12709711 -0.07805531 -0.03917836 0.105958834 0.0615643 -0.05609846
-0.10844605 0.038268358 -0.10492744 0.11309156 -0.015625775 -0.08086775 -0.060482327 -0.014116457

weight f4 [8]
00000000: 0000 803f 0500 803f 0100 803f 0200 803f
00000010: 0400 803f 0000 803f 1200 803f a4ff 7f3f
1.0 1.0000006 1.0000001 1.0000002 1.0000005 1.0 1.0000021 0.9999945

bias f4 [8]
00000000: 8e22 f7b1 cf8c 36b2 182e 5b31 9919 bc32
00000010: 5eef 07b2 82bb 93b1 747d 5cb1 a440 28b3
-7.1925745e-09 -1.06258105e-08 3.1894896e-09 2.1897721e-08 -7.91246e-09 -4.2995802e-09 -3.2085525e-09 -3.917434e-08

running_mean f4 [8]
00000000: eeff eeb9 c32e ab3a 51d9 fa39 6e4b 80ba
00000010: 1327 1dba 5c95 7cba b5c8 6c3a 1be5 fe3a
-0.0004558558 0.0013060201 0.0004784563 -0.0009788105 -0.0005994897 -0.00096352934 0.0009032593 0.0019446941

running_var f4 [8]
00000000: d09d 8639 3fb8 0b3a c047 de38 51b5 c239
00000010: 740c 4239 3aab ac39 50f1 8739 3809 9c3a
0.0002567605 0.0005329884 0.000105991494 0.00037137655 0.00018505921 0.0003293397 0.00025928998 0.0011904603

weight f4 [16, 1, 64, 1]
00000000: 6412 ca3c defb a53d 43e8 bf3d fe4f a73c
00000010: b8e2 e33d 80e3 32bc 19d2 2e3d ca43 933d
00000020: 2dd7 233a 5f6c 0b3d 1925 81bb bdb1 643d
00000030: 6779 87bd e395 873d 0d64 2e3c 038f 70bd
00000040: ded2 b83d ef00 e7bd f924 7cbd 3573 97bd
00000050: fd8d dbbd 07dc 49bb 0480 c73c 5a18 dfbc
00000060: 390e 49bd 516e 773d 1696 a1bd e5cb 023d
00000070: ed39 e33c 8ceb ebbd 90f2 82bd f16a 393d
00000080: 01ad 44bd 51a5 40bd bf78 023d e592 8fbd
00000090: 3cf9 0cbd 612d aa3d 3ed2 ba3d 4389 b33d
000000a0: aaf7 e2bc a1fa ba3c c827 b3bd 6d4c ad3d
000000b0: edab b6bd 2c9d 6c3d 1a25 e7bd 7f75 d53d
000000c0: 6a3c 60bd 2376 b3bd c7d7 09bc 6285 073c
000000d0: e078 91bd 1599 eb3c 3bde 87bd 028f c0bd
000000e0: 58ad b73c 9dea e4bd 896e 8cbd e6e3 e43d
000000f0: 2346 aa3d f42f f33c f447 ab3d 9c6e 86bd
00000100: 1fe4 6d3d 72b2 44bb 2fc1 9ebc 3104 6abd
00000110: cc30 f8bd 3e0b a5bd 8956 b0bc 8d2b febc
00000120: 4661 cebd e702 fc3d 53f6 0e3d 4265 b73c
00000130: bb1b 873d ce0b ecbd 8e72 f73b a3da a13d
00000140: 2502 fe3d 8e57 413d c4ec 89bd 25be cbbd
00000150: 3840 c83d 7261 983d 8a79 b43d 9cff bb3d
00000160: a693 a0bd 4e5b a93d 2d8a 00bd 680c 303d
00000170: 0236 d7bd 2971 babd 2aee 6abd ce57 06bd
00000180: e719 e3bc 2ed0 873d 8f6a 443d 7f27 3e3d
00000190: 03f2 ff3d 373d e93d 4417 0e3d 105c efbd
000001a0: 751c bb3d 22b1 aa3d 7549 743d 768b ea3d
000001b0: b0b1 c5bd 8abd bfbd c913 a4bd 7b60 cb3d
000001c0: d151 7d3d 043b 0e3d d182 cf3d d134 a6bd
000001d0: c043 953c aee6 b63d 9c2d 1f3d c5b3 bebc
000001e0: 1121 e43d 1a89 fc3d 7a22 6a3d 42a6 01bc
000001f0: a406 7bbb 0fc4 43bc dd49 cbbd 47c6 83bd
00000200: d2ea df3d 8759 da3d 7554 8e3d e2ce 613d
00000210: 2cfa 303d f3e9 acbd 4595 9bbd be44 42bd
00000220: 94cb 83bc def6 d8bd 287b a6bc c54a a2bd
00000230: 71a3 c63d abda b73c fb23 d23d 46fb 7bbd
00000240: c2b8 af3d 1624 2bbd 15ca 783b 5294 a4bd
00000250: 86ba 883d ee85 acbd 026d ffbd 97a5 32bd
00000260: 0a04 d83d 7af4 933c 45ed 03bb 7106 8cbc
00000270: cc10 bdbd 2167 933d 03a1 e9bd 76bc 6cbd
00000280: beee fdbd 296f bd3c a7a7 e13b d7ee c63c
00000290: 6223 96bd 3c29 293d b104 6a3d db11 4abd
000002a0: 8397 e53d 49e5 d33d ca40 80bc c716 e13d
000002b0: 47b6 debd dfe1 14bd 5fd0 eb3b 69e8 813d
000002c0: 2e33 56bd 05d9 ba3d 4b64 89bc 323f d3bd
000002d0: 485a c23d 4e34 bc3d c344 32ba e8aa c0bd
000002e0: a5d4 f43d 2dac d63d e12a 5fbd 7072 abbd
000002f0: f284 b53d 4861 c7bd 633f aabd a904 e2bd
00000300: 05e7 ae3d 75e1 393d 9e1d b73d 3895 fb3d
00000310: c60b 2ebc 3db2 cebd 0e86 e4bd 5bea 75bd
00000320: b2e1 56ba c601 6ebd 5171 b93d cb5c e1bd
00000330: fb5f dcbd ce22 923d 6cc0 1f3d 1dd0 f43d
00000340: 68fe a33c 73f6 aabd 5de9 aa3d b557 053d
00000350: f627 c1bc 2b27 c1bd f9fd ed3d 24ea a03d
00000360: 78ee d53d 16c4 93bd b9e0 0a3d 894d c23d
00000370: 1870 55bd 389e c43d a277 33bc cde3 de3d
00000380: ef26 96ba 325b b83d 391b 593d 5441 f53d
00000390: d307 f7bc ceca 963d 3048 8bbd fac7 393d
000003a0: e638 f53d b4ae 403d 91e2 a4bd 4ef5 e93c
000003b0: 9fe5 423d b598 70bd f057 0dbd 1b21 d8bd
000003c0: 854a 3e3d 806b f1bd 8fd0 a23d 2bbd a7bd
000003d0: 9aff 97bb 05af 6fbd c744 7b3d 9eb7 78bd
000003e0: ebbb 82bd a08a 863d 3287 bc3d 8f89 6bbd
000003f0: 2a5e 943d fd33 0fbc 9e0b fcbc c342 87bd
0.024666972 0.081046805 0.09370472 0.020423885 0.111272275 -0.010918498 0.042680833 0.07190664
0.000625002 0.034038898 -0.00394119 0.055833567 -0.066149525 0.066203855 0.010643971 -0.058730137
0.09024595 -0.11279475 -0.061558697 -0.07395021 -0.107204415 -0.0030801313 0.024353035 -0.027233291
-0.04908583 0.06040794 -0.07889955 0.03193273 0.027737582 -0.115195364 -0.063939214 0.045268003
-0.048016552 -0.047032658 0.031853434 -0.0701044 -0.034417376 0.083094366 0.09122132 0.08766415
-0.027705986 0.022824587 -0.08747822 0.08461843 -0.08919511 0.05776708 -0.112863734 0.10422801
-0.054745115 -0.08762767 -0.008413262 0.008271547 -0.07103133 0.028759519 -0.06634184 -0.094022766
0.022421524 -0.111775614 -0.068570204 0.11176281 0.08314159 0.029685952 0.08363333 -0.06564066
0.05807888 -0.0030013588 -0.019379226 -0.057132903 -0.12118682 -0.08058785 -0.021525638 -0.031026626
-0.10077147 0.12305241 0.03490288 0.02238715 0.06597086 -0.11525689 0.007551498 0.0790303
0.12402753 0.04720264 -0.067346126 -0.099483766 0.09777874 0.07440461 0.08812244 0.09179613
-0.07840662 0.08269368 -0.031381775 0.04298058 -0.10508348 -0.09103615 -0.057356037 -0.03279858
-0.027722312 0.06631504 0.047953185 0.046424385 0.12497332 0.11388629 0.034690157 -0.116874814
0.09136287 0.08334567 0.059640367 0.11452381 -0.09653032 -0.093623236 -0.08011586 0.099305116
0.061845604 0.03472425 0.10132373 -0.08115543 0.018220782 0.089307174 0.038861856 -0.02327908
0.111391194 0.123308375 0.057161786 -0.007913174 -0.0038303519 -0.0119485995 -0.09926198 -0.06434303
0.1093346 0.10661607 0.06949703 0.05512894 0.043207332 -0.0844306 -0.0759683 -0.04742884
-0.016088285 -0.10593961 -0.020322397 -0.079244174 0.09699143 0.022443136 0.10260769 -0.06151893
0.08580162 -0.04178246 0.0037962247 -0.08036102 0.066762015 -0.084239826 -0.124719635 -0.04361495
0.105476454 0.018060911 -0.0020130437 -0.017092915 -0.092317194 0.07197405 -0.11407664 -0.057796918
-0.12399052 0.023124294 0.006886441 0.02428381 -0.073309675 0.04129909 0.05713338 -0.049333435
0.11210539 0.10346467 -0.015655894 0.109906726 -0.108746104 -0.03634822 0.0071964706 0.06343157
-0.052294903 0.091234244 -0.016771456 -0.10314788 0.09489876 0.09189664 -0.00068004074 -0.09407598
0.11954621 0.10482059 -0.054484252 -0.083714366 0.08863248 -0.09735352 -0.08312871 -0.11036045
0.08540157 0.04538103 0.08941196 0.122843206 -0.010622924 -0.1009259 -0.111583814 -0.060037952
-0.00081970834 -0.05810716 0.090548165 -0.11004027 -0.10760494 0.07135545 0.039001867 0.11953757
0.020018771 -0.08347788 0.08345292 0.032554347 -0.023578625 -0.09431299 0.11620707 0.07857159
0.10445875 -0.07215135 0.03390572 0.09487445 -0.052108854 0.0960049 -0.010953816 0.10883293
-0.0011455695 0.09001769 0.053004477 0.11975351 -0.030155098 0.07362901 -0.06800878 0.045356728
0.11973743 0.04704161 -0.080510266 0.028559353 0.047582265 -0.058739383 -0.03450769 -0.10553189
0.046457786 -0.11788082 0.07949936 -0.08190378 -0.0046386244 -0.05851652 0.061344888 -0.060721986
-0.06383499 0.06569409 0.09205474 -0.057504233 0.07244523 -0.008740422 -0.030767258 -0.06604531

weight f4 [16]
00000000: 192d 803f e372 803f ed75 803f 3ff1 7f3f
00000010: 1e2d 803f 34e6 7f3f 057e 803f c3ff 7e3f
00000020: b433 803f 3fff 7f3f 39fc 7f3f 4925 803f
00000030: 22f2 7f3f f05b 803f 18a3 7c3f 4d16 803f
1.0013763 1.0035061 1.0035988 0.9997749 1.0013769 0.9996064 1.0038458 0.9960901
1.0015779 0.9999885 0.99994236 1.0011379 0.9997884 1.0028057 0.9868636 1.0006806

bias f4 [16]
00000000: d9a7 263a 19b5 9fba 1e5a 163a 1a97 88b8
00000010: 4f82 6339 7b33 4d3a 91fc 493b b08b 76b9
00000020: 95f8 423a 5c29 5f3a 5f15 003b 0aef 003a
00000030: 0adb 373a d19e d63a d2b8 88bb ebbc 993a
0.0006357409 -0.0012184709 0.00057354744 -6.51313e-05 0.0002169695 0.00078278006 0.0030820707 -0.00023512426
0.00074375543 0.0008512938 0.0019543988 0.0004918432 0.00070135354 0.0016374235 -0.004172423 0.0011729276

running_mean f4 [16]
00000000: 761f 573e 6037 2a3e e3c0 d13d 06d8 943e
00000010: eb72 fe3c b135 47bf 4fc8 3d3e 7452 e7be
00000020: 8518 d53e 0e43 3ebe b891 98be 49f8 b83e
00000030: bfe7 30bf 13bc 1a3e c8a2 2abf c66e 00bf
0.21008095 0.16622686 0.10241868 0.29071063 0.031060657 -0.778163 0.18533443 -0.45180094
0.4162027 -0.18580267 -0.29798675 0.36126927 -0.69103616 0.15110807 -0.66654634 -0.50169027

running_var f4 [16]
00000000: be0a 273f e06d ab3d 84f2 ce3d 4545 063d
00000010: 4bd9 ca3d 6bb2 a43d 68e5 803d a1cf 753e
00000020: 2f79 193d ebe1 a43d 9ba0 ea3d 3520 033d
00000030: f26b b03b 0f4d 603c d100 003e 8a35 f33b
0.65250766 0.08370566 0.1010485 0.032780904 0.099047266 0.08041843 0.06293756 0.24004985
0.037469085 0.08050903 0.11456414 0.032013137 0.005383962 0.013690247 0.12500311 0.007422154

weight f4 [16, 1, 1, 16]
00000000: d437 003e 0d3b 2d3d 1544 743e 8b70 9aba
00000010: 1644 4f3d 6dc1 afbc fe20 b43d 60c4 0d3d
00000020: 7e28 323e a4f4 023e 0f70 0dbd 0e01 553d
00000030: 13a4 373e d758 dabc 4267 703e f74b a7bd
00000040: 5101 5d3e 681c e43d 7b7c 7f3e 74f3 873d
00000050: 9b5a 58bd d2c0 27be 3c6f d83d e9f2 2b3e
00000060: 546e 8abd 8d28 b7bd 7649 ac3d 4eb0 753c
00000070: 3d7d b83d ac32 4e3e d8fd 74be 5a85 4b3e
00000080: db53 74be 2369 9c3d 8d90 f63d 108e 18be
00000090: 9077 753e e7c6 373e 36ab e9bd 6efc 86bc
000000a0: 2870 8f3b 5fd6 64be aa4a 60be d2ea 563e
000000b0: a79b 6dbe 3fc2 403e f408 6fbe 7f4b 67be
000000c0: 4b40 febc 2763 013e be11 21be 2400 83bd
000000d0: 3a79 45bd 1c61 903b 6d23 c7bd b9ed 493e
000000e0: 55b0 413d 3729 b9bd 2fa6 323e a402 34be
000000f0: fde6 3e3e 35f6 073e 17e9 adbd 5a1c 9e3c
00000100: d63a 78bd 1f4b 353e a4e1 f8bc 8979 823d
00000110: 2a8e c03d 5458 06be 3f8f 743c d21a 3a3e
00000120: bf06 243e 2ef4 29be 4012 e2bd 635a 6c3e
00000130: 5cd2 0fbe 6af6 333d 9450 5b3e 3ec1 51be
00000140: 00b0 52be 55f1 3b3e 3ceb f53d 65aa c93d
00000150: 0346 16bc 6ec6 7f3c 7c1b 1dbd 8c3f 28be
00000160: 3f05 03be ce51 06be 263f e63d 4afd 40be
00000170: 2dd2 5ebd ed5a f1bc 278b b0bd 8ddd 2c3e
00000180: be91 5c3e ff6b 3ebe 92a5 74be 78e3 543e
00000190: 30ae 0bbe 1b9a 8e3d 4eab 57be e3cb 2b3e
000001a0: 1d4e 0ebe 0287 58bd c932 3a3e 0261 1abe
000001b0: 1914 cdbc f9c2 bf3c 5f3d 583e 5f27 9d3d
000001c0: a460 7abe fd7e 073e 6b38 36be eb30 c2bd
000001d0: a31f 11be 7b2d 3cbd 3748 06be 29ba 7ebd
000001e0: 8c97 fcbd 3c93 0abe e9c7 03be 8b3b 8cbd
000001f0: 8526 fa3b 41d1 39be 2e8c 81be 6a70 3e3d
00000200: 4f6a 5bbd 1c49 493e 0aa6 323e ecde f13d
00000210: 772c 41be a290 73be 7719 a83d ba24 29be
00000220: 4589 2c3e ba6c adbd 23d9 5a3e 6a01 d33d
00000230: c3f3 7c3e 1bea cfbd c9a7 aebd 1e61 34be
00000240: c95c 58be e4b7 e83d 5fd6 e83d d193 59be
00000250: 8b6f 953d a340 abbd 1c90 21be 4e1c 9fbd
00000260: 8c0e 633d 8420 123e 011c f93d 1b15 ed3d
00000270: 6b0f a93d c9c8 6a3e 3ab5 ae3d b6df 09bb
00000280: 6e39 94bd eae9 dcbd 37b9 49be 0a39 2e3e
00000290: 465b 1e3d bd55 5bbe 9c45 f53d 6ead 5abe
000002a0: 7b9e e63d fa03 a83d 6e80 4dbd 5608 04bd
000002b0: 2091 fabd edd3 19be 456c 08be 6d67 243e
000002c0: a830 9abd f37f 753e adb8 7cbe d25d 79bc
000002d0: 148f f7bb 8319 52bd c491 0b3e df7c 163e
000002e0: 05ad cc3c 4328 b2bd b72b 5b3d 51fb aebd
000002f0: 3e05 80bc 983f 763e da94 f5bd f52b 40be
00000300: 3169 0bbe b254 70be 46d5 49be 225a eb3d
00000310: e170 0bbc 757f 5dbe df70 3e3e 3845 bd3d
00000320: 1e5a 0f3e 5245 17be f7f9 463e 6fd2 15be
00000330: 4d4c 1fbe daa3 51be 116e 07be ab98 153e
00000340: f8cc d7bb d1e8 e4bd 1fc5 21bd 6713 3c3e
00000350: 54d6 333e 8d4c 1abe 3c04 bdbd 41dc 403e
00000360: 89c0 4fbe fb0a 0cbd 740e 3fbe b1f1 c33d
00000370: 235d a7bd b6e0 933d 0214 8cbd 0f95 c1bc
00000380: aae9 153e 03ba 153e 2123 23be ebd4 833c
00000390: aa37 59be ad84 6ebe 27c0 f9bd b036 4dbe
000003a0: 8514 4cbe 57d7 43be 2f39 0bbd 9257 16be
000003b0: 4081 2f3e 2e3b 12be c04f 49be 2788 b7bd
000003c0: 0f5c 213d 49d9 b2bb 3a47 1a3d c8c6 1dbe
000003d0: ad4d adbd cef8 0b3e f235 7a3e 7988 83bd
000003e0: a7be 653d 7330 4cbe 0988 70be ebe3 043e
000003f0: 8d11 c0bd c295 fb3d 4f0d 163c c070 8f3d
0.12521297 0.042292643 0.23854096 -0.0011782808 0.05060204 -0.021454537 0.08795355 0.034611106
0.17398259 0.12788635 -0.034530696 0.05200296 0.17933683 -0.02665369 0.2347689 -0.08168786
0.21582533 0.111382306 0.2494983 0.06638232 -0.052820783 -0.16382149 0.10568091 0.16791882
-0.06759325 -0.08943281 0.08412449 0.014995648 0.09008262 0.20136517 -0.23924959 0.19875088
-0.23860113 0.07637241 0.120392896 -0.14897943 0.2397139 0.17946969 -0.11409609 -0.01647779
0.0043773837 -0.22347401 -0.21903482 0.20988014 -0.23203908 0.18824099 -0.23343259 -0.22587393
-0.031036517 0.1263548 -0.15729424 -0.06396511 -0.048211314 0.0044061076 -0.09723554 0.1971959
0.047287304 -0.09041064 0.17446207 -0.17579132 0.18642803 0.13277514 -0.08491724 0.019300628
-0.060602985 0.17704438 -0.030381031 0.06370837 0.09402116 -0.13119632 0.014926731 0.18174294
0.16018198 -0.16597053 -0.11038637 0.23081355 -0.1404509 0.04393617 0.21417457 -0.20483872
-0.20574951 0.1835378 0.12007758 0.09846953 -0.0091719655 0.015611274 -0.03835629 -0.16430491
-0.1279497 -0.13117144 0.11242513 -0.18846622 -0.054399658 -0.029462302 -0.08620291 0.1688139
0.21539971 -0.18595885 -0.23891285 0.20789897 -0.13640666 0.06962987 -0.21061441 0.16776995
-0.13896985 -0.05286313 0.18183435 -0.15076068 -0.025033997 0.0234084 0.21117161 0.07673525
-0.24450928 0.13232036 -0.17794959 -0.094819866 -0.14172225 -0.04594181 -0.13113485 -0.062189255
-0.12333593 -0.13532728 -0.12869228 -0.068472944 0.0076339864 -0.1814623 -0.2530226 0.046493925
-0.05356818 0.19656795 0.17446151 0.11810097 -0.18864618 -0.23785642 0.08207982 -0.16517916
0.16849239 -0.084680036 0.21371894 0.10303004 0.24702363 -0.10152074 -0.08528096 -0.17615172
-0.21129145 0.11363199 0.11369013 -0.21247794 0.07296666 -0.08361938 -0.1577763 -0.077690706
0.055433795 0.14270216 0.121635444 0.11576291 0.08254894 0.22928156 0.0853066 -0.0021037883
-0.07237516 -0.10786803 -0.1969956 0.17013946 0.038661264 -0.21419425 0.119761676 -0.2135522
0.112606965 0.082038835 -0.05017131 -0.032234512 -0.12234712 -0.1502225 -0.13322552 0.16055079
-0.07528812 0.2397459 -0.24679823 -0.015220122 -0.007554898 -0.05129386 0.13629824 0.14696072
0.024984846 -0.086990856 0.053508487 -0.085440286 -0.0156275 0.24047697 -0.11991282 -0.18766768
-0.13614346 -0.23469809 -0.19710264 0.11491801 -0.008510799 -0.21630652 0.18597744 0.09241718
0.1399922 -0.14772537 0.19431292 -0.14631055 -0.1555645 -0.2047266 -0.13225581 0.1460902
-0.0065857135 -0.11177219 -0.03949463 0.18366776 0.17562228 -0.15068264 -0.09229323 0.1883402
-0.2028829 -0.03419016 -0.18657857 0.09567583 -0.08172061 0.072205946 -0.06839754 -0.023630647
0.14639917 0.14621739 -0.1593137 0.016092738 -0.2121264 -0.232928 -0.12194853 -0.20040393
-0.19929703 -0.19125114 -0.03399008 -0.14681843 0.17139149 -0.14280388 -0.19659328 -0.08961516
0.039394435 -0.0054580313 0.037665583 -0.1540786 -0.08462081 0.1366913 0.24434641 -0.064225145
0.056090023 -0.19940357 -0.23489393 0.12977569 -0.093783475 0.122844234 0.009158446 0.07003927

weight f4 [16, 16, 1, 1]
00000000: c20a 843d 8477 8abd 3e2d 953a 83b8 72be
00000010: 7a34 e1bd 9956 283e e900 2cbe 42fe 403e
00000020: adf9 263e e9c6 88bd 5bbc e5bc 68e9 323e
00000030: a921 c43d e540 1b3d a740 1d3e 9519 9ebd
00000040: e848 8f3c 0a08 05be b1a6 183e 0a84 2abe
00000050: 4294 5d3e c578 a23d b329 7d3e 9268 913d
00000060: 8937 49be 1365 70be c49c b5bd eeb8 0dbd
00000070: b4fb 19be 0fa8 32be a5aa 003e 3195 55be
00000080: 1de8 523e 0f7c 08be e96a a9bb 1e29 d43d
00000090: 8360 823c 0a86 5dbd ebfd d1bd b367 063e
000000a0: 3c5e 623e 4938 793e f9a9 783e e154 4f3e
000000b0: 16a2 21bd 8d4e 9c3d ebca fcbd e6d0 633e
000000c0: f7b6 33bd 846c 7dbe 2f3f 563e 3567 0abe
000000d0: 50e4 8c3c fb48 e3bd b601 3cbc e6cd 76bd
000000e0: f651 ed3d 4a03 ff3c 1412 9fbd 6cbd 7cbe
000000f0: 5669 b9bd 6431 773e 5a43 9cbd 47df b43d
00000100: 411e 24bd 509d 843d 52ab fc3d 9dc1 6b3e
00000110: 016c 8bbd 64aa 4cbd 3edd 383e 7c21 3cbc
00000120: d588 83bd 3e01 63be f079 b83a 04c7 b33d
00000130: ba33 ebbd 2871 fcbd 7d8f 74be 176c d6bc
00000140: c82d babd be24 203b 793e 50be 5a08 1fbe
00000150: 3c3d e2bd 7256 f9bd e2cb 663e 93a6 0b3e
00000160: de87 fc3d 15a8 12be df4a 39be 30d2 6dbc
00000170: f868 18be c93d 24be d5d9 0bbe 9b00 733e
00000180: 11b2 603d c898 173e e947 1bbe ecf9 aa3d
00000190: c05e 4f3e 47fa 533d 86ce e23d 7b48 20be
000001a0: a596 6b3e f6b2 4c3e 2785 fbbd e925 9abc
000001b0: 0ced 2e3e d243 523d 4e28 153e 021f 7dbe
000001c0: e3f2 783e 5635 4b3e 251c 883d af59 423e
000001d0: 483b 32be 6ec2 5d3e 95a8 493e 9be2 5fbe
000001e0: 1a25 c03d 7ce6 623d ee66 293d f0ec 31bd
000001f0: f5c9 7e3e 12e3 57bd 2808 8f3d df81 9a3d
00000200: c5fa 1dbe 93f3 353e 7c73 3fbe 85f1 173e
00000210: 6443 81bd 0baf bb3b 7a4e 3b3e 1af8 94bc
00000220: 1f2a 293e a8b9 40be 2d76 95bd e7af f73d
00000230: c1a3 59bd 5883 46be 0612 873d d058 70be
00000240: b0b8 513e e111 a13d 51e1 153e 7aa4 3bbe
00000250: 0636 34be 3632 1dbe 804b 863d 23e1 803d
00000260: 8519 7abe ee3f c4bc 7951 fd3d a19e 25bd
00000270: 1bdf a7bd 29bd 163e 114c 6a3e 5d50 9b3d
00000280: 1f80 203e c074 bc3d ddea 613e 91cf 0fbe
00000290: 421b aebd 7057 cc3c d42f e7bd 7f3b 0f3e
000002a0: 435a 653c 2817 d7bd a858 6c3e 1c7b 683e
000002b0: df3c 20bd d2d5 bcbd 14bc 56be 1316 5c3e
000002c0: a32d 04be a359 39be 6e53 c93d f3a4 4b3c
000002d0: 5cc0 f43d 7327 a9bd 58ce adbd 5ca8 68be
000002e0: e0fe 0bbd 5ca1 1b3d 780d 2a3e e694 f1bc
000002f0: 43da 1f3e 7213 733e f512 ddbd a950 f93d
00000300: 7e7f 3c3e 0ac3 72bd a5f8 b83d 81d5 563e
00000310: 2b97 723e d129 773d b163 583d 439a 7c3e
00000320: b0be bfbc ac7f 1cbe f274 91bd e740 07be
00000330: cea0 e7bd 270e 343d eedd cc3b 67a5 fd3d
00000340: ce2b 223e 8212 0abe 57c9 323b 045d 34be
00000350: 8c1d a8bd 6248 50bd 65ba d6bd 8d83 03be
00000360: 1995 213d be01 44bb df88 acba 13a4 793e
00000370: 3daf 573e 218d 64be 809c 3c3d 300b 303e
00000380: c599 0ebe c569 6abe ae8d 2c3e 6491 d03d
00000390: 12d8 b63c bd3a 67be bc5e 1bbe 8106 283e
000003a0: 92cc a2bd a2e5 273e 823b 65bc 12a3 a9bd
000003b0: 4c6d 073e edab 553e d658 6abe 1d54 05be
000003c0: 077a a1bd 165b 283e 61b2 0ebe e855 9e3c
000003d0: cc9f cbbd 3518 433e 4b14 f8bd 3e4e b4bd
000003e0: 7d55 953c f758 4f3e c149 07be cb10 efbc
000003f0: d64a 8abd 52f7 6e3d 7f3c a63d 2e4f 183e
0.064473644 -0.06761077 0.0011381281 -0.23703198 -0.10996337 0.16439284 -0.16797222 0.18846992
0.16306181 -0.06678564 -0.028043916 0.1747185 0.09576733 0.037903685 0.15356694 -0.07719723
0.01749082 -0.12991348 0.14907338 -0.16651931 0.21638587 0.07933191 0.24722938 0.07100023
-0.19650091 -0.23476057 -0.08867791 -0.03460019 -0.15037423 -0.17446922 0.12565096 -0.20857693
0.20596357 -0.13328575 -0.0051702154 0.10359405 0.015915161 -0.054082908 -0.10253509 0.13125496
0.2210626 0.24337877 0.2428359 0.20247222 -0.039461218 0.0763217 -0.12343391 0.22247657
-0.04387566 -0.24748427 0.2092254 -0.13515933 0.017198712 -0.11097904 -0.011475017 -0.060254954
0.115878984 0.031129498 -0.0776712 -0.24681634 -0.09053294 0.24139935 -0.07630034 0.08831649
-0.040067915 0.064753175 0.12337364 0.23023076 -0.068077095 -0.049967185 0.18053147 -0.011482593
-0.06422583 -0.22168443 0.0014074426 0.087781936 -0.114844754 -0.1232627 -0.23882861 -0.026174588
-0.09090763 0.0024435963 -0.20336331 -0.1553053 -0.11046836 -0.12174691 0.22538713 0.13637762
0.12330602 -0.1432193 -0.18094967 -0.014515445 -0.14883792 -0.16039194 -0.13657315 0.237307
0.054857317 0.14804375 -0.1516415 0.0834845 0.20250988 0.051752355 0.110745475 -0.15652649
0.23006685 0.19990143 -0.12281256 -0.018816905 0.17082614 0.05133421 0.14566156 -0.2471886
0.24311404 0.19844565 0.06645993 0.18979524 -0.17405427 0.216562 0.19693215 -0.21863787
0.093820766 0.05539559 0.041357927 -0.04343885 0.24881728 -0.052706786 0.069839776 0.07544302
-0.15427692 0.17768697 -0.18696398 0.14838226 -0.06311682 0.005727654 0.18291655 -0.01818471
0.16519974 -0.18820822 -0.07297931 0.120940976 -0.053134684 -0.19386041 0.065952346 -0.2347138
0.20480609 0.07864738 0.14636733 -0.18324462 -0.17598733 -0.15351185 0.06557369 0.062929414
-0.24423797 -0.023956265 0.12369055 -0.040434483 -0.08196851 0.14720596 0.2288058 0.075836875
0.15673874 0.09201956 0.2206225 -0.14044024 -0.08501293 0.024944037 -0.11288419 0.1398754
0.013998571 -0.105024636 0.23080695 0.22703212 -0.03912055 -0.092204705 -0.20970184 0.21492796
-0.12908034 -0.181006 0.09830366 0.012429464 0.11950752 -0.082594775 -0.084866226 -0.22720474
-0.034178615 0.03799568 0.166067 -0.029489946 0.15610604 0.23737887 -0.107946314 0.12173588
0.1840801 -0.059268035 0.090318 0.20979883 0.23690479 0.060342614 0.052829448 0.24668221
-0.023406357 -0.15283078 -0.07102384 -0.13208352 -0.11309968 0.04395881 0.006252042 0.123850636
0.15837023 -0.13483623 0.0027280652 -0.17613608 -0.082087606 -0.05085028 -0.10484771 -0.12843151
0.03944883 -0.0029908265 -0.0013163349 0.24378996 0.21062942 -0.22319461 0.046047688 0.17191768
-0.13925846 -0.2289191 0.16850922 0.10183981 0.022319827 -0.22581 -0.15172857 0.16408731
-0.07949175 0.16396192 -0.013991239 -0.08283056 0.13225287 0.20866366 -0.2288545 -0.13020368
-0.07884603 0.16440997 -0.13935234 0.019328073 -0.09942588 0.19052203 -0.121132456 -0.08803986
0.01822924 0.20248781 -0.13211729 -0.029182812 -0.06752555 0.05834133 0.081170075 0.14873955

weight f4 [16]
00000000: 513f 7f3f a9ae 7e3f a488 7f3f 0151 7f3f
00000010: 5fda 7d3f 1142 7e3f 651f 7f3f 3bbc 7f3f
00000020: 1d10 7f3f c1fb 7e3f 3bd9 7d3f c5b0 7d3f
00000030: 4b25 7f3f 4875 7e3f 834c 7e3f 4c19 7f3f
0.9970599 0.9948526 0.9981787 0.9973298 0.9916133 0.9931956 0.9965728 0.9989659
0.9963396 0.99602896 0.9915959 0.99097854 0.9966628 0.99397707 0.993355 0.99647975

bias f4 [16]
00000000: 022e 9ebb 69aa f7bb 74c1 acb9 ee26 82bb
00000010: 879c cebb 57ac 1fbc c733 e8bb bb0b 94bb
00000020: 94a3 fabb e5cb 34bc 6a11 e9bb 4a66 14bc
00000030: 09a1 7cbb 56e3 5abc 2766 c6bb 8a90 e8bb
-0.004827262 -0.0075581563 -0.0003295053 -0.003971926 -0.0063052806 -0.009745679 -0.0070862505 -0.004518
-0.0076488946 -0.01103494 -0.0071126716 -0.009057591 -0.0038548133 -0.013359865 -0.006054658 -0.0070973085

running_mean f4 [16]
00000000: b37f dcbd a939 93bd 05e7 9f3c 71f9 adbc
00000010: 2033 523d a507 fd3c e6b8 aa3d 8dbf b43d
00000020: 4da8 a93c a729 7abd b388 463b b61f 16bc
00000030: 740d fabc 8acc b43c e9e1 8bbd dd38 3e3d
-0.10766544 -0.07188732 0.019519338 -0.021237107 0.051318288 0.030887434 0.08336048 0.08825598
0.020710135 -0.06107488 0.0030293881 -0.009162834 -0.030523993 0.022070188 -0.06830198 0.046440948

running_var f4 [16]
00000000: b88e c83d 80e3 083e 1873 1f3e 3abb cb3d
00000010: 708f c13d bd19 cb3d 3289 bc3d 551c ca3d
00000020: bfd6 b73d 3fb2 2b3e b5a1 b03d 0b9d 7d3d
00000030: 2c9a c43d aa3f 7b3d 83db 183e 6da6 f93d
0.097928464 0.13368034 0.15571249 0.0994782 0.09451187 0.099170186 0.092058554 0.09868685
0.089765064 0.16767214 0.08624593 0.061917346 0.095997185 0.06134001 0.14927487 0.12189946

weight f4 [3, 1520]
00000000: 1b64 883b c1a3 1ebd dd74 c63c 011b 27ba
00000010: 6e92 da3c bc1f 8bbc 950d fa3a e6ba 143c
00000020: 7d65 32bc 9554 eebb 6308 d13c 826c d63c
00000030: 73b3 51bc 970d 6abc a661 b0bb b5c7 ca3c
00000040: 9e85 6c3b 1a51 473c 4a66 99bc 17ca 0a3b
00000050: 4ba0 96bc 7832 d33b fe99 0dba f1e1 3c3b
00000060: ce2b 8c3a db6c 803c 1b29 1ebc c04e de3b
00000070: 9f26 05bd fb37 c63b 6490 923c e412 23ba
00000080: 1ef2 b23c f28f ebbb 5270 a6ba d716 753c
00000090: 7d9a b43c 781a 003c d166 29bc f8dc 11bb
000000a0: 6544 7a3c 4d58 4e3c 5f97 ecbb 0b59 62bb
000000b0: bb7a c83b a509 3fbb 2b9d 0ebd ac5a 26bb
000000c0: 955f 153b 89ec c23c 336d c9bb 49c8 b8bc
000000d0: ee63 313c 629d ecba 8b8b 02bc 506f aabc
000000e0: f88a 513c 1dfb ca3c 3458 c3bc 9c23 f8bb
000000f0: 976e b23c 6e34 83bc c63a 513b 84b5 c93c
00000100: a395 d63c 8136 8d3c 86f4 aa3a 20c8 ccbb
00000110: ee3f 10bd ad8d ce3c aa7a 86bb 9488 bbbc
00000120: 6be3 6bbc 4e7a f43b fd8c e03c 6490 46bc
00000130: 9a83 bdbc 7d29 fa3c 8d08 1f3b 9070 cc3b
00000140: 44f1 763c 91c9 55bc 0546 583c 960d 90bc
00000150: cbf6 083d be7f b8bc f966 efbc 6835 46bc
00000160: b565 92bc d445 cf3b 59c3 10bc a9d3 a73c
00000170: 0dc2 8e3c 1ece 90bc fbc8 c33c e7e2 ca3c
00000180: 10aa ab3b 2056 903c b8db 4dbc bbcc 0d3a
00000190: aec5 a23c a72f 963c 42b7 5c3b 6470 c13c
000001a0: 0173 01bc e26a 393b d234 ecbc 5f96 013c
000001b0: a08e 8abb 4cf7 76bb 8b16 8a3c 0e27 113b
000001c0: b233 68bb 974c 24bc b423 8dbc f356 f63b
000001d0: 7de5 80bb e833 d93b caa5 9c3c 6e0e 813c
000001e0: 6b8f a6bc f6da a1bc 3e46 253b 6db3 f43b
000001f0: f7bb 9b3c f76d de3c 44fb a0bc 7e73 9bbc
00000200: 216d aabb 0213 8039 a338 1b3c 3884 98bc
00000210: 80c6 ce3b fd39 cd39 4cbd a3bc dc6a a0bb
00000220: 8b20 953c 08cf 843c 1f62 7abc b9c7 9bbc
00000230: 2df4 5d3c 9fd0 a2bc d804 af3c c7a6 f03c
00000240: 0cfb 903c 724f b13a 17f0 b9ba 588c a5bc
00000250: d1fa 68bc 204b cd3c e22c 7bbc 677a 5fbc
00000260: 9734 d43b eb08 b83b 4656 d2bc b9f2 c13c
00000270: 1fcc 433c ca31 50bc 4d59 7f3c c8a5 1b3c
00000280: a005 913c 8748 61bc e3ec 773b 415b e2bb
00000290: f6b7 89bc b9e1 053c de75 913c 140d 8bbc
000002a0: 0fba fc3b 129f 95bc 12a9 8f3c daa9 94bb
000002b0: 24c3 be3c dfb5 843c 72bc 3cbc 3a33 e83c
000002c0: 23ae 563c 598f ba3c d2b9 543c b6f4 3a3b
000002d0: 62e4 e8bb e925 aabc 4bee d6bc 0e5a 8fbc
000002e0: 92b2 bf39 7859 6e3c d4d7 8b3c 87a3 60bc
000002f0: f839 ae3c f9c5 93bc 1d28 433c 7bfa 903c
00000300: 51cf 3a3c 1443 e23b 4f12 a7bb e23b 22bc
00000310: c03d ecbc 2241 ee3c 15d4 9e3c ba5d a8bc
00000320: 6593 563c 6ff4 46bc ac8e eebb 0b74 cebb
00000330: 6e6d 87bc c021 9fbc 9804 27b9 509e 6ebc
00000340: 0979 8f3c e68c 983c 1062 b63c b03d 92bc
00000350: 0498 863c 0fb0 633b 3037 03bc 7062 be3c
00000360: b12f 8c3c 8eab b33c cf5c c3bc 0f2b 513c
00000370: c201 85bb 6463 1dbb c4a4 183d 660d f9bb
00000380: cc5f 36bc 8766 fa3b 5eb7 4abb 969a 04bc
00000390: c152 63bc af1f 82bc 6d2c 693c 6d97 52bc
000003a0: a957 02bb aaa4 cb3a 6230 1dbc 3157 163c
000003b0: 7c54 0f3c 8676 513c e0fd 913b 1539 b73c
000003c0: 6372 25bc b0dd 323c 63dc 7a3c fe4a 473c
000003d0: a90b 2c3c ed72 e3bb 2c57 443c 9681 4abc
000003e0: d988 373c aa16 ac3c 920b 103c c0fc fd3a
000003f0: 0e43 b63c 6ee7 7a3c 2734 c3bc bb1e 8e3c
0.004162324 -0.038730387 0.024225647 -0.00063745683 0.026681151 -0.016982906 0.0019077534 0.009077763
-0.0108884545 -0.0072732666 0.025516694 0.026174787 -0.012799132 -0.014285467 -0.0053827344 0.02475343
0.0036090384 0.012165332 -0.018725533 0.0021177584 -0.01838698 0.0064452253 -0.000540167 0.0028821195
0.0010694207 0.015676906 -0.009653355 0.00678429 -0.032507535 0.006049154 0.017891116 -0.00062207715
0.021843966 -0.0071887905 -0.0012698269 0.014959059 0.022046322 0.007818811 -0.010339455 -0.0022256952
0.015275096 0.012594295 -0.0072201933 -0.0034537937 0.0061181462 -0.0029150036 -0.034817856 -0.0025383634
0.0022792567 0.02379443 -0.0061470508 -0.02255644 0.010827048 -0.0018052275 -0.00796784 -0.020805031
0.01278948 0.024777943 -0.02384577 -0.0075726043 0.021781249 -0.016016211 0.00319259 0.024622686
0.0261944 0.017237904 0.0013042844 -0.0062494427 -0.035217218 0.02521404 -0.004103978 -0.022892274
-0.014397482 0.007460869 0.027410978 -0.012119386 -0.023134042 0.030537361 0.0024266571 0.0062390044
0.015072171 -0.013048545 0.013200288 -0.017584603 0.033438485 -0.02252185 -0.029223906 -0.012097694
-0.017870763 0.006325463 -0.008835637 0.02048667 0.017426515 -0.01767641 0.023899546 0.024766399
0.005238779 0.017619193 -0.012564592 0.00054092304 0.019869652 0.01833327 0.0033678566 0.023613162
-0.007900954 0.0028292467 -0.02883378 0.007909386 -0.004228428 -0.0037684022 0.016856452 0.0022148523
-0.0035431203 -0.010028026 -0.017228939 0.0075176894 -0.003933607 0.006628502 0.019122023 0.01575395
-0.020332059 -0.019757729 0.002521887 0.0074676783 0.019010527 0.027152045 -0.019651063 -0.01897597
-0.0052009975 0.00024428224 0.009473952 -0.018617734 0.006310284 0.00039143852 -0.019987725 -0.004895551
0.018203994 0.016212001 -0.015282183 -0.019016134 0.013546986 -0.019874869 0.021364614 0.0293764
0.017697833 0.0013527705 -0.0014185932 -0.020208523 -0.014219956 0.025060236 -0.015330525 -0.013640023
0.0064759958 0.0056162975 -0.025675904 0.02367531 0.011950522 -0.012707183 0.015585256 0.009499975
0.017702878 -0.013750202 0.0037830404 -0.006907851 -0.016811352 0.008171492 0.017756399 -0.01697401
0.0077126096 -0.018264327 0.017536674 -0.0045368494 0.02328641 0.016200004 -0.011519538 0.02834474
0.013103041 0.022773432 0.012983756 0.0028527207 -0.0071073035 -0.02077003 -0.026236674 -0.017498996
0.00036563404 0.014547698 0.017070688 -0.013710863 0.021267876 -0.018038737 0.011911419 0.017697563
0.011401967 0.006904969 -0.005098618 -0.0099019725 -0.028838038 0.029083792 0.019388238 -0.020552505
0.013096665 -0.012143238 -0.0072801914 -0.0063004545 -0.016531672 -0.019425273 -0.00015928072 -0.014564112
0.017513769 0.018621873 0.022263557 -0.01785168 0.016429909 0.003474239 -0.008008763 0.023240298
0.017112585 0.02193239 -0.023847966 0.012766614 -0.0040590474 -0.002401554 0.037266508 -0.007600474
-0.011131238 0.0076416167 -0.003093205 -0.008093497 -0.013874711 -0.015884249 0.014231783 -0.0128534855
-0.0019888675 0.0015536745 -0.009594055 0.0091760615 0.00874817 0.012784606 0.004455313 0.022366086
-0.010098073 0.010917112 0.015311333 0.012163876 0.010500827 -0.0069411905 0.011983674 -0.012359997
0.011202061 0.0210069 0.008791821 0.0019377694 0.022248771 0.015313966 -0.02382858 0.017348638

bias f4 [3]
00000000: 4246 6d3c 2516 febb cce3 af3c
0.014482083 -0.0077541047 0.021470927
